scripts/built_models/torch_pl.pth (torch, 692563 bytes, 9 tensors)

fc1.weight f4 [256, 503]
00000000: b480 64bd 55d8 71bd 76e2 8ebd 744b bcbc
00000010: 6f97 7b3c 2700 5c3d 6a30 1ebd 8d65 3e3c
00000020: 5163 06bd 50ec 2f3d 158e 403e dcc1 06be
00000030: 86cf 3b3e 90e7 c53d 9d8d 7ebd 80a1 003e
00000040: 84c8 d33d e979 b5bd 4f88 5a3d a8c4 55bd
00000050: 2e5a c03d 8f7a c2bc ab01 29bd f771 353d
00000060: 6b7c 89ba 6450 c7bd 6408 8f3d 75cb f83b
00000070: bd55 f1bc 1e25 933d 4e17 32bd 120a eb3d
00000080: 1ee6 e2bd bdff 00be 96ea a8bc eda2 013e
00000090: ead1 97bd 6099 c03d 3d29 123d dcf9 0a3d
000000a0: 329c 13bd 08f0 023e 48f3 cabc d149 04be
000000b0: c8b4 943d e84f 8a3c 7da4 08be 2e4c f63d
000000c0: 789d bebd 41fd 043e 1d48 303e 4cb5 babc
000000d0: 9c9d d83d dc3c 0f3d 52c7 2cbd 8972 dbba
000000e0: f0d9 91bc 926e b0bd 248f 81bb be27 323e
000000f0: 217a 02bd 3b87 b8bb 2e94 a1bd df2e 8dbd
00000100: 75ed 2bbd a426 773c e9f0 e93d 6fa1 26bd
00000110: 3a1a 0d3b 2109 9d3d 4d73 c93d ee53 073d
00000120: 5bb8 41bc c08d 18bc bd6e ea3a cef8 5fbc
00000130: aa49 0d3d 5360 bfbd b1d0 1ebd 5945 fd3d
00000140: a766 f3bc c38d d9bd d913 58bd 0d91 8bbd
00000150: 525f 85bd cf8a 003d bd57 09be 6703 14bd
00000160: f576 4abd 03a2 05be c455 92bd 26e6 e6bb
00000170: 9716 46be d1fc 74bd 93ce a4bd e7fd e83d
00000180: f349 02bd d838 9c3b 09b2 90bd d906 71bd
00000190: c211 cebc 8e81 643d 3936 ffbd c44f e4bd
000001a0: 01a7 adbd fd9e 0bbd aed2 22bd 06c4 e6bd
000001b0: a0b5 8cbd 4380 5fbd 4389 26be 0dd2 f2bc
000001c0: 0801 933d 9673 2e3e 9017 973b faa3 163e
000001d0: 5913 2f3e 5827 2f3d 8173 f93c 0054 9d3c
000001e0: 1c3f 953c 4ebb 463d a48a b2bd 96e8 543e
000001f0: a0f2 6a3d 4dcc 4cbd 7de8 cfbc 5702 183d
00000200: 1a27 b73d b7ef 573c 5f8c e1bd 259b 0b3d
00000210: e260 463c 21c1 e13c 1e1c a33b 6051 ccbc
00000220: dbf6 483d 4aea 21bc 1696 1e3d a538 5ebd
00000230: d232 7c3d 243f e33d 0a2f 213c 9b63 b6bc
00000240: e8e8 ab3a 1a48 9f3d f459 cdbd 7002 e63d
00000250: 3e17 983c c9cb 1bbd c3c3 733c 557c 2e3d
00000260: 93e6 6cbc b0c9 383d 5913 a93b ed29 9e3d
00000270: d981 04bd 9cf0 2abc 005b 373e 1672 4c3d
00000280: 9cc5 b93c de3c 5a3e 00b0 b83d 53f6 c53d
00000290: 0795 1a3e 6b20 f83d feca f6bd 11ba 73bd
000002a0: 023c 9cbc fdb3 70bd baff e5bd 3cc5 babd
000002b0: d977 5fbe 6665 19bd 92b9 57ba 129e 12bc
000002c0: 007e 3dbd 9ad2 943d 75a3 293d eda4 a0bb
000002d0: c2dc 2cbd 62fc 333d 9e8f 4dbd 6dc4 d83c
000002e0: d4b8 e5bc 56c8 913c 7097 25bc 2e1d 85bd
000002f0: afec 49bd d3fa 0e3d 58fc 4bbb 4188 d13d
00000300: 6020 f1bd 826e 62bd 8e21 c0bd b6a4 6ebd
00000310: 037b 91bd 608e 383c e47e 873c d3dd 12bd
00000320: 7038 d43d 337e 50bd b7ac f23b 9d7f 073e
00000330: 3c19 6cbd a4f8 adbd 05e7 d23d 58b7 abbd
00000340: 48e5 78bb b991 d6bd 4d9a 5c3c 6fe2 863d
00000350: dbe2 083b 6d22 34bc e7e8 813d b7d6 aebc
00000360: d5a9 66bd 4a22 653d 0fff 1dbe 6cc3 3fbd
00000370: 982d 10bb ce52 5e3d 8769 67bc e1d9 8abc
00000380: 7d87 ea3d 2849 3ebc 8c54 1a3d 28d5 153d
00000390: 47cc 7abd aa02 aa3d 27cd 41bd 63db 4dbd
000003a0: 39b9 f3bc 7c54 8abd 3af6 53be 9f06 d8bc
000003b0: 3417 c2bc d80c 06bb 2483 053c c734 7c3d
000003c0: 1fdd 1c3d c5a6 fb3c 81b4 993b 3116 e53d
000003d0: 9662 3ebd c239 3ebd 91ed 0bbe 3028 f2bb
000003e0: 75a2 27bd dba7 a73d 9b1a b33b 781d 37bd
000003f0: 71c3 8bbd f191 28bd d3d6 00bd b49d 793d
-0.055786803 -0.0590442 -0.06976788 -0.022985198 0.015355929 0.053711083 -0.03862039 0.011620891
-0.03280956 0.042949975 0.188042 -0.13159889 0.18340883 0.09663308 -0.06214677 0.12561607
0.1034098 -0.08861143 0.05335265 -0.0521895 0.093922004 -0.023740081 -0.041261356 0.04429814
-0.001048935 -0.0973213 0.06984022 0.0075926133 -0.029459829 0.07184814 -0.043479256 0.1147653
-0.110790476 -0.12597556 -0.020619672 0.12659808 -0.07413085 0.09404254 0.03568386 0.03392969
-0.03603763 0.12786877 -0.024774209 -0.12918784 0.07261044 0.016883805 -0.13343997 0.12026249
-0.093073785 0.12987234 0.17215009 -0.022791527 0.105769366 0.03497015 -0.042182274 -0.0016742508
-0.017804116 -0.086148396 -0.0039538313 0.17397973 -0.031854752 -0.005631355 -0.07889591 -0.068937056
-0.041974504 0.015084896 0.11422903 -0.0406813 0.0021530525 0.07667757 0.09836445 0.033039026
-0.011823739 -0.00931114 0.0017885786 -0.0136701595 0.03449408 -0.09344544 -0.038773242 0.12366743
-0.029712034 -0.10622742 -0.052753303 -0.068147756 -0.065123215 0.03138238 -0.13412376 -0.036136057
-0.049429853 -0.13050084 -0.07145265 -0.007046479 -0.19344555 -0.059811417 -0.080472134 0.11376553
-0.031808805 0.0047675185 -0.070652075 -0.05884442 -0.025154952 0.055787615 -0.12461514 -0.111480266
-0.08479119 -0.03408717 -0.0397517 -0.11267857 -0.0687058 -0.05456568 -0.16263299 -0.029641176
0.07177931 0.1703628 0.004610963 0.1471099 0.17097224 0.04276213 0.030450584 0.019205093
0.01821857 0.04851847 -0.0871785 0.2079185 0.05736029 -0.049999524 -0.025379414 0.037111606
0.08943005 0.013179711 -0.11013102 0.034083504 0.01210806 0.027557911 0.004977717 -0.024941146
0.049063545 -0.009882519 0.03871735 -0.05425324 0.061571904 0.110960275 0.009837875 -0.022264292
0.0013115676 0.07777424 -0.10026923 0.11230934 0.01856577 -0.03803614 0.014878216 0.04259904
-0.01445927 0.04511422 0.005159777 0.077228405 -0.032350395 -0.010433342 0.17905807 0.04991349
0.022677235 0.21312281 0.09017944 0.09666123 0.15095912 0.12115558 -0.120504364 -0.05950362
-0.019071583 -0.0587654 -0.112304166 -0.09119651 -0.21823062 -0.037450217 -0.0008229251 -0.00894882
-0.04626274 0.072667316 0.04141565 -0.004902473 -0.04220272 0.043941863 -0.050185792 0.02646085
-0.028042234 0.017795723 -0.010106906 -0.06499706 -0.049297985 0.034907173 -0.003112575 0.102310665
-0.11773753 -0.05528117 -0.093814 -0.05826255 -0.07103541 0.011264414 0.016539998 -0.03585608
0.10362327 -0.050901603 0.007405843 0.13232274 -0.057641253 -0.0849469 0.1029797 -0.083845794
-0.003797846 -0.10477013 0.013464523 0.065861575 0.002088717 -0.010994536 0.06343251 -0.021342618
-0.05631431 0.055940904 -0.15429328 -0.04681723 -0.0021999832 0.054278187 -0.014124281 -0.016949596
0.114516236 -0.0116141215 0.037678286 0.036580235 -0.06122997 0.083012894 -0.04731479 -0.05025805
-0.029751407 -0.06754395 -0.20699397 -0.026370345 -0.023692705 -0.0020454433 0.008148942 0.06157377
0.038296815 0.03071917 0.004690707 0.11185873 -0.046480738 -0.0464418 -0.13664843 -0.0073900446
-0.040926415 0.08186313 0.005465818 -0.044705838 -0.06824387 -0.041154806 -0.031454872 0.060941413

fc1.bias f4 [256]
00000000: bab2 87be 74fb a5be 50a0 3bbe f968 68be
00000010: da3d 80be 99ba 6dbe cc3f 45be def1 2bbe
00000020: 4f07 a7bd 2cc2 10be 86b7 87be 0569 78be
00000030: 488f 78be 94b6 84be 35bc 15be 3f7b 6bbe
00000040: bfbc c0be 8c7b 30be dd4a 9abe 76b0 9cbe
00000050: 55e9 51be bed4 6ebe 2bb7 dabd 8460 b3be
00000060: af61 2bbe b024 38be f410 87be 6d3f 91be
00000070: d473 73be 8ac0 bebe 2f3d 2fbe fe6b c8be
00000080: 9e62 94be 52d8 99be ee80 11be 59ca 67be
00000090: 1e11 49be 5bd4 64be f980 91be 75b9 17bd
000000a0: 9ce4 0ebe c9e7 52be eda0 71be 863a 5dbe
000000b0: f9dc 66be 4347 29be 9d62 babe 9304 babe
000000c0: c1ba 22be be42 88be e86d 0dbe cc18 48be
000000d0: 4306 83be a3c3 6cbe 0125 83be 90b9 16be
000000e0: 7eda 49be bdf0 a6be 918a a2be 7d74 aabe
000000f0: 481f a4be 9a47 2ebe 67a0 8fbe 7887 5bbe
00000100: feef 9cbe 4ea8 b6bd 6c70 82be 7285 41be
00000110: 74ef bebe 69e3 70be b14c babe e7bf e1bd
00000120: ff24 36be 573c 23be 180e 76be b564 95be
00000130: 430a 52be 2d1f 8cbe 6f7b 62bc 03a2 61be
00000140: db4f a1be 62ed 78be ba4b c9be 2fab 6ebe
00000150: aac2 86be 186b 83be 7163 6ebe dc76 0fbe
00000160: ba66 33be 9cbf 86be b591 1bbe 8775 5ebe
00000170: 5689 90be 7d6a 97be 619c 8dbe fce9 8dbe
00000180: 2b13 65be 8467 81be ca54 f5bd 4517 bfbe
00000190: 1281 63be cfdf abbe 25fa bfbe af92 5bbe
000001a0: 6152 1ebe d022 c3be 9dc1 89be 687b 60be
000001b0: 1444 88be 0318 c8be d31e 47be c4b9 91be
000001c0: 7c64 15be 63aa a0be 2a7a 6ebe 454a ffbd
000001d0: 9f9f b7bc 1130 8dbe e87f 02be 9352 76be
000001e0: ef09 6fbe a371 aebe 4905 35be 6448 73be
000001f0: 7fe1 93be d8a2 a4bd deeb 8cbe f89c bcbe
00000200: 05ff 00be 0133 06be ad69 42be f0c7 42be
00000210: bd95 99be 2392 84be 23bb 3abe 9ebf 2ebe
00000220: 7e1e 3bbe 60aa 99bd 06ca 9abe cea9 74be
00000230: 3eed 26be 816b c5be 1072 d5be da65 94be
00000240: 368c b5be 0cfa babe 93b2 acbe d3de cabe
00000250: d1d8 b9be 53ed 72be 1fe0 11be 90f7 a9be
00000260: 8633 67be 4eda aabe eb80 85be 96bd 2ebe
00000270: 5ca3 2bbe 5dfa a3be c0bf 92be 0137 86be
00000280: 8efc 73be 80e4 4bbe a89d 1bbe bb23 87be
00000290: 8e27 60be 9b7e e6bd 4262 93be c7de 22be
000002a0: 8c56 68be fa9b d0be eb18 83be f7d9 b1be
000002b0: 101f 07be d5a2 23be ae8b 29be c237 dbbd
000002c0: df6e 77be e6fa 80be a7ad 64be 3275 88be
000002d0: 9d9e 86be 65df 13be 1008 b2be 91cc a6be
000002e0: 490c 1bbe 1045 b0be 4645 71be 7b6e aebe
000002f0: c8fd 6ebe fae9 6abe 2675 bcbe d484 14be
00000300: 205f e2bd b9d1 89be 3daa 6fbe 3530 a2be
00000310: 29cc bcbd 635a 65be cf2e 52be 43f7 8ebe
00000320: 0aff a7be e8b5 76be aa2b c5be 2556 bdbe
00000330: 4233 25be 6bf4 95be c7bc a7be bcbe 79be
00000340: 9422 5dbe ccd8 c4be 07d7 a6be 2833 d1bd
00000350: 79d3 e5bd e2a5 9cbe 7a39 9bbd 62d4 03be
00000360: d0af 1fbe 6c39 17be 918c 1ebe ed5b 05be
00000370: da5c 7bbe dc2f 1dbe 181d 6fbe 0e21 3abe
00000380: 18f9 28be 0368 8ebe 70da 37be f213 09be
00000390: 120a 54be 4bf3 53be 10d4 64be eca4 45be
000003a0: 9b73 8cbe 9020 88be c80e b7bd a0ff edbd
000003b0: 4c6f 99be 2710 12be c053 38be 64b2 cabe
000003c0: 235a b4be aced 97be b365 47be 66f8 cbbe
000003d0: 1626 a6bd 2437 70be 0545 76be 7d48 65be
000003e0: 1b75 8ebe 3275 a4be d01c 46be 2c23 8bbe
000003f0: 1595 4abe 7289 7cbe 45f8 a5be f0fa dfbe
-0.26503545 -0.32418406 -0.18322873 -0.22696294 -0.2504719 -0.23215713 -0.19262618 -0.16791484
-0.08155691 -0.1413657 -0.26507205 -0.24258812 -0.24273407 -0.25920546 -0.14622577 -0.22996233
-0.37644002 -0.1723463 -0.3013524 -0.3060338 -0.20499165 -0.23323342 -0.10679468 -0.35034573
-0.16736482 -0.17982745 -0.26380122 -0.28368703 -0.23774654 -0.3725627 -0.17113183 -0.39144892
-0.2898149 -0.30047852 -0.14209339 -0.22635783 -0.19635436 -0.22346632 -0.2841871 -0.0370421
-0.13954395 -0.20596232 -0.23596545 -0.21604356 -0.22545232 -0.1653109 -0.3640336 -0.36331615
-0.15891553 -0.2661342 -0.13811457 -0.1954071 -0.25590715 -0.23121504 -0.2561417 -0.14719224
-0.19712254 -0.32605544 -0.31746343 -0.33291999 -0.32055116 -0.17019501 -0.28052065 -0.21438396
-0.3065185 -0.0891882 -0.25476396 -0.18898562 -0.37292063 -0.2352425 -0.36386636 -0.110229306
-0.1778755 -0.15940987 -0.24028814 -0.29178396 -0.20511727 -0.27367535 -0.013823374 -0.22034459
-0.31506237 -0.24309304 -0.39315587 -0.23307489 -0.26320392 -0.25667644 -0.23280121 -0.14010185
-0.17519656 -0.2631806 -0.15192302 -0.2172452 -0.2822978 -0.29573432 -0.2765837 -0.27717578
-0.22370593 -0.2527429 -0.11979063 -0.3732244 -0.22217205 -0.3356919 -0.37495533 -0.21442674
-0.15461113 -0.38112497 -0.26905528 -0.21922076 -0.2661444 -0.3908082 -0.19445352 -0.2846204
-0.14589113 -0.31379995 -0.2328879 -0.12465338 -0.02241498 -0.27575734 -0.12744105 -0.24054937
-0.23343633 -0.34071073 -0.17677797 -0.23758084 -0.28882977 -0.080388725 -0.27523702 -0.36838508
-0.12597282 -0.13105394 -0.18985625 -0.19021583 -0.29997054 -0.25892743 -0.1823545 -0.17065284
-0.1827335 -0.075031996 -0.30232257 -0.238929 -0.16301438 -0.3855858 -0.41688585 -0.28983957
-0.35458535 -0.36518896 -0.3372999 -0.39623126 -0.3629823 -0.23723345 -0.14245652 -0.33196688
-0.22578248 -0.33369678 -0.2607492 -0.17064509 -0.16761535 -0.3202695 -0.2866192 -0.2621384
-0.2382681 -0.19911385 -0.1519686 -0.26394448 -0.21890089 -0.11254617 -0.28785902 -0.15905295
-0.22689265 -0.40744 -0.25604948 -0.34736606 -0.13195443 -0.15980084 -0.1655719 -0.10703994
-0.24163388 -0.2519142 -0.22331868 -0.26651913 -0.26292887 -0.14440687 -0.34771776 -0.32577947
-0.15141405 -0.3442769 -0.23561582 -0.34068665 -0.23338997 -0.22940817 -0.36808127 -0.14503795
-0.110533 -0.26917818 -0.23404785 -0.31677404 -0.09218628 -0.22397761 -0.20525669 -0.2792302
-0.32811767 -0.24092829 -0.38509876 -0.36979786 -0.16132835 -0.2928804 -0.32761213 -0.24389166
-0.21595222 -0.38446653 -0.32585928 -0.102148354 -0.11221976 -0.3059531 -0.07579322 -0.12873986
-0.15594411 -0.14767998 -0.1548331 -0.13023348 -0.24547139 -0.15350288 -0.23350942 -0.18176672
-0.16501272 -0.2781373 -0.17954421 -0.13386515 -0.20706967 -0.20698278 -0.2234652 -0.19301194
-0.2743195 -0.26587343 -0.08938366 -0.11621022 -0.29967725 -0.14263974 -0.18000698 -0.39589226
-0.3522502 -0.29673517 -0.19472389 -0.3983795 -0.08112733 -0.23458534 -0.24049766 -0.22390933
-0.2782372 -0.32120663 -0.19346929 -0.27175272 -0.19783433 -0.24661806 -0.32415977 -0.43746138

fc2.weight f4 [128, 256]
00000000: 53be 81bd 9068 b7bc 5424 9ebd 4619 a33d
00000010: e840 3dbe d957 563d 9813 debd c4ea 82bc
00000020: e71a 82bd b164 1f3e 27db e53c 3906 58be
00000030: 6208 a2bd 25d8 373d 466a c83d 72c7 68be
00000040: 3433 583d 678c b5bd 7b98 9c3d 7b3c 10bc
00000050: 6fc9 49be 8f91 a4bc 0eef ca3d 23f7 10bd
00000060: ffdc 83bd 4cc7 e3bd 7ec1 91bc 09b7 53be
00000070: 8672 ffbc 7cfc d7bd 64e4 71be 4db9 103d
00000080: b1fc 323d cc29 6bbe 80ee 96bd e5d5 de3c
00000090: cf8b 1e3e 9798 ccbd 2441 9abd c68f 91bc
000000a0: 3f9c fabc 8641 07be 85ba 103d 7d65 a73c
000000b0: 22df 083c d9bd 183e 4687 263b c92a 563e
000000c0: 17a8 423e b02d 85bd de6a 033d bd82 f7bd
000000d0: 0e18 87bd beea 48be dbe5 aebd 93a1 63bd
000000e0: 800b 95bd 4eb5 153d 81f3 53be cce1 e33c
000000f0: 081d 18be dcbc 9bbd a0c0 e3bd 95c2 0cbd
00000100: f4df 0bbe 3b49 e1bd 9fb1 6e3e 38f7 2fbe
00000110: 6dca 103b a2ce 423e a320 1abe 953e 95bd
00000120: 4753 13bd fad1 b43d e23e c5bd 58f2 c93d
00000130: e901 acbc 90ce 1bbe 6664 923d 3dd8 58bd
00000140: 461b 61bd 2150 ed3d 7f50 ad3d 2c01 38bd
00000150: 41ff f6bd b8e2 923c c886 0f3e 8168 bfbb
00000160: 4fb6 c13c fd5a 5bbd 6a23 f83d 6e7a 1d3d
00000170: 7949 653a 149c 83bd 9140 71bd 0935 61be
00000180: b677 21be 632f 49bd 3bde 62bd f278 55be
00000190: a78e 8abd 1a29 a4bd fe05 31bc b00e b2bb
000001a0: fcb8 6bbe 0cbe 073d 3d6d 653d 26d0 4b3c
000001b0: 860c 273e 66a6 f3bc a788 9abd f689 303e
000001c0: b645 303d 568a a53d 886a 8e3c a3dd 7e3b
000001d0: 9c1e 3abe 0ede a3bd bcca f53d 1f3c 1d3e
000001e0: 71c5 4dbd 5884 723d a106 68bd 80f8 dabc
000001f0: c74d 593d 8879 0dbe b7de a1bd 2f5b 15be
00000200: b354 8abd 0af9 d53d eba5 bbbd ab66 3cbd
00000210: a4d2 ca3d 4f50 8c3d 7840 03bd 3e22 a23d
00000220: 5607 28bd 7ac1 8fbc be85 e53b 6478 d9bd
00000230: fe7c 37be 3e23 153e 521c 59be 327b 99bd
00000240: 54a7 893c 0e50 fdbc 169c 6dbc 9f04 24be
00000250: cf3f 1abd b495 103e 964c 29bc 8d99 1b3c
00000260: cba8 acbe 90a1 dbbd 2744 e83c 99bc d53c
00000270: 36d3 bbbd 95e9 93bd 8117 7dbd 518e 69be
00000280: 6177 06bd f869 8fbd 7979 ae3c 7aff 71be
00000290: b1ad 1d3e 4ae4 b0ba 1064 a9bd f6aa 003d
000002a0: 54d7 053d 7112 36bc 0f44 003e bf99 43bd
000002b0: efb5 88bb b1d9 223d 534d dabd e339 26be
000002c0: 5558 893d 916f 9abd bb86 db3c 6d61 3ebe
000002d0: 3f67 b6bd f545 ebbd 53ec 0ebe dbb2 d7bd
000002e0: de19 c8bc 01c5 dbbd e399 2ebd 3e2d 1cbe
000002f0: df93 cbbd f6d2 87bd ad0f d73d f85e a33d
00000300: 35b7 753c 3ec1 153d 581b 52bd e612 093d
00000310: a7ed c63d 6626 81bd c24a fdbd 9a01 35be
00000320: f2bd a9bd 33bc f73c 46de 67bd 7fe8 0ebe
00000330: bdf3 06bc 8bac 32bd 5ecc ccbd 0053 22be
00000340: a086 713d 933d 8bbd 2dbc 963b f751 12be
00000350: 9307 c2bd 1285 4a3d d10c cfbd 4647 0fbe
00000360: 88c6 2e3e 779a 01be a62c 553d ccde 85bd
00000370: 3a3b a33d d1cd fc3d d37b 99bd 9441 82bc
00000380: 0905 763d e194 f2bc bd00 0dbe 0fd7 e7bc
00000390: a348 34be 4cf6 abbd 95b8 1f3d 3e23 05bd
000003a0: 2f80 913d 8a9a 4cbd 238d 18bd cc75 4e3d
000003b0: 640c 8f3d f3f0 01bd 945a 3d3c 0143 b13d
000003c0: ab71 57bd 12cb 9c3d 9694 e03d d4ea afbd
000003d0: 3212 033d 9d59 8bbd adbc 7dbd 5b6d fb3d
000003e0: 6ce4 cdbc 7de0 c93c 42a3 813d 4da4 5ebe
000003f0: 5ede d4bd 3fce cbbd 5bac 82bd e0cb e8bd
-0.063351296 -0.022388726 -0.07721773 0.07963805 -0.18481791 0.05232987 -0.10843581 -0.015981086
-0.063527875 0.15565754 0.028058602 -0.21096124 -0.07911755 0.044883866 0.09785895 -0.22732332
0.052783206 -0.0886467 0.07646271 -0.008803482 -0.19705747 -0.020088939 0.09908877 -0.035391938
-0.06438636 -0.11121997 -0.01779246 -0.20675291 -0.031182539 -0.105462044 -0.2362228 0.035332967
0.043698017 -0.22965163 -0.07369709 0.027201602 0.1548302 -0.09990042 -0.07531956 -0.017768752
-0.030592082 -0.13208589 0.03533413 0.020434136 0.00835398 0.14916171 0.002541022 0.20914759
0.19009434 -0.06502855 0.03208434 -0.12085483 -0.06596385 -0.19620797 -0.08539935 -0.05557401
-0.07277584 0.03654986 -0.20698358 0.02781763 -0.14854825 -0.076043814 -0.11120725 -0.034365255
-0.1365965 -0.11000296 0.23309945 -0.1718415 0.0022093311 0.19024137 -0.15051512 -0.07287327
-0.03596809 0.08829112 -0.096311346 0.098606765 -0.020997005 -0.15215516 0.07148056 -0.052940596
-0.05495765 0.11587549 0.08462619 -0.044922993 -0.120604046 0.017930374 0.14016259 -0.0058413153
0.023646502 -0.05355357 0.1211613 0.038446836 0.0008746605 -0.06426254 -0.058899466 -0.21992888
-0.15768322 -0.049117457 -0.055387717 -0.20846918 -0.0676549 -0.08015652 -0.010804651 -0.00543388
-0.23019785 0.033140227 0.05601238 0.012439763 0.16313371 -0.02974243 -0.075455956 0.17240128
0.04303523 0.08083026 0.017384782 0.003888943 -0.18175739 -0.08001338 0.12001559 0.15354966
-0.050237123 0.059208244 -0.056646947 -0.026729822 0.05305269 -0.13815892 -0.079038076 -0.14585565
-0.06754436 0.10447891 -0.09162506 -0.04599635 0.09903458 0.06851255 -0.032043904 0.079166874
-0.04102262 -0.017548312 0.0070044687 -0.10618666 -0.17918774 0.14564225 -0.2120221 -0.07494201
0.016803421 -0.030921962 -0.014502546 -0.16017388 -0.03765851 0.14119607 -0.010333201 0.009497059
-0.3372253 -0.10724175 0.02835281 0.026090907 -0.09171145 -0.072222866 -0.061789993 -0.22808196
-0.032828692 -0.07002634 0.021298157 -0.23632613 0.1539829 -0.001349577 -0.082710385 0.03141304
0.032676056 -0.011112795 0.12525962 -0.047754046 -0.004172079 0.039758388 -0.1065928 -0.1623302
0.06706301 -0.07540811 0.026797643 -0.18591852 -0.089064114 -0.114879526 -0.13957338 -0.10532161
-0.024426397 -0.10730935 -0.042627227 -0.15251634 -0.099403135 -0.066320345 0.10501037 0.07977098
0.014997293 0.036561243 -0.05129561 0.03346529 0.09713297 -0.06306152 -0.123677745 -0.17676392
-0.08288182 0.030241108 -0.05660846 -0.13955878 -0.008236823 -0.04362158 -0.099999174 -0.15851974
0.05896628 -0.06798854 0.004600069 -0.1428908 -0.09474101 0.049443312 -0.101098664 -0.13992032
0.17067921 -0.1265658 0.052044533 -0.06536636 0.07970281 0.12343944 -0.07494321 -0.01590041
0.060063396 -0.029612007 -0.13769813 -0.02830079 -0.17605834 -0.08396587 0.03899439 -0.032504313
0.07104527 -0.049952067 -0.037243973 0.05040531 0.06984785 -0.031723928 0.01155724 0.08655358
-0.052598637 0.0765592 0.109658405 -0.08589712 0.031999774 -0.06804202 -0.061947513 0.12276717
-0.025133334 0.024643177 0.06329967 -0.21742363 -0.10393976 -0.09951448 -0.063805304 -0.11367011

fc2.bias f4 [128]
00000000: 6065 8d3d 0aff c23a c5aa d0bc f76f 02bd
00000010: 8906 793c 7a99 5ebd 277e 54bc 468a adbd
00000020: 22a7 58bd eb53 cdbc 89d1 0d3e 5942 b73c
00000030: 75c5 5a3c ef2f 21bd 8b81 afbd 04bb c3bc
00000040: a51a c33d 4dce 213d 1e5a 3cbc be8f 533d
00000050: 3f0f 103c 57e1 0a3d 2c82 f93c bbc6 a0bd
00000060: 7db8 fd39 b055 24bd b7d4 e43c 1eb9 06bd
00000070: edca 20bc d373 703b 3b62 96bd 8e27 673d
00000080: 735f 8c3c f332 3fbd ed9f 3dbd 367b 7abd
00000090: 7810 bbbd 37ca 873d 3f50 1a3d 91f2 ccbb
000000a0: 9a80 c73d 4210 0f3b f843 b6bb 0473 4a3d
000000b0: a3a9 073d 192a 89bd 13dc 0fbc 8d17 2dbe
000000c0: 4b99 2d3c 5d5a 423d 6314 873c d051 eb3c
000000d0: dc68 30bd d569 9a3c dcc0 393d dca7 b9bb
000000e0: a7b8 523c 13de 73bc f722 a8bd 0ccd 033d
000000f0: bc07 06be 7c8e 48bd 136a 26bd 766f c8bc
00000100: 0106 81bd 760b 473b d72c 7dbd 295b e9bd
00000110: d4dd 163c f370 783d 1c5d 44bc 7f63 7ebd
00000120: f7b0 393d d499 82bd 759e 64bd 7ebd 36bd
00000130: 0769 2d3c 195f 393d c451 29bd 4d27 c13d
00000140: 3194 86bc 0563 2cbd c508 a7bc a864 ab3d
00000150: bc9a 013d 16da fd3c f411 973d 1ce8 313d
00000160: ec14 69bb feec 40bd 4231 87bd b3d8 9d3c
00000170: d983 40bb 1e45 cc3c 3529 2a3d b85f 25bd
00000180: 36e7 bcbc 4653 463d 8354 74bd 7d39 923d
00000190: a5d5 3cbd 1e69 c23c cb33 bb3d 18f8 3ebd
000001a0: 872a b43c ec5a 45bd 735b 52bc 93f1 243c
000001b0: bbda 5bbc ddf5 be3d 01f4 27bc 19fe 72bd
000001c0: 64d0 96bc 761e 983b 158d 8c3b 1c1b 95bd
000001d0: e218 1e3d e156 c43c d905 ae3d a9b2 8b3c
000001e0: 2a22 eebc 3cc5 733b 9ae9 2abc 744c b7bc
000001f0: 1293 3ebc e284 32bd caaa 8ebd 5e0d 9cbd
0.06904101 0.0014877033 -0.025472054 -0.03184506 0.015199312 -0.054345585 -0.01296953 -0.08473639
-0.052893765 -0.02506443 0.13849463 0.022370504 0.0133527415 -0.039352354 -0.0856963 -0.023892887
0.095265664 0.039503384 -0.011496095 0.051650755 0.008792697 0.033906307 0.030457579 -0.07850405
0.00048393375 -0.04012078 0.027933462 -0.032891385 -0.009814006 0.003669013 -0.07342955 0.056434207
0.017135357 -0.04667945 -0.046295095 -0.06115266 -0.091340005 0.06630366 0.037674185 -0.006254502
0.09741326 0.0021829759 -0.0055623017 0.049426094 0.033120763 -0.066974826 -0.008780497 -0.16903515
0.01059563 0.04744946 0.016489213 0.028725535 -0.04306875 0.018849293 0.04534994 -0.0056657623
0.012861407 -0.01488449 -0.08209794 0.03217797 -0.13088888 -0.04896401 -0.040628504 -0.024467211
-0.06299973 0.0030371821 -0.06181034 -0.113943405 0.009208161 0.06065459 -0.01198509 -0.062106606
0.045334782 -0.06376997 -0.05581518 -0.044614308 0.0105841225 0.045256708 -0.041337743 0.09431324
-0.016428085 -0.04208662 -0.020389924 0.08368808 0.031641707 0.03098778 0.07376471 0.043434247
-0.003556545 -0.047101013 -0.06601192 0.01926837 -0.0029375462 0.024935301 0.041543204 -0.040374488
-0.023059469 0.04841926 -0.05965091 0.07139871 -0.046102185 0.023731764 0.09140738 -0.04662332
0.021992935 -0.048182413 -0.012839186 0.010067361 -0.013418849 0.093242384 -0.010251046 -0.059324358
-0.018409915 0.004642303 0.004289279 -0.07280561 0.03859795 0.023967208 0.08497209 0.017052965
-0.029069025 0.0037196418 -0.0104316715 -0.022375323 -0.011631744 -0.04358376 -0.06966169 -0.07619737

fc3.weight f4 [64, 128]
00000000: e74a 673d 61e8 89bd cb11 7dbd e738 1c3c
00000010: d86e 273e 1c7e febd 6f93 253e eb23 323d
00000020: 029c d3bd 6ebc a5bd 93d1 473e 0e45 05bd
00000030: 9037 b13d 2b7c 64bd 65eb 32bd c203 0dba
00000040: 851d 593e 3ccf 2e3d c114 e9bc 5464 8a3d
00000050: aff4 ac3d c5b6 e73d 6ce1 a5bd 4ae6 22bd
00000060: 228c 233c 66ee bf3d c97b 35bd 204c 343d
00000070: b1aa 9cbd c5c8 b83d bc86 a3bc 20f9 103d
00000080: b1bd a3bd a0bc a1bd b738 113d 9cb7 d0bd
00000090: 3753 a2bd 9a49 d1bd 8f05 fe3d fac8 363c
000000a0: bfb9 c63d 7b12 2e3d e6f8 11be 2d35 2cbd
000000b0: be34 93bd c5f8 43bc 8cbb 043e a074 5d3d
000000c0: 0267 96bd d7f7 863c 71e7 10bd f347 b73d
000000d0: 375d 4a3d 7ce5 2f3c 2fec d43d 3f62 253d
000000e0: 30bd 9d3a ce3b 9a39 ca32 48bd 98ad 1a3d
000000f0: 993e 37be 8606 20bd e929 593d d77d bcbc
00000100: c344 6dbe 57f1 873d 60eb 50bd d678 9d3d
00000110: e5c0 c83d 0657 58bd ebe6 8bbc 9aa1 503d
00000120: 3dac f53c 1b8c 77bd 42cd 2abd d030 163d
00000130: 3e8e f1bd 1116 2abc c337 163d 4ee3 b4bd
00000140: 57be 5b39 fa72 e1bd 62c5 adbd 818c aabc
00000150: 325a 1f3e 7773 e33d 9660 853d cc91 a5bc
00000160: e175 873b b28f 16bc 3910 0cbc 235b a33d
00000170: 632c 47bd 04aa dd3c 2cf8 31bd 6db5 67bd
00000180: e4bd a7bc 9a20 19bc 1f54 bfbd d08a 3f3e
00000190: 6daa a9bc 7d4d 0abd cc0f 163c b44a 7d3c
000001a0: e5c0 b2bc ae42 cb3d 0a8c c1bc a3d6 8b3d
000001b0: aedb 9cbd d7c4 e0bd a652 c2bb c1b3 adbd
000001c0: b003 703c f94b 1e3c 2643 e63c 8dfd 55bc
000001d0: 6f16 163d 7889 eabc aabc 06be cb28 bfbd
000001e0: d880 60ba c705 39bd 8abf 3b3d 66d0 9fbd
000001f0: 3e88 7dbd 30d3 c03c b0dc 1cbd 0d25 80bc
00000200: 1856 943c a32f 8abd e3fd 933d 5a36 393b
00000210: e103 2d3d ced7 34bd fecb 20bd 3888 cdbc
00000220: e655 f1bd 6c21 b6bd 4e7b 4abd cd0e 03bd
00000230: 7424 543d 366f 393b a6e3 3b3b d4d7 9c3d
00000240: 8aaf b039 3d09 76bc 0edc 92bd 11f2 3f3d
00000250: 9439 24bc 7e17 84bd 0af8 91bd 95c8 b4bc
00000260: 91b3 f93c 754d 16bd 284d aebd 6f68 c5bd
00000270: 8007 a7bd 38db 12bd 1c77 57bd 7139 62bd
00000280: 96ce 0bbc 9d5d 1fbc 85e1 1fbc ce5c debd
00000290: 7d2f 60bc 1075 a9bd 7f25 53bd dbff 9ebd
000002a0: 9fbc 0eba cb23 0fbd f9fd 75bd 9b23 dfbd
000002b0: aa1d 1abe a94c ba3d 4c83 febd 7629 a9bd
000002c0: 6750 333d 9a0c cbbd ac12 813d dc0c 35be
000002d0: 8f82 d33c 84a4 f53d a594 b0bd e8bc 72bd
000002e0: 3282 d3bc f0dc 4bbc 831e 453c 74c7 dcbc
000002f0: 1672 80bb e890 1a3d 018b ebbd ebbc cd3d
00000300: 76d6 ffbd 0e07 f93d 8dbc ffbd e514 8b3d
00000310: cda6 ccbd 0488 fd3c 3ac0 27bd 9c99 8cbd
00000320: 3503 723d 62f7 ba3b e1e1 18bd 7ea4 78bd
00000330: 70d2 19bd 181b a83d 2198 423c face dbbd
00000340: 6f8e c03d 868f d0bd fec5 cc3d 8715 293d
00000350: 5cbd d3bd 375d 39bd 5dda 8bbc 4217 12be
00000360: fb7b 603d 24a2 b7bb 7d27 2a3d bad5 b5bd
00000370: bd72 32bd fb4f dabd 1838 05be 359b 713c
00000380: db92 c3bd 0470 46bd d99e 4cbd 52a7 11be
00000390: c3b7 82bd 9776 78bc d460 ef3d 4c6c c7bd
000003a0: 6eb3 48bd 5f15 643c 1545 ddbc e83a 25bc
000003b0: 4012 2dbd f4e2 4abe 6645 5bbd 0047 b9bd
000003c0: b302 0a3d 338e 1b3c 333e 013d 4379 8dbd
000003d0: 0ff8 283e d1ff b3bd 22ef 85bd ee54 413d
000003e0: 2421 28bc 1590 cdbd 3f97 6f3d eb7b b9bd
000003f0: 673f 143d d9bd f83b b7ea 0abe 4edd 493c
0.056467917 -0.06733776 -0.061784547 0.009535051 0.16350877 -0.12426397 0.16169523 0.043491285
-0.103324905 -0.08092581 0.1951354 -0.03253656 0.08653176 -0.05578248 -0.04368152 -0.0005379283
0.21202667 0.042678103 -0.028452279 0.06757417 0.08445107 0.113141574 -0.080996364 -0.039770402
0.009982141 0.09371643 -0.044307504 0.04401791 -0.07649744 0.09022669 -0.019961707 0.035393834
-0.07995165 -0.078973055 0.035454478 -0.10191271 -0.07926028 -0.102191165 0.12403404 0.011156315
0.09703397 0.042498093 -0.14255103 -0.0420429 -0.07187794 -0.011961167 0.12962168 0.0540663
-0.07343866 0.016475601 -0.03537697 0.0894927 0.049405303 0.010735866 0.10396611 0.040376898
0.0012034532 0.00029417727 -0.04887656 0.03776321 -0.17894973 -0.03906872 0.053018484 -0.023009224
-0.23170762 0.06637829 -0.05100572 0.07689063 0.09802417 -0.052817367 -0.017077884 0.050935365
0.029989356 -0.06043635 -0.041699655 0.036667645 -0.11794709 -0.010381238 0.036674272 -0.088324174
0.00020956375 -0.11008258 -0.084849134 -0.02081895 0.1556175 0.111060075 0.06512563 -0.020211123
0.0041339253 -0.009189533 -0.00854879 0.07976367 -0.048626315 0.027058609 -0.043449566 -0.056569505
-0.02047629 -0.009346152 -0.09342217 0.18705297 -0.020711148 -0.033765305 0.00915904 0.015459705
-0.021820495 0.099248275 -0.023626346 0.06828048 -0.07659088 -0.10975044 -0.0059302626 -0.08481551
0.014649317 0.009661668 0.02810819 -0.0130609395 0.036642488 -0.028630003 -0.13157907 -0.093339525
-0.0008564121 -0.045171525 0.045836963 -0.07803421 -0.06189751 0.023538202 -0.0382964 -0.015642667
0.018107459 -0.06747367 0.072261594 0.0028261156 0.042240027 -0.04415112 -0.039257042 -0.025089368
-0.11783962 -0.088930935 -0.049434 -0.031996537 0.051792577 0.0028295047 0.0028669625 0.076583534
0.00033700123 -0.015016851 -0.07170878 0.046861712 -0.010023493 -0.06449793 -0.07127388 -0.022068301
0.030481132 -0.036694963 -0.0851081 -0.0963906 -0.081557274 -0.035853595 -0.052603826 -0.05523056
-0.008533141 -0.009726909 -0.009758358 -0.10857545 -0.013683197 -0.08274281 -0.05154943 -0.07763644
-0.0005444977 -0.034946244 -0.06005666 -0.10895463 -0.15050378 0.09096653 -0.12427387 -0.08259861
0.04377785 -0.09914513 0.063023895 -0.17680687 0.025819091 0.119942695 -0.08622102 -0.059262186
-0.025818918 -0.012442812 0.0120312 -0.026950575 -0.00391985 0.03773585 -0.11501122 0.10045799
-0.12492077 0.12159549 -0.12487135 0.06791095 -0.09992752 0.030948646 -0.040954806 -0.06865236
0.05908509 0.00570576 -0.03732479 -0.060703747 -0.037554204 0.08208293 0.011877091 -0.10732837
0.09402167 -0.10183625 0.099987015 0.041280296 -0.10338852 -0.045254912 -0.017071897 -0.14266685
0.054805737 -0.0056040455 0.041541565 -0.08878656 -0.043566454 -0.10659786 -0.1300968 0.014746477
-0.09549495 -0.04844667 -0.049956176 -0.14223984 -0.06382706 -0.015164993 0.116883904 -0.09737453
-0.048999242 0.013921111 -0.02701048 -0.010084845 -0.042253733 -0.19813138 -0.05353298 -0.09046745
0.03369398 0.009494352 0.03155346 -0.069078945 0.16500877 -0.087890275 -0.065397516 0.047200136
-0.010261808 -0.10037247 0.05849385 -0.090568386 0.036193278 0.007590991 -0.13566099 0.01232083

fc3.bias f4 [64]
00000000: 1527 26bd 60d1 6bbd be75 b6bd 6541 babc
00000010: e960 92bd 1a62 e43d 2f45 b13d 9d1d 523d
00000020: fdd7 acbd 600a 9fbd 089a be3c 16b8 a6bd
00000030: 126f 00bd a114 0c3e 3f86 203e b0e5 2b3c
00000040: cdf2 d33c c83b d3bd f1c0 bb3d f9c0 34be
00000050: bb37 f2bd 96bd 003c 39db 15bc dc29 91bd
00000060: 418d e2bd a444 59bd 33fd 8c3d 4bbe 0cbd
00000070: aeba d2bd fd7d 4fbd 102c 1c3e dc21 a63d
00000080: 1397 463e da12 d0bc 88c0 ca3c fcac 0abd
00000090: c20f 1cbd 2f77 0a3c b5e2 aabd 790a 4dbc
000000a0: a086 e9bc 7f09 22bd 13fb c3bc 3e5e 82bd
000000b0: e534 b33c c733 5f3e 1d58 2fbd 8ed3 333d
000000c0: fb76 36be 3f4a 8ebd 5739 66bd e724 5f3c
000000d0: 9e6c 16bd a422 813d 8d13 e5bd a2cd 403e
000000e0: c2f6 933d 2728 38b7 b032 bd3d 66a3 4bbe
000000f0: 9207 983d c824 ab3d 6ad5 63bc 07fc 253d
-0.040564615 -0.057572722 -0.08909176 -0.02273626 -0.071473904 0.11151524 0.08655774 0.051297773
-0.08439634 -0.07765651 0.023266807 -0.0814058 -0.031355925 0.13679744 0.15676211 0.0104917735
0.025872612 -0.10314137 0.0916766 -0.17651738 -0.11827036 0.007857701 -0.009146505 -0.07088062
-0.11062098 -0.053043976 0.068842314 -0.034361165 -0.102895126 -0.05065726 0.15251184 0.08111927
0.19393568 -0.025399614 0.02475001 -0.033856377 -0.038100965 0.008451267 -0.08344022 -0.012514704
-0.028506577 -0.039559837 -0.023923432 -0.063656315 0.021875808 0.21797095 -0.04280864 0.043902926
-0.17818825 -0.06947755 -0.056207027 0.013619638 -0.03672468 0.06305435 -0.1118537 0.18828443
0.072248 -1.0976603e-05 0.092381835 -0.1988655 0.07423319 0.08356625 -0.013905862 0.040523555

fc4.weight f4 [32, 64]
00000000: 9579 99bd b102 53bd 874d 45be b25e e33d
00000010: e0d6 343e 6d97 a9bc b797 40be 7060 69bb
00000020: 84c6 e9bc 3b3a 463d b019 60bc f6cc d2bd
00000030: c2c8 a8bc 27a1 63bd dd12 e93c 5fde debc
00000040: deaa bc3d 9fce 2abc 9722 c13d e610 41bc
00000050: 6263 ddbc 4ffb 043c ad94 4fbd 7978 cd3d
00000060: 132f 33be a59b efbc 7630 f4bc 7c02 c5ba
00000070: 2e94 fcbc 1e9a be3d 274d 493c 39f9 133c
00000080: d4e7 83bc 4b4c 393c 394c 243d b588 2abd
00000090: f639 e03d 8dba 0ebc ab42 ddbd 5488 803d
000000a0: b549 2a3d 51f7 713d 75e8 b9bd a4d6 a83b
000000b0: d951 213d 176a 2cbe 736e 3abd 2f19 bd3c
000000c0: 6607 233d 102d cfbb 1fd2 0bbe 50c0 08be
000000d0: 4334 fabc 2ca0 383d a1a5 683d 583e 843d
000000e0: e6f1 39bd 2ceb 18be 085a 1bbc 8114 07be
000000f0: 737e 9bbd 5562 993d 0730 d5bd 2274 13be
00000100: 2710 073d eac4 323d bd3d fcbc 2916 453e
00000110: a1f2 e1bc fc63 0ebe ff28 6f3d 601d a73d
00000120: bd07 973d fa6c 043e e8fc a4bc 9cde f13c
00000130: fed8 09bd 2bbf 46be 7ad8 68bc 58e2 f5bd
00000140: 4673 b7bd a29a 9d3d 2e21 4f3d 36dc 75bb
00000150: 023d cb3d d7bb ac3d 1b4d f83d 8c62 5bbd
00000160: 9e02 81be b4c9 b9bd 8b44 f53d cecc 583e
00000170: 5b43 94bd 87b5 a63b d24a 96bd 5cb2 30bd
00000180: ae6e 12be c0a8 00be 1105 c23b 5b45 873e
00000190: 081f d3bd 8d9b e73b df3b c4bd 5850 6b3e
000001a0: 71ae 0ebe 8b6d 49be b7d0 3fbd 1dea a23d
000001b0: 8a22 d7bd c8d3 c2bd bb0a e83c 8bf1 493e
000001c0: 6725 273d 8cec c73d 151f f83d ff63 debd
000001d0: f725 f7bc 7637 65bd 2ade 9c3d 2203 a7bd
000001e0: d356 963d a79d cebc 7a11 c6bc 89a1 22bd
000001f0: 143d e0bc c1bc a13d 2a7e 60be 16a5 a43d
00000200: c8ae da3d 22cf c03c dc65 e4bb 229e f33d
00000210: 2091 a53b cf40 043e dade 973c 2651 173e
00000220: ad6c afbd 53b0 f4bd 7b6f b5bd ac4a cebd
00000230: a5b8 6a3d f6a2 b9bd a487 01bd 695d c8bd
00000240: 7667 09bd 10a3 ef3d b9c0 093e b582 8e3c
00000250: aab7 bc3d 4a6a 06bb 13ec 88bd d1e6 73bd
00000260: f24c efbd 0c63 cabc ebe5 9bbc 7d89 0b3e
00000270: cab0 40bd f414 2fbd 5a6a 03bd f9a7 60bd
00000280: a52b 49bd 73df 1ebe 2632 b3bd 5e14 35bd
00000290: 7ef4 a3bd 5f7d ac3d 2650 693c 5787 133e
000002a0: 6a26 74bd 91b4 003e ee61 c6bd 86d5 923d
000002b0: c056 14bd 0931 64bd ca23 b7bd efa1 97bd
000002c0: 8971 b93b 9d78 a63d 8dac 63bd 804d e53c
000002d0: ded9 873c 1b1b 8fbd ca4d 97bc 38ea dabd
000002e0: d629 0f3d 3cea 4a3e c12e 44bc f8cf fc3d
000002f0: 07c8 25be 7c4f 0dbe 2e9d 03be 7e5b 9f3d
00000300: 70f0 bbbc 8747 13be 29d8 513d 2e10 1bbd
00000310: 97e1 8f3d 74f2 c4bd 6efb 85bd 2b81 4dbd
00000320: d2d1 073d f224 ac3d 7738 3e3d 6788 533e
00000330: e3e0 0cbd cb9e 51bd 1d05 5a3d d33a 5ebd
00000340: cd32 d7bd 95f8 08bb aae8 5fbd 9580 29bd
00000350: 5d06 d1bd 8b40 323e afdd c1bd d998 063e
00000360: bfbb eb3b 633b 01be 7585 d83c 3778 59bd
00000370: 45b0 f8bd 3313 f03d e63c ff3d 6396 1fbc
00000380: 8253 1dbd ea4b a9bb ece3 dabd 715a 04bd
00000390: cec1 33bd 136f 3a3d 9f00 bf3c bd4a a3bd
000003a0: 90fa 8b3d 6aeb b63d b1e8 02bd aa98 9ebd
000003b0: 6a5c 103e e7e2 1e3e 29e6 3c3e dcae 24be
000003c0: 3728 debd 10d4 5abe d9ff 9e3d e765 a8bd
000003d0: f9d2 a0bd 0e73 1dbe b4db 323b 3afb 583e
000003e0: f89e 77bd d38a d8bd b851 d5bd 35a6 0abd
000003f0: bbfa 03be acb1 51bd fc5f 7ebd fdfc 1dbe
-0.07493893 -0.05151624 -0.19267856 0.11102046 0.17660093 -0.020702088 -0.18807875 -0.003561046
-0.028537042 0.048395377 -0.013677999 -0.102929994 -0.020603541 -0.05557361 0.028451378 -0.027205644
0.09212278 -0.010425239 0.094304256 -0.011783814 -0.027024928 0.008116557 -0.050678898 0.10032744
-0.17498426 -0.029249022 -0.029808264 -0.0015030648 -0.030832376 0.09306739 0.012286461 0.009031587
-0.016101755 0.011309694 0.040111754 -0.04163428 0.10948555 -0.008711469 -0.108037315 0.062760025
0.0415742 0.05907375 -0.09077541 0.0051525403 0.039384697 -0.16837345 -0.04551549 0.023083298
0.039801978 -0.0063225105 -0.13654374 -0.13354611 -0.030542498 0.045074627 0.05679858 0.064572036
-0.045396708 -0.14933461 -0.009481914 -0.13191415 -0.07592478 0.074894585 -0.10409551 -0.1439977
0.03297439 0.043644823 -0.030791158 0.19246735 -0.027581515 -0.13905329 0.058388706 0.081599
0.07374523 0.12932196 -0.020140126 0.029525094 -0.033654206 -0.19408862 -0.014211768 -0.12006062
-0.089575335 0.076955095 0.050568752 -0.003751529 0.09923746 0.08434265 0.12124082 -0.05356078
-0.2519731 -0.09071675 0.11975964 0.21171877 -0.072394095 0.0050875577 -0.073384896 -0.043138847
-0.14300033 -0.12564373 0.005921014 0.26420102 -0.10308653 0.0070681036 -0.09581732 0.22979867
-0.13933732 -0.19670694 -0.046829905 0.0795481 -0.10504635 -0.0951305 0.02832543 0.19721048
0.040807154 0.097619146 0.121153034 -0.108589165 -0.03016947 -0.055961095 0.07659562 -0.081548944
0.07340779 -0.025221659 -0.024178255 -0.039704833 -0.027372874 0.0789733 -0.21923128 0.080393
0.10677868 0.023536269 -0.0069701504 0.11895396 0.0050527006 0.12915348 0.018538881 0.1477705
-0.0856565 -0.11947694 -0.08859154 -0.10072836 0.057304997 -0.090642855 -0.031623498 -0.097834416
-0.033545934 0.117010236 0.13452424 0.01739631 0.09214719 -0.002051013 -0.066856526 -0.059546296
-0.11684598 -0.024705432 -0.019030532 0.13626666 -0.0470436 -0.04274459 -0.032083847 -0.05484769
-0.04911389 -0.15514927 -0.087497994 -0.044208877 -0.080056176 0.0842235 0.0142403 0.14407097
-0.059606947 0.1256888 -0.09686647 0.071696326 -0.036215544 -0.055710826 -0.08942373 -0.07403933
0.0056592864 0.08128474 -0.05558448 0.027991056 0.01658338 -0.06987592 -0.01846971 -0.10689205
0.034952007 0.19815916 -0.011974038 0.123443544 -0.16189586 -0.13799852 -0.12852928 0.077811226
-0.022941798 -0.14382754 0.051231537 -0.037857227 0.0702545 -0.09616557 -0.06542097 -0.050172012
0.033159085 0.08405484 0.046440568 0.20657502 -0.034394156 -0.051176827 0.053227533 -0.054255318
-0.10507736 -0.002090012 -0.054665245 -0.04138239 -0.10206292 0.17407434 -0.09466111 0.13144244
0.007194012 -0.1262031 0.026430825 -0.05309316 -0.12142996 0.11722412 0.12462787 -0.009740445
-0.038409717 -0.0051665204 -0.10688004 -0.032312814 -0.043886 0.045516085 0.023315726 -0.079732396
0.068349004 0.089316204 -0.031960193 -0.07743962 0.14097753 0.15516244 0.18447174 -0.16082329
-0.10847514 -0.21369958 0.07763643 -0.08222561 -0.0785274 -0.15375921 0.0027291598 0.21189585
-0.06045434 -0.105733536 -0.10415977 -0.033849914 -0.12888615 -0.05119483 -0.062103257 -0.15428539

fc4.bias f4 [32]
00000000: eae4 48be e351 293d 05e5 493e 7e71 97bd
00000010: b1bd 133e 3297 8abc 9ad6 bb3d 124a cbbc
00000020: f73c 5d3e 2346 eb3d a130 4e3e 5910 2d3e
00000030: 9512 8b3d caa3 d4bd 7099 2abe 3a51 c83d
00000040: 413f 09be 21a4 523d 50d6 9dbd ccce 8abd
00000050: 630f 1dbc 81e5 32be bb02 d73d 7984 f73c
00000060: 194c ffbd 7faf 9b3d a6f9 22bb b5ef 1f3e
00000070: fb95 17bb 11cf 3e3e 9462 d53d fc8a 3c3e
-0.19618574 0.04133786 0.1971627 -0.07394694 0.1442783 -0.016917799 0.091717914 -0.024815593
0.21605287 0.11487987 0.20135738 0.16900767 0.067906536 -0.10382803 -0.16660094 0.09781118
-0.13403036 0.051426057 -0.077068925 -0.067777246 -0.009586188 -0.17470361 0.10498568 0.030214535
-0.12465686 0.076018326 -0.002486804 0.15618785 -0.0023130167 0.18633677 0.10419193 0.18412393

fc5.weight f4 [1, 32]
00000000: 02cd 2ebd 59bc 97bd e5de 30be f53c 973d
00000010: 01ce 14be cb60 2fbe 8c4c e8bd 1696 ba3d
00000020: 3937 ec3d 2eed d4bd 9ce6 f43d 1714 e0bd
00000030: eaf0 d2bd 9332 af3d 02d9 be3c 6162 9dbd
00000040: a479 2bbd 0352 8c3d 7884 773c b39e 6fbd
00000050: 8fd3 a6bd 6ffc a13d c99f 263e 2eec d63d
00000060: dedd 87bc a228 00be 1a1e f8bd d02b 123e
00000070: a912 7e3c 950a c3bd 5f49 9fbd 9fb8 083e
-0.04267598 -0.07408971 -0.17272528 0.073846735 -0.14531709 -0.17126767 -0.11342725 0.09110658
0.115339704 -0.10396801 0.11958048 -0.10941332 -0.10299857 0.08554568 0.023296837 -0.0768478
-0.041864052 0.0685158 0.015107267 -0.058500957 -0.0814582 0.07909476 0.1627189 0.104942665
-0.016585287 -0.125155 -0.121151164 0.14274526 0.015507379 -0.09523503 -0.07777666 0.13351677
