scripts/built_models/torch_ml.pth (torch, 691475 bytes, 9 tensors)

fc1.weight f4 [256, 502]
0	0x3e6609a1	0.2246461
1	0xbdee3c44	-0.116325885
2	0xbdf537e2	-0.119735494
3	0x3a67d400	0.0008843541
4	0xbe861a0e	-0.26191753
5	0x3d4ea3b4	0.05044909
6	0x3e511c05	0.20420845
7	0xbe35e443	-0.17762856
8	0xbe1786f0	-0.14797568
9	0xbe31c95d	-0.1736197
10	0x3d972c0f	0.073814504
11	0xbde20116	-0.110353634
12	0x3dc8db71	0.0980748
13	0xbbe445b4	-0.006966317
14	0x3c9ae270	0.018906802
15	0x3c903179	0.017601715
16	0xbe1960e0	-0.14978361
17	0x3913c72a	0.00014093207
18	0xbd1fd097	-0.039017286
19	0xbdb71a0e	-0.089405164
20	0x3d967fb2	0.07348575
21	0x3dcb1a4c	0.09917125
22	0xbdc58150	-0.09643805
23	0x3cdcb0b5	0.02693973
24	0x3d53b3bc	0.05168508
25	0xbdab5127	-0.08365088
26	0x3df7d97f	0.12102031
27	0x3d2570ac	0.040390655
28	0x3dc3ac99	0.09554405
29	0xbd94377b	-0.072371446
30	0x3c99cffd	0.018775934
31	0x3dde0edd	0.10842679
32	0x3e227996	0.15866694
33	0xbd909433	-0.07059517
34	0x3c8cad19	0.017172383
35	0xbd94aa86	-0.07259087
36	0xbd7d0abc	-0.061777815
37	0x3d5544e3	0.05206765
38	0x3e081a17	0.13291202
39	0xbe396cce	-0.18107912
40	0x3da37107	0.07980543
41	0xbd83016c	-0.063967556
42	0x3daf69a1	0.08565069
43	0xbd3313da	-0.043720104
44	0x3d5654a7	0.052326825
45	0xbdb7824f	-0.08960401
46	0xbbd326fc	-0.0064438563
47	0x3c2b5ca0	0.010459095
48	0xbd9a6bac	-0.07540068
49	0x3e816999	0.25275877
50	0x3df7b748	0.12095505
51	0xbe0ebfb0	-0.1394031
52	0x3e5c8793	0.21536092
53	0xbc6a3209	-0.014294156
54	0xbde87243	-0.11349919
55	0x3da08e65	0.078396596
56	0xbe3be52e	-0.18349144
57	0x3d3a9a70	0.04555744
58	0xbdfcdfa5	-0.12347344
59	0x3de8df93	0.113707684
60	0xbb6f905d	-0.0036554553
61	0xbd198025	-0.037475724
62	0x3c864e50	0.016394764
63	0xbd77dd07	-0.060513522
64	0xbd3017c2	-0.042991407
65	0x3c94fd32	0.01818714
66	0xbad54221	-0.0016270318
67	0xbe130953	-0.14359026
68	0x3e450d7b	0.19243424
69	0x3e1dc351	0.15406539
70	0x3dc6ae50	0.09701216
71	0x3dda84ce	0.10669862
72	0xbd0bfec7	-0.03417852
73	0xbcc1916b	-0.023628911
74	0x3d5fa9d4	0.05460532
75	0xbce03383	-0.027368313
76	0xbd118615	-0.03552826
77	0x3ced403c	0.028961293
78	0xbc98672d	-0.018603886
79	0xbd311653	-0.04323418
80	0x3dc761aa	0.09735425
81	0x3e03644d	0.1283123
82	0xbd472ca9	-0.048626576
83	0x3e3ebbd1	0.18626334
84	0xbe283f0b	-0.16430299
85	0x3e90c2b2	0.2827354
86	0xbd9fa15f	-0.07794451
87	0xbe4c6651	-0.19960906
88	0x3e056960	0.13028479
89	0x3cac31f2	0.02101991
90	0xbd967768	-0.07346994
91	0x3dd7c0d2	0.105348244
92	0x3e12fc72	0.14354113
93	0x3ce49b45	0.02790607
94	0x3e15aa58	0.14615762
95	0xbe23f13b	-0.16009991
96	0xbd0e8908	-0.034798652
97	0xbdf63564	-0.12021902
98	0x3e1bae97	0.1520332
99	0x3c500b1f	0.012697964
100	0x3d228ead	0.039686847
101	0x3d758fa6	0.059951447
102	0x3dbff565	0.09372977
103	0x3c897e61	0.016783895
104	0xbc904203	-0.017609602
105	0xbe1d7bd1	-0.15379263
106	0x3e6ab895	0.22921975
107	0x3d94a071	0.07257164
108	0xbe10c840	-0.1413889
109	0x3e8853a0	0.266263
110	0x3e21f83e	0.15817353
111	0x3de5c04f	0.112183206
112	0xbba9ac33	-0.0051779984
113	0x3d10a88c	0.03531699
114	0xbc4b0cf4	-0.012393225
115	0xbc792e7b	-0.015208836
116	0xbd440ba3	-0.04786266
117	0x3d9f3051	0.077728875
118	0xbe12b7a8	-0.14327872
119	0xbe59aca9	-0.21257271
120	0x3cd4603a	0.02592479
121	0x3e1b58b4	0.15170556
122	0x3dd352cb	0.10318526
123	0x3d5a9350	0.053363144
124	0x3d8613ea	0.06546767
125	0xbd794958	-0.06086096
126	0xbda23f5d	-0.07922242
127	0xbcc43a71	-0.023953648
128	0xbd61d9a6	-0.055139206
129	0xbe148b6e	-0.14506313
130	0x3ebb115c	0.36536682
131	0xbcf59799	-0.029979514
132	0x3dbafa1e	0.09129737
133	0x3d8dea1e	0.0692942
134	0x3d84d17a	0.06485267
135	0x3e0df63e	0.13863465
136	0xbba42999	-0.0050098416
137	0x3d065ad6	0.03280147
138	0x3e2e1aa3	0.17002349
139	0x3c745288	0.014912255
140	0x3e0c4ec3	0.1370192
141	0x3ddbd752	0.107344285
142	0x3d63e5f3	0.05563922
143	0x3d6bf89e	0.057610147
144	0xbdc73822	-0.09727503
145	0x3da7d509	0.0819493
146	0x3d81d6bc	0.063397855
147	0x3cc615af	0.024180261
148	0xbd316214	-0.043306425
149	0xbc1aa966	-0.009439802
150	0x3bb07026	0.005384463
151	0x3df8c268	0.12146455
152	0x3c84a6f1	0.016192885
153	0x3d9c4269	0.07629854
154	0x3dd6e421	0.10492731
155	0xbd8e2362	-0.069403425
156	0xbd7cebec	-0.06174843
157	0xbc693731	-0.01423435
158	0xbd5229c5	-0.051309366
159	0xbbaa119a	-0.0051900866
160	0xba2197b9	-0.0006164271
161	0x3da5b21e	0.08090614
162	0x3dd58d8f	0.10427391
163	0xbda52b24	-0.08064869
164	0x3cfda3bc	0.030961864
165	0xbd234c71	-0.039867822
166	0x3d324e5f	0.04353177
167	0xbccbd6f8	-0.024882779
168	0x3c43f83d	0.01196104
169	0x3e003e4c	0.12523764
170	0xbe1b5ed7	-0.15172897
171	0x3e45c402	0.19313052
172	0x3de961e9	0.11395628
173	0xbc5e877e	-0.013582109
174	0x3d820976	0.06349461
175	0x3d579dcf	0.052640732
176	0x3c8a8b64	0.01691217
177	0x3dac4517	0.08411615
178	0x3e7aadb7	0.2448033
179	0x3b7b1132	0.003830981
180	0xbe42e5ba	-0.19032946
181	0xbe9125c1	-0.28349116
182	0xbdf52c1f	-0.11971306
183	0x3e5d58a5	0.21615846
184	0xbdc5c1fc	-0.0965614
185	0x3df31f23	0.11871173
186	0x3cd788e4	0.026310392
187	0xbdb7ad43	-0.08968594
188	0xbdca06df	-0.09864592
189	0xbbece208	-0.0072290935
190	0xbe4b4367	-0.1984993
191	0x3d44a655	0.04801019
192	0x3ec4a489	0.3840678
193	0xbc9c0bfc	-0.019048683
194	0xbe0c30f3	-0.13690548
195	0xbe391b5c	-0.18076843
196	0x3c0c71d1	0.008572058
197	0xbd869ea4	-0.06573227
198	0x3d9cb949	0.07652528
199	0xbe177da2	-0.14794019
200	0xbdfb0076	-0.12255947
201	0xbce9b897	-0.028530402
202	0xbdb648b3	-0.08900585
203	0xbd87fe59	-0.0664031
204	0x3c5ab9e9	0.0133499885
205	0x3d25ee71	0.0405106
206	0x3d05db26	0.0326797
207	0xbe121a5c	-0.14267868
208	0xbb0ee563	-0.0021804206
209	0xbcdc3af2	-0.026883576
210	0xbe15f482	-0.14644054
211	0xbe34b77b	-0.17648117
212	0x3d5e839b	0.054324728
213	0xbd40ceb3	-0.047072124
214	0xbd28143a	-0.041034915
215	0x3dd03332	0.10166015
216	0x3d4fb2f6	0.05070778
217	0x3da757fb	0.08171078
218	0x3d072843	0.03299738
219	0xbe903643	-0.28166398
220	0xbe662293	-0.22474127
221	0xbdeec13c	-0.1165795
222	0xbe140758	-0.14455926
223	0xbdbdbf4b	-0.09265002
224	0x3c6c1f2c	0.014411729
225	0xbe22f69f	-0.15914391
226	0x3c657d80	0.014006972
227	0xbe1b9e3b	-0.15197079
228	0x3d93adb1	0.072108634
229	0xbe3ce9f9	-0.18448628
230	0x3e35e8ac	0.17764539
231	0x3cd44e2f	0.025916187
232	0xbd42bff9	-0.04754636
233	0x3e248ff5	0.1607054
234	0x3d597f2d	0.0530998
235	0x3e841325	0.25795856
236	0x3d4c3e11	0.04986388
237	0xbe066cac	-0.13127393
238	0x3d5e4f42	0.054274805
239	0xbdbb5559	-0.09147138
240	0xbe0294d6	-0.12752089
241	0xbd6834d1	-0.056690995
242	0xbd84bc24	-0.064811975
243	0xbe8f95d2	-0.2804399
244	0x3de31299	0.110875316
245	0x3e5596c1	0.2085829
246	0x3beb19ca	0.007174705
247	0xbde6ee63	-0.112759374
248	0x3c1460ed	0.009056312
249	0xbd2f2ffe	-0.04277038
250	0x3e162355	0.14661916
251	0xbdacac98	-0.08431357
252	0xbdbc064f	-0.09180891
253	0x3a36d080	0.0006973818
254	0xbe50efbe	-0.20403954
255	0x3daab4f7	0.083352976

fc1.bias f4 [256]
0	0xbf0b810f	-0.544938
1	0xbea610ad	-0.32434598
2	0xbf0b2e94	-0.5436795
3	0xbea2fa29	-0.31831482
4	0xbef0859e	-0.46976942
5	0xbebab5de	-0.3646688
6	0xbef0b557	-0.4701335
7	0xbec2d09d	-0.38049784
8	0xbf0754da	-0.5286385
9	0xbeda9d4e	-0.4269814
10	0xbed94780	-0.42437363
11	0xbe95e0da	-0.2927311
12	0xbea732f4	-0.32656062
13	0xbea0391a	-0.31293565
14	0xbeb38dde	-0.35069174
15	0xbee8ef4e	-0.45495075
16	0xbf00a1e1	-0.5024701
17	0xbec741cb	-0.38917384
18	0xbe9104a0	-0.2832384
19	0xbec2f73b	-0.38079247
20	0xbebf180d	-0.37323037
21	0xbeca519c	-0.39515388
22	0xbf071bca	-0.5277678
23	0xbec4ed61	-0.38462356
24	0xbeac8138	-0.33692336
25	0xbefe7c4c	-0.49704206
26	0xbeab248b	-0.33426318
27	0xbec11087	-0.37707922
28	0xbe6dc18e	-0.23218367
29	0xbec37d2f	-0.38181445
30	0xbee66494	-0.4499861
31	0xbec98e42	-0.39366347
32	0xbee006f8	-0.43755317
33	0xbf0d5f34	-0.55223393
34	0xbeb2bb5d	-0.34908572
35	0xbed8cc87	-0.42343542
36	0xbeea1b86	-0.45724124
37	0xbf13b02e	-0.57690704
38	0xbef9d691	-0.48796514
39	0xbee55568	-0.44791722
40	0xbee240a8	-0.44189954
41	0xbea8d4a3	-0.3297473
42	0xbeacc311	-0.33742574
43	0xbf1120d5	-0.5669072
44	0xbf0cd1cb	-0.5500762
45	0xbeded554	-0.4352213
46	0xbeb095cc	-0.34489286
47	0xbe94c4d0	-0.29056406
48	0xbe9fc25f	-0.3120298
49	0xbf0b6187	-0.5444569
50	0xbeb9a56d	-0.36259022
51	0xbea75734	-0.32683718
52	0xbec54c83	-0.38534936
53	0xbf0654bd	-0.5247305
54	0xbed8f652	-0.42375427
55	0xbf04a371	-0.5181189
56	0xbea8a31a	-0.32936937
57	0xbec9c66c	-0.39409196
58	0xbef2af1d	-0.47399226
59	0xbed561b5	-0.41676107
60	0xbeda0ad3	-0.42586383
61	0xbec38b36	-0.38192147
62	0xbf01a6e0	-0.50645256
63	0xbee70258	-0.45118976
64	0xbef258f1	-0.47333482
65	0xbf03b68e	-0.5145043
66	0xbeeb6aee	-0.45980018
67	0xbee1a7de	-0.44073385
68	0xbead83f1	-0.33889726
69	0xbf0f9441	-0.5608559
70	0xbe90f952	-0.28315216
71	0xbf1a8fb4	-0.60375524
72	0xbeb90ae3	-0.36141118
73	0xbecf5458	-0.40494037
74	0xbef597a4	-0.47967255
75	0xbeb2cd83	-0.34922418
76	0xbea1ac26	-0.3157665
77	0xbecc8366	-0.39944
78	0xbeb8bbe6	-0.36080855
79	0xbecf844e	-0.40530628
80	0xbecffc0a	-0.40621978
81	0xbf0732c3	-0.5281183
82	0xbef7c512	-0.4839254
83	0xbe595b0e	-0.21226141
84	0xbe9da72b	-0.30791602
85	0xbee1f3fa	-0.44131452
86	0xbe5bef03	-0.21477894
87	0xbf0976f5	-0.5369714
88	0xbeb72646	-0.35771388
89	0xbeafdf8f	-0.3435025
90	0xbec12cec	-0.37729585
91	0xbea34641	-0.31889537
92	0xbe7929ef	-0.24332403
93	0xbed579be	-0.41694444
94	0xbeba6ceb	-0.36411223
95	0xbf03cbe7	-0.51483005
96	0xbe9b29f3	-0.30305442
97	0xbea8c4ef	-0.32962748
98	0xbea344c3	-0.318884
99	0xbf03425b	-0.51273125
100	0xbe985319	-0.29750898
101	0xbebe15da	-0.37126046
102	0xbeaa9c0a	-0.33322173
103	0xbee26e43	-0.44224748
104	0xbf07ce60	-0.5304928
105	0xbeeb7bb9	-0.4599283
106	0xbea75645	-0.32683006
107	0xbebe6762	-0.3718825
108	0xbee1fb6a	-0.44137126
109	0xbf171ab2	-0.5902511
110	0xbecc1b3d	-0.3986453
111	0xbf124513	-0.5713665
112	0xbf111834	-0.56677556
113	0xbf06be0f	-0.52633756
114	0xbeef4063	-0.4672881
115	0xbeed9da5	-0.46409336
116	0xbe956f93	-0.29186687
117	0xbee48662	-0.44633776
118	0xbe960d15	-0.29306856
119	0xbef1d5ad	-0.47233334
120	0xbe573ed4	-0.21020061
121	0xbefc0321	-0.49221137
122	0xbeff8bcb	-0.4991134
123	0xbeed675c	-0.4636792
124	0xbed867a7	-0.4226658
125	0xbefa1cb7	-0.48850033
126	0xbed8a71d	-0.42314997
127	0xbeaa9202	-0.3331452
128	0xbeb18d19	-0.3467796
129	0xbf0ce572	-0.55037606
130	0xbf0ae7f1	-0.54260164
131	0xbe540c40	-0.20707798
132	0xbed45de7	-0.41477892
133	0xbebb7ef0	-0.36620283
134	0xbe94737c	-0.28994358
135	0xbec795ce	-0.3898148
136	0xbed0c670	-0.40776396
137	0xbe92913d	-0.28626433
138	0xbec28f34	-0.3799988
139	0xbf1f04f4	-0.6211693
140	0xbe940975	-0.28913465
141	0xbf18cd3f	-0.5968818
142	0xbe7d522a	-0.24738374
143	0xbf0314c8	-0.51203585
144	0xbef2b0cb	-0.47400507
145	0xbec0b0e0	-0.37634945
146	0xbeec135e	-0.46108526
147	0xbeaab516	-0.33341283
148	0xbe975ac2	-0.2956143
149	0xbf16743a	-0.587711
150	0xbece7d46	-0.4032995
151	0xbee27594	-0.4423033
152	0xbeddfb16	-0.43355626
153	0xbef4a871	-0.4778476
154	0xbed4efaf	-0.41589114
155	0xbed1c1bc	-0.4096812
156	0xbf042bca	-0.51629317
157	0xbf23e35a	-0.64018786
158	0xbea46002	-0.32104498
159	0xbeb39668	-0.35075688
160	0xbec52616	-0.3850562
161	0xbeb8bab7	-0.36079952
162	0xbe9a1ea1	-0.30101493
163	0xbef796a1	-0.48357108
164	0xbf07b247	-0.53006405
165	0xbeed9475	-0.46402326
166	0xbedb4336	-0.42824715
167	0xbf2606b4	-0.6485398
168	0xbebe04fd	-0.3711318
169	0xbec2318e	-0.37928432
170	0xbed6055b	-0.4180096
171	0xbedf5eec	-0.43627107
172	0xbed42780	-0.41436386
173	0xbec8a572	-0.39188725
174	0xbedf5d52	-0.43625885
175	0xbe9c3fe3	-0.30517492
176	0xbf07b0ba	-0.5300404
177	0xbeca26f0	-0.39482832
178	0xbeff41ce	-0.49854892
179	0xbeae4097	-0.34033653
180	0xbed647db	-0.41851696
181	0xbf12b8fe	-0.57313526
182	0xbe8e9c1d	-0.2785348
183	0xbee57f89	-0.44823864
184	0xbe6861b7	-0.22693525
185	0xbe91ba4d	-0.2846245
186	0xbef578e5	-0.47943798
187	0xbeb0c8e6	-0.34528273
188	0xbeb82c00	-0.3597107
189	0xbe5946bf	-0.21218394
190	0xbecc97b4	-0.3995949
191	0xbf1ceb17	-0.6129622
192	0xbe989abb	-0.2980555
193	0xbedf55b6	-0.4362008
194	0xbed09eb9	-0.40746096
195	0xbec4643b	-0.3835772
196	0xbe9e343d	-0.3089923
197	0xbebed0f0	-0.37268782
198	0xbead1d1f	-0.3381128
199	0xbeae2b9e	-0.34017652
200	0xbf25b285	-0.64725524
201	0xbea9eb10	-0.3318715
202	0xbf0c031b	-0.5469224
203	0xbec088c2	-0.37604338
204	0xbee505ef	-0.4473109
205	0xbeab034a	-0.33400947
206	0xbeea80d4	-0.45801413
207	0xbe94abf5	-0.29037443
208	0xbe968e75	-0.2940556
209	0xbeadae48	-0.3392203
210	0xbf1c84d8	-0.61140203
211	0xbea6971f	-0.3253717
212	0xbec79db5	-0.38987508
213	0xbf137ab7	-0.57609123
214	0xbeeaf3c4	-0.45889103
215	0xbf161af1	-0.5863486
216	0xbee56828	-0.44806027
217	0xbeeb9d51	-0.4601846
218	0xbf054799	-0.52062374
219	0xbf31d2a6	-0.6946205
220	0xbe9bb584	-0.30411923
221	0xbe91d838	-0.28485274
222	0xbeeabd34	-0.45847476
223	0xbec235ca	-0.37931663
224	0xbef312fc	-0.4747542
225	0xbf0b2b12	-0.54362595
226	0xbf08f57e	-0.5349959
227	0xbece7c36	-0.4032914
228	0xbef8810e	-0.4853596
229	0xbef300d1	-0.4746156
230	0xbec96985	-0.39338318
231	0xbf03f5e4	-0.51547074
232	0xbefab86d	-0.4896883
233	0xbf02b0ec	-0.5105121
234	0xbf0f583a	-0.55994
235	0xbef0e1d3	-0.4704729
236	0xbebe1d19	-0.37131575
237	0xbec050bb	-0.37561592
238	0xbecf8237	-0.40529034
239	0xbf1005b7	-0.5625872
240	0xbe88c5d3	-0.26713428
241	0xbee12cd8	-0.43979526
242	0xbeb55c54	-0.35422003
243	0xbecf816d	-0.40528432
244	0xbf347ffb	-0.7050778
245	0xbebf867e	-0.37407297
246	0xbeb68dca	-0.3565505
247	0xbee208d9	-0.44147375
248	0xbefade59	-0.48997763
249	0xbe9f1439	-0.31070116
250	0xbeb7ef70	-0.35924864
251	0xbec39715	-0.38201204
252	0xbf000d92	-0.50020707
253	0xbe9e5ff5	-0.30932584
254	0xbf14df6a	-0.581534
255	0xbee462be	-0.44606584

fc2.weight f4 [128, 256]
0	0xbdfbb995	-0.12291256
1	0xbd0229cb	-0.031778138
2	0x3e4e3e05	0.20140846
3	0x3c0e7635	0.008695175
4	0x3d5e1082	0.05421496
5	0x3deb1c0f	0.11479961
6	0xbe6065ee	-0.21913883
7	0x3e42d5c8	0.19026864
8	0xbdb6a4c7	-0.089181475
9	0xbd0f8ffe	-0.03504943
10	0x3d60c680	0.054876804
11	0xbe311f12	-0.17297009
12	0x3d136b01	0.03599072
13	0xbdf8163c	-0.12113616
14	0xbc744bdd	-0.014910665
15	0xbd9129eb	-0.07088073
16	0x3dbd0fe9	0.0923155
17	0x3e2e3dcd	0.17015763
18	0xbe1ec10f	-0.15503334
19	0xbd00e438	-0.031467646
20	0x3c3c2776	0.011484018
21	0x3b8e8a9c	0.0043500196
22	0x3defb3e2	0.11704232
23	0xbd3b2bd2	-0.045696087
24	0xbc2faa03	-0.010721686
25	0xbea143cc	-0.31497037
26	0x3e73eb2d	0.23820181
27	0x3d689fe2	0.0567931
28	0x3d571653	0.052511524
29	0xbea3912b	-0.31946692
30	0xbdf73a69	-0.12071688
31	0xbdb54972	-0.08851899
32	0x3d331120	0.043717504
33	0x3d5e83d2	0.054324932
34	0xbe1b76ff	-0.15182112
35	0xbe341b2a	-0.17588487
36	0xbe5dac73	-0.21647815
37	0xbce40a3e	-0.027836915
38	0xbc171220	-0.00922063
39	0x3d6d42c6	0.05792501
40	0xbdd26e7d	-0.1027498
41	0x3e035bff	0.12828062
42	0xbe17a2fd	-0.14808269
43	0xbe685e3f	-0.22692202
44	0x3d9b47a3	0.07582023
45	0x3e626cfe	0.2211189
46	0x3dadccfc	0.08486363
47	0xbe6abe5a	-0.22924176
48	0x3b1fa1ad	0.002435784
49	0x3e0f1cd5	0.13975842
50	0xbe11423b	-0.14185421
51	0xbe8e07bf	-0.27740285
52	0xbe0141d8	-0.12622774
53	0xbcc77e34	-0.02435217
54	0x3dada2cc	0.08478317
55	0x3d8c154b	0.06839999
56	0x3d8b6b8c	0.06807622
57	0xbda5cf28	-0.080961525
58	0x3da678b5	0.08128492
59	0x3b14fa02	0.0022732024
60	0xbdb5f0e6	-0.08883838
61	0xbe594562	-0.21217874
62	0xbe96cabc	-0.2945155
63	0xbe1c7196	-0.15277705
64	0xbdef8c2c	-0.116966575
65	0xbd9d449f	-0.07679104
66	0xbdf4c582	-0.11951734
67	0xbead8383	-0.33889398
68	0xbde257de	-0.110519156
69	0xbd0102b2	-0.03149671
70	0x3e880c68	0.26571965
71	0x3d4062f7	0.04696938
72	0xbe0c534c	-0.1370365
73	0xbd9f8ad6	-0.07790153
74	0x3e2fe616	0.17177615
75	0x3e141559	0.14461268
76	0x3d3abd2e	0.045590572
77	0x3d2c7c11	0.042110506
78	0xbe5b1ef7	-0.21398531
79	0x3d923987	0.07139879
80	0x3ca470e4	0.020073362
81	0x3b9a1c65	0.004703092
82	0x3d13a771	0.036048356
83	0x3d5c9246	0.053850435
84	0xbe2ad3b8	-0.16682327
85	0xbdb79f1d	-0.08965895
86	0x3e37e587	0.17958651
87	0x3dff9137	0.124788694
88	0xbd88f4ae	-0.06687294
89	0xbbb88854	-0.005631486
90	0x3dcb6ac0	0.0993247
91	0x3c7dcbb4	0.015490461
92	0xbd370d69	-0.044690523
93	0x3d8b0dbb	0.06789728
94	0xbdf8e735	-0.12153474
95	0xbe085f0f	-0.13317512
96	0xbdc73b2a	-0.097280815
97	0xbe14820a	-0.14502731
98	0x3d956653	0.072949074
99	0xbe2a992d	-0.16659994
100	0x3d8f3ec0	0.069943905
101	0x3da116e5	0.07865695
102	0x3e326f4a	0.17425266
103	0x3e1725a0	0.14760447
104	0xbe166528	-0.14687026
105	0xbde13016	-0.109955
106	0xbd9992d2	-0.07498707
107	0x3e17c283	0.14820294
108	0xbe482275	-0.19544394
109	0xbe5b7dce	-0.2143471
110	0x3d71d380	0.059039593
111	0xbdb7bc1f	-0.08971428
112	0xbe182446	-0.14857587
113	0xbe1a9d12	-0.1509898
114	0x3cd828cd	0.026386643
115	0x3df96e1c	0.12179205
116	0xbe041fdd	-0.1290278
117	0xbdc14e46	-0.094387576
118	0x3ce31f05	0.027724752
119	0x3e1e7ad5	0.15476544
120	0x3e780f0a	0.24224487
121	0x3ccb13d1	0.024789723
122	0xbd3b32b3	-0.045702647
123	0xbd5969e0	-0.053079486
124	0xbd5a59e3	-0.05330838
125	0xbcd1da23	-0.025616711
126	0xbe35ec74	-0.17765981
127	0x3d566d8d	0.05235057
128	0xbe2ec1c1	-0.17066099
129	0xbe9554e3	-0.29166326
130	0x3c7e4d2e	0.015521331
131	0xbdbb5790	-0.091475606
132	0xbddfe5e8	-0.10932523
133	0xbcecc837	-0.028904064
134	0x3d95344d	0.07285366
135	0xbd335bad	-0.0437886
136	0xbdcb23ea	-0.099189594
137	0xbc814673	-0.015780663
138	0x3e424acc	0.18973845
139	0x3bc6eb92	0.0060705626
140	0x3de604ad	0.112313606
141	0x3dc60078	0.09668058
142	0x3da10ca0	0.07863736
143	0x3dbbd484	0.091713935
144	0x3e801648	0.25017
145	0x3d067988	0.032830745
146	0xbe1d48d3	-0.15359811
147	0x3dcf2925	0.101152696
148	0xbe70ee35	-0.23528369
149	0xbe4deca9	-0.2010981
150	0x3d635b6c	0.05550711
151	0x3dc4861d	0.095958926
152	0x39c04aa9	0.0003667672
153	0x3dd82666	0.10554199
154	0x3d36d84b	0.044639867
155	0x3cc90c45	0.024541983
156	0xbd8d123e	-0.06888245
157	0x3caa09f5	0.020756701
158	0xbd409997	-0.047021475
159	0x3d681370	0.056659162
160	0xbd901c11	-0.07036603
161	0x3e14e2ee	0.14539692
162	0xbd6553fc	-0.055988297
163	0x3e0039a2	0.12521985
164	0xbd2929f3	-0.04129977
165	0x3de4d90a	0.111742094
166	0xbdc15528	-0.094400704
167	0xbca5b6fb	-0.020228853
168	0xbd35a83e	-0.0443499
169	0x3e04756a	0.12935415
170	0xbe439eaa	-0.19103494
171	0xbd229943	-0.039696943
172	0x3c9f1415	0.019418756
173	0xbec0a6a3	-0.37627134
174	0xbdd02265	-0.1016281
175	0xbdf17b9d	-0.117911555
176	0xbe7ddb02	-0.24790576
177	0x3e4a9267	0.1978241
178	0x3d001807	0.031272914
179	0xbd6ff558	-0.058583587
180	0x3bd41b1a	0.0064729573
181	0xbea22840	-0.31671333
182	0x3b0deb6d	0.0021655217
183	0xbe3f2282	-0.18665507
184	0x3d680015	0.056640703
185	0x3dc22271	0.094792254
186	0x3e1f0c9d	0.15532155
187	0xbe464012	-0.19360378
188	0x3d098c3c	0.033581004
189	0x3d14e474	0.036350682
190	0x3e4ef5b8	0.20210922
191	0x3c8e0f0d	0.017341161
192	0x3e369b78	0.17832744
193	0xbc9817c4	-0.01856602
194	0x3c8022c3	0.015641576
195	0x3d2cef29	0.04222027
196	0x3d1c53fc	0.03816603
197	0xbe26c5d4	-0.16286403
198	0xbe59d9e3	-0.21274523
199	0xbe3da05b	-0.18518202
200	0xbd21a74c	-0.039466187
201	0xbc312359	-0.01081165
202	0xbe83c3bf	-0.2573528
203	0x3ddddd7f	0.10833263
204	0x3cafcb40	0.021459222
205	0x3e11f325	0.14252909
206	0xbcf14aa0	-0.02945453
207	0xbde1cfcd	-0.11025963
208	0x3e03fd4a	0.12889591
209	0x3d2e21f9	0.042512868
210	0x3de5babb	0.11217257
211	0x3e79d851	0.24398924
212	0xbea342d4	-0.31886923
213	0x3e179fd6	0.14807066
214	0xbaa50365	-0.0012589513
215	0xbc6b41b8	-0.01435893
216	0xbcd7b2f7	-0.026330454
217	0x3d99f174	0.07516757
218	0x3e14b08f	0.14520477
219	0xbe128999	-0.14310302
220	0x3db50ed9	0.088407226
221	0xbd1afc4a	-0.037838258
222	0xbd268cea	-0.04066173
223	0xbc9b0bfe	-0.018926617
224	0x3dd92a55	0.10603777
225	0x3da7de67	0.08196717
226	0x3c842cd4	0.016134657
227	0xbebdda97	-0.37080833
228	0xbe1ef880	-0.15524483
229	0x3dfec000	0.12438965
230	0xbe388bf6	-0.18022141
231	0xbd1a0e85	-0.037611503
232	0x3d9a9029	0.075470276
233	0x3c33f95b	0.010984744
234	0xbd0a1abd	-0.033716906
235	0xbd863e16	-0.06554811
236	0xbe01d2ad	-0.12678023
237	0x3d5d7eaa	0.054075874
238	0x3e0b5b2a	0.13608995
239	0x3cb64a49	0.022252219
240	0x3cb83844	0.022487767
241	0x3d62b6d8	0.055350155
242	0x3ba8189b	0.0051298863
243	0xbe30e0fa	-0.17273322
244	0xbd3d6fb1	-0.046249095
245	0xbd0d620c	-0.034517333
246	0x3d114e0c	0.035474822
247	0xbe83a774	-0.25713694
248	0xbe01ebcf	-0.1268761
249	0xbd87f5b2	-0.066386595
250	0x3de8e54e	0.113718614
251	0x3d3d7a57	0.04625925
252	0xbd12735f	-0.035754558
253	0x3e485ec6	0.19567403
254	0xbea1b8c6	-0.31586283
255	0x3cc8cf9f	0.024513064

fc2.bias f4 [128]
0	0xbc6952b8	-0.014240913
1	0x3d1a9436	0.037739
2	0x3dc0cfc7	0.094146304
3	0xbc990edd	-0.018683845
4	0xbc188ef4	-0.009311426
5	0xbcfd0b4f	-0.030889181
6	0x3db92f7e	0.090422615
7	0xbd99d176	-0.07510655
8	0xbd86bbd5	-0.06578795
9	0xbd8dbac1	-0.06920386
10	0xbcf9f783	-0.03051353
11	0xbd944941	-0.072405346
12	0x3cd3d80c	0.025859855
13	0x3caddee0	0.02122444
14	0x3d87867a	0.06617446
15	0xbdfc32b0	-0.123143554
16	0x3bbc0b0e	0.0057386225
17	0xbd9775d0	-0.07395518
18	0xbda8c478	-0.082405984
19	0xbc480925	-0.0122092115
20	0xbce26086	-0.027633917
21	0x3d2335b9	0.039846156
22	0x3bdb3c24	0.006690519
23	0xbd9148fd	-0.070939995
24	0x3be822cf	0.0070842276
25	0xbd3ea10d	-0.04654031
26	0x3d53519f	0.05159151
27	0x3bc769c6	0.006085607
28	0xbd732592	-0.059362
29	0x3c8ff1b0	0.0175713
30	0xbbe6d476	-0.0070443703
31	0xbbf3ed43	-0.0074440553
32	0x3d27b21b	0.04094134
33	0xbe03d103	-0.128727
34	0xbd5d3104	-0.054001823
35	0xbd88eaba	-0.066853955
36	0x3c0f0ce1	0.008731098
37	0xbc95ab73	-0.01827023
38	0xbd958dd2	-0.07302441
39	0xbdae8359	-0.08521146
40	0xbc078b79	-0.008272999
41	0x3c183a4b	0.009291242
42	0x3e238709	0.1596948
43	0x3d2d357e	0.042287342
44	0xbcda7c6f	-0.026670663
45	0xbda4ee8b	-0.08053311
46	0xbd1746b2	-0.036932655
47	0x3d804a6d	0.062641956
48	0xbc934b87	-0.01798035
49	0x3d235f01	0.039885525
50	0x3b2bfb6b	0.0026242386
51	0xbd9cd4e0	-0.0765779
52	0xbcd995ce	-0.02656069
53	0xbd87d1f9	-0.06631846
54	0x3a07e845	0.0005184452
55	0xbc4e845c	-0.012604799
56	0xbcb923ab	-0.022600016
57	0x3b35aa9c	0.00277201
58	0xbd120602	-0.03565026
59	0x3dab68a2	0.083695665
60	0x3bea04b9	0.0071416763
61	0xbd817187	-0.06320482
62	0x3d140911	0.03614146
63	0x3babb37d	0.0052399025
64	0x3d409392	0.047015734
65	0x3a14df7f	0.00056790555
66	0xba9dd7d0	-0.0012042467
67	0xbc8d9a0d	-0.017285371
68	0xbd79b21e	-0.06096088
69	0xbd56c796	-0.052436434
70	0xbd9131ff	-0.07089614
71	0xbcd54138	-0.026032075
72	0xbd989f5f	-0.074522726
73	0xbd901e78	-0.070370615
74	0xbdaca492	-0.08429827
75	0xbccb8ee5	-0.02484841
76	0xbda9cdef	-0.08291232
77	0x3a558bf0	0.00081461575
78	0x3e1be1e9	0.15222897
79	0xbcd872c9	-0.026421921
80	0x3d670a64	0.056406394
81	0x3d795684	0.060873523
82	0x3c836f72	0.016044352
83	0xbdafa36d	-0.08576093
84	0xbda15c91	-0.07878984
85	0x3c40939f	0.011753946
86	0x3debbe69	0.11510927
87	0xbd2a057e	-0.041509144
88	0x3c8b7bdb	0.017026832
89	0xbd909b24	-0.07060841
90	0xbda7e05a	-0.081970885
91	0xbbb859a5	-0.005625921
92	0x3d1cfb4e	0.0383256
93	0x3caa6e43	0.02080453
94	0xbbdeb188	-0.0067960657
95	0x3da0ecac	0.078576416
96	0x3d498846	0.049202226
97	0xbdbb5d1c	-0.091486186
98	0xbcb28c5a	-0.02179544
99	0xbdcb9454	-0.09940401
100	0x3dcf9f38	0.101377904
101	0xbd6a25f3	-0.057165097
102	0x3d3a4ace	0.045481496
103	0x3de9f7a9	0.114241906
104	0xbc9d2311	-0.01918176
105	0xbd51668b	-0.051123183
106	0x3da95aef	0.08269297
107	0xbdac7eed	-0.08422647
108	0x3cc16130	0.023605913
109	0x3ce8e097	0.028427405
110	0xbdeaa3c7	-0.11457019
111	0xbd9607ef	-0.07325732
112	0x3da4f869	0.08055193
113	0xbd8a8f3c	-0.06765601
114	0xbd43c080	-0.047791004
115	0xbd62e852	-0.05539734
116	0x3e2a6b56	0.16642508
117	0xbe1dbfa1	-0.15405132
118	0xbd706283	-0.058687698
119	0xbb36e1d6	-0.0027905605
120	0xbc254b03	-0.010088685
121	0x3c8a41db	0.016877105
122	0xbdb53e3a	-0.088497594
123	0xbbe3107c	-0.0069294553
124	0xbcf256d6	-0.029582422
125	0xbd64ec36	-0.05588933
126	0x3bea00fb	0.00714123
127	0x3de4e47a	0.11176391

fc3.weight f4 [64, 128]
0	0xbd02446d	-0.031803537
1	0xbe30a964	-0.17252117
2	0xbdeb73ad	-0.11496673
3	0x3d198da6	0.037488602
4	0x3bdfee08	0.0068337955
5	0xbcf0e988	-0.029408231
6	0x3ddc121c	0.107456416
7	0xbe31f585	-0.17378815
8	0xbe1063c1	-0.14100553
9	0xbd630266	-0.05542221
10	0x3d4aecad	0.049542118
11	0xbdf70e6a	-0.12063296
12	0xbd2d178a	-0.042258777
13	0xbdd44a27	-0.10365706
14	0xbe6bf68f	-0.23043273
15	0xbe619f7f	-0.22033499
16	0xbe29fd0c	-0.16600436
17	0x3bfa8781	0.007645548
18	0x3e437e82	0.19091228
19	0x3c0b4609	0.008500584
20	0xbdc8a9e0	-0.09798026
21	0xbe1cc57e	-0.15309712
22	0xbb565621	-0.0032705145
23	0xbc8d483f	-0.017246364
24	0xbd025842	-0.03182245
25	0xbdc7baef	-0.09752452
26	0xbd8132ac	-0.06308493
27	0xbc0943f1	-0.008378015
28	0xbdbf313c	-0.093355626
29	0xbce94969	-0.028477388
30	0xbda9f083	-0.08297827
31	0xbdef8003	-0.11694338
32	0xbd9d96ed	-0.076948024
33	0xbd0f7fd7	-0.035034027
34	0xbddc56c6	-0.10758738
35	0xbb3f7371	-0.0029213096
36	0x3d81b905	0.06334118
37	0xbdb6bfaa	-0.08923276
38	0xbc7863c6	-0.015160507
39	0x3bb8f1b1	0.0056440462
40	0xbd6e3d29	-0.058163796
41	0x3cdc3dff	0.02688503
42	0xbe3788e3	-0.17923312
43	0xba119074	-0.0005552836
44	0xbdb03065	-0.086029805
45	0x3c7e02e6	0.015503621
46	0x3c707ec9	0.014678665
47	0xbe559b76	-0.20860085
48	0xbdae3b07	-0.08507352
49	0x3c99ce63	0.01877517
50	0xbd8eebb8	-0.069785535
51	0xbdb51364	-0.08841589
52	0x3d59a409	0.05313495
53	0x3ceea6a5	0.029132197
54	0xbe6e1290	-0.23249269
55	0xbe3842ac	-0.17994183
56	0xbd687afe	-0.05675792
57	0xbca56e49	-0.02019419
58	0x3e794561	0.24342872
59	0xbda2a415	-0.079414524
60	0xbdb8478e	-0.08998023
61	0x3d513661	0.05107725
62	0xbd8a0514	-0.0673925
63	0xbe9d5a6c	-0.3073305
64	0x3e00cea8	0.12578833
65	0x3de133c5	0.109962024
66	0xbe297e8c	-0.1655218
67	0xbc852562	-0.016253177
68	0xbd9a1ee2	-0.07525422
69	0xbd05a3e3	-0.032626998
70	0xbdc30e11	-0.09524167
71	0x3d50ebac	0.051006004
72	0xbd82bca4	-0.063836366
73	0x3c85d3a1	0.016336264
74	0x3ce6dc62	0.028181259
75	0xbd990cc3	-0.07473137
76	0x3d6772a5	0.056505818
77	0xbe02a079	-0.12756528
78	0xb9e33419	-0.0004333563
79	0xbdac981b	-0.08427449
80	0xbd92453b	-0.07142111
81	0xbdfdb808	-0.12388617
82	0xbe41f660	-0.18941641
83	0xbd9aa31a	-0.075506404
84	0x3dd24bb5	0.10268346
85	0xbd05aa01	-0.03263283
86	0xbc7a9532	-0.01529436
87	0xbd91082d	-0.070816375
88	0xbe05bcb9	-0.13060273
89	0x3d363a1a	0.044489004
90	0xbd067969	-0.03283063
91	0xbce4dc77	-0.027937157
92	0xbe125633	-0.14290695
93	0x3d9847c2	0.07435562
94	0x3deb15d1	0.114787705
95	0x3c18ffa0	0.0093382895
96	0xbcaff1f6	-0.02147768
97	0xbd7bf759	-0.061515186
98	0xbd075d93	-0.033048224
99	0xbd9c0ac4	-0.07619241
100	0xbe4b62f8	-0.19861972
101	0xbccde075	-0.025131444
102	0xbd3b4f68	-0.045730025
103	0xbd82fe2f	-0.06396138
104	0xbe52b533	-0.20576935
105	0xbdf3da20	-0.119068384
106	0xbe0956b1	-0.13411976
107	0xbd9a7e2b	-0.07543596
108	0xbe2b4a2c	-0.16727513
109	0x3d8bdc86	0.06829171
110	0x3c859fa5	0.016311476
111	0x3d7f064f	0.062261876
112	0xbdd87ef7	-0.105710916
113	0xbc541d63	-0.012946459
114	0xbd4dd8f6	-0.05025574
115	0xbe097c7b	-0.13426392
116	0x3c7aa430	0.015297934
117	0xbdfd4615	-0.12366883
118	0xbe45c053	-0.19311647
119	0xbb0b9a56	-0.0021301708
120	0xbd26794c	-0.04064302
121	0x39898c20	0.00026235078
122	0xba9bfbfd	-0.001190066
123	0xbe6e8f46	-0.23296842
124	0xbcd63284	-0.026147135
125	0xbe02cb10	-0.12772775
126	0xbe0d6651	-0.13808562
127	0xbd1eaf88	-0.03874162
128	0x3e4e085c	0.20120376
129	0xbe8379cf	-0.2567887
130	0x3d8028c3	0.06257775
131	0x3d561dc9	0.0522745
132	0xbd73af2f	-0.05949324
133	0x3d8300df	0.063966505
134	0x3e888eff	0.26671597
135	0x3e2b6781	0.16738702
136	0x3e1b0490	0.15138459
137	0xbd37a815	-0.04483803
138	0x3c5c977e	0.013463853
139	0xbe228e8a	-0.15874687
140	0xbe77f16f	-0.24213193
141	0x3dd08440	0.10181475
142	0x3c0f5614	0.00874855
143	0xbe80f302	-0.251854
144	0x3b8b0d11	0.004243501
145	0xbbc69ef6	-0.00606143
146	0x3b10c798	0.0022091623
147	0xbe1ba005	-0.15197761
148	0xbe2f2ec0	-0.17107677
149	0x3d9ee893	0.07759204
150	0x3cf99ef1	0.030471297
151	0x3d119d3a	0.035550334
152	0xbcfc1901	-0.030773642
153	0x3dcf4005	0.10119633
154	0xbe2d334f	-0.16914104
155	0x3e627fb1	0.22119023
156	0x3d9ff197	0.078097515
157	0x3ce6b663	0.02816314
158	0xbc828d5c	-0.015936546
159	0xbdecb9ce	-0.11558877
160	0x3d567121	0.052353982
161	0x3d0e5550	0.03474933
162	0xbd947888	-0.07249552
163	0xbcfb19e3	-0.030651992
164	0xbd484dcb	-0.048902314
165	0x3e3e5e8e	0.18590757
166	0x3d3b93e3	0.045795333
167	0xbc557b9d	-0.01302996
168	0xbd2777da	-0.040885784
169	0x3e5a90a5	0.2134424
170	0x3e05d73d	0.13070388
171	0x3db55a2f	0.08855092
172	0x3cbcb5a2	0.023035828
173	0x3cf0e723	0.02940709
174	0xbcf572f6	-0.029962044
175	0x3e47dc7c	0.19517702
176	0xbd82e0a5	-0.06390504
177	0x3ca65427	0.020303799
178	0xbe075a2e	-0.13217995
179	0x3cc6108c	0.024177812
180	0xbc7c3fe6	-0.015396094
181	0xbbfb4f3c	-0.0076693576
182	0xbbe3347b	-0.0069337464
183	0x3cec35e8	0.028834298
184	0xbd9e4ea9	-0.07729847
185	0x3de6478d	0.11244116
186	0xbd39ab2f	-0.04532927
187	0x3a0992c2	0.0005248004
188	0xbd4929c6	-0.049112104
189	0xbdd55c8f	-0.10418045
190	0x3e1652b6	0.14679989
191	0xbdd63aed	-0.10460458
192	0xbe84aeee	-0.2591471
193	0xbdab828b	-0.083745085
194	0xbdf92dca	-0.12166937
195	0xbd8f3733	-0.0699295
196	0xbc07e459	-0.008294188
197	0xbcbf9c01	-0.023389818
198	0xbe4f6187	-0.20252047
199	0x3d523420	0.05131924
200	0xbd0c1c92	-0.034206934
201	0xbd67128f	-0.056414183
202	0xbb6d1df7	-0.003618119
203	0x3c850b9c	0.016240887
204	0xbd7116b2	-0.058859535
205	0x3d600538	0.054692477
206	0xbda74bd0	-0.08168757
207	0x3dfaca75	0.12245647
208	0x3e4dd878	0.20102108
209	0x3d8b7f4a	0.06811388
210	0xbe6fa137	-0.23401342
211	0xbdfea474	-0.12433711
212	0xbc6cc7ec	-0.014451962
213	0x3d5c1d8d	0.05373912
214	0x3e2264f4	0.15858823
215	0xbb245ac1	-0.0025078508
216	0xbdb5061d	-0.08839057
217	0xbd99e33e	-0.07514046
218	0x3db10e8a	0.08645351
219	0xbe0df973	-0.13864689
220	0x3d5dfd1b	0.05419646
221	0xbd9d1370	-0.07669723
222	0xbcbec7a4	-0.023288555
223	0x3de7a70e	0.1131116
224	0x3d4b2a1a	0.049600698
225	0x3d8874cb	0.066629015
226	0x3d96d158	0.07364148
227	0xbd9a1c0b	-0.0752488
228	0x3d98760f	0.07444393
229	0x3d10c13e	0.03534054
230	0xbd0e0507	-0.034672763
231	0x3e215c86	0.15757951
232	0x3da811f3	0.082065485
233	0x3decbcd7	0.11559456
234	0x3e151651	0.14559294
235	0x3e0e1a3e	0.13877198
236	0xbd4b1290	-0.04957825
237	0xbd545771	-0.051841203
238	0x3d8f451c	0.069956034
239	0xbd2ae25c	-0.04171978
240	0x3e34debe	0.17663094
241	0x3bfbb7f0	0.007681839
242	0x3d351093	0.04420526
243	0x3dbb1175	0.09134189
244	0x3d850ab9	0.06496186
245	0x3d42c195	0.047547895
246	0xbdbcaed8	-0.09213036
247	0xbe4ea3e0	-0.20179701
248	0x3c5aad30	0.013346955
249	0x3e3a9965	0.18222578
250	0xbdae78ee	-0.08519159
251	0xbdaf13f3	-0.08548727
252	0x3d36cb91	0.04462773
253	0x3de19d8c	0.11016378
254	0x3da5dc46	0.080986544
255	0x3acd00bd	0.0015640479

fc3.bias f4 [64]
0	0xbd971538	-0.07377094
1	0xbc356a2f	-0.011072679
2	0xbcfeca2f	-0.031102268
3	0xbdbbfb10	-0.09178746
4	0x3e51fb27	0.20505963
5	0xbb03f927	-0.002013752
6	0x3e6f2e3d	0.23357482
7	0x3dfd7338	0.12375492
8	0xbd0b3178	-0.033982724
9	0xbe19837c	-0.14991564
10	0xbcb41b50	-0.02198568
11	0xbdf7115f	-0.1206386
12	0x3e258424	0.16163689
13	0x3e62ca2c	0.22147435
14	0xbc236e2b	-0.009974997
15	0x3e7fc312	0.24976757
16	0xbe1ef1ca	-0.15521923
17	0xbcf4a8f8	-0.029865727
18	0x3e39f70f	0.18160652
19	0x3d723d77	0.05914065
20	0x3db5d87a	0.0887918
21	0x3e314eea	0.1731526
22	0xbd527827	-0.051384117
23	0x3def49a7	0.1168397
24	0x3e7c2d29	0.24626602
25	0xbe0e5198	-0.13898313
26	0xbc729cf5	-0.014807929
27	0x3cc83244	0.024438031
28	0x3de8a3e3	0.11359384
29	0x3e8c34c9	0.27384022
30	0xbd21b7dd	-0.039481986
31	0xbbedf45d	-0.0072617964
32	0x3d3dd1dd	0.04634272
33	0xbdc64dcb	-0.096828066
34	0xbe207d20	-0.15672731
35	0x3e1acbdd	0.1511683
36	0xbd44ec37	-0.048076835
37	0x3d215515	0.03938778
38	0x3eb84264	0.35988152
39	0xbcbcf4a3	-0.02306587
40	0xbd38807d	-0.04504441
41	0xbd9748fc	-0.073869675
42	0x3daf8667	0.08570557
43	0x3db4223e	0.08795594
44	0xbe3c551d	-0.18391843
45	0xbca665f0	-0.02031228
46	0x3ebf51b4	0.37367022
47	0x3cf5504e	0.029945519
48	0xbe16a40a	-0.14711013
49	0x3dd8a790	0.10578835
50	0xbcdcf9b4	-0.026974536
51	0x3d8bc290	0.06824219
52	0x3e2bc55e	0.16774508
53	0xbd46a548	-0.04849747
54	0xbdb49b06	-0.08818631
55	0x3e886b29	0.26644257
56	0x3d85c8d3	0.06532445
57	0xbdeddf53	-0.11614861
58	0x3d931712	0.07182135
59	0xbcaf1e22	-0.021376673
60	0x3e80a853	0.2512842
61	0x3e32f087	0.17474566
62	0x3ca4ceb7	0.0201181
63	0xbdfd8faa	-0.12380917

fc4.weight f4 [32, 64]
0	0xbe89e7a2	-0.26934534
1	0x3d859ca4	0.065240175
2	0xbd23f19b	-0.040025335
3	0x3d895a87	0.0670672
4	0xbe893213	-0.26796016
5	0x3d471256	0.04860147
6	0xbdf4debf	-0.11956548
7	0x3d58f72f	0.052970108
8	0xbda54e15	-0.080715336
9	0xbe8cc89f	-0.27496812
10	0xbdf617cb	-0.12016257
11	0xbd416fc1	-0.047225717
12	0x3cc2dc99	0.02378683
13	0x3b5222fb	0.0032064307
14	0xbbb6d461	-0.0055795168
15	0xbd266cb5	-0.040631015
16	0x3e06a572	0.1314905
17	0xbbd96057	-0.006633799
18	0xbe0b3b19	-0.13596763
19	0xbdd6bb04	-0.10484889
20	0xbd66410b	-0.056214374
21	0xbe0b711e	-0.1361737
22	0x3dd869bd	0.10567043
23	0xbd80c38a	-0.06287296
24	0xbe1f9179	-0.15582837
25	0xbe3a396d	-0.18185969
26	0xbdebd469	-0.115151234
27	0xbe2018b8	-0.1563443
28	0xbe2288c6	-0.15872487
29	0xbe2d0cb5	-0.16899379
30	0x3d7ba43d	0.061435927
31	0xbc8ef583	-0.017451053
32	0xbe2059c4	-0.15659243
33	0x3e0d344b	0.1378948
34	0x3da2a9b7	0.07942527
35	0x3e65c3e7	0.22438012
36	0xbd9a732e	-0.075415
37	0xbcec9dbe	-0.028883811
38	0xbcdc231d	-0.026872212
39	0x3cf9bca4	0.030485459
40	0xbe17b8a3	-0.14816527
41	0x3d8c0a9d	0.06837962
42	0x3cf9a57d	0.030474419
43	0xbd59ebee	-0.053203516
44	0x3e22371d	0.15841337
45	0x3e12d789	0.14340033
46	0xbdea691f	-0.114458315
47	0x3de19927	0.110155396
48	0xbcc90c51	-0.024542006
49	0xbe444958	-0.19168603
50	0xbd383905	-0.044976253
51	0xbcc581ba	-0.02410971
52	0xbd491bda	-0.049098827
53	0x3dbca196	0.092105076
54	0x3d8c235c	0.06842682
55	0xbc9a681a	-0.018848468
56	0x3d092c84	0.03348972
57	0xbe51ac10	-0.20475793
58	0xbd566880	-0.052345753
59	0xbde42b53	-0.11141076
60	0xbd7ef134	-0.062241748
61	0x3e1faa69	0.1559235
62	0x3d382f31	0.04496688
63	0x3d1bc779	0.03803203
64	0xbd150f08	-0.036391288
65	0x3dacccd7	0.084375076
66	0xbcefa449	-0.029253142
67	0xbcec3a72	-0.028836463
68	0x3ccd103f	0.02503216
69	0xbda6f7da	-0.08152743
70	0x3cda06b9	0.026614534
71	0xbd908d0a	-0.07058151
72	0xbe3fe478	-0.18739498
73	0xbd740607	-0.05957606
74	0xbe07e2a6	-0.13270053
75	0x3dcd90b8	0.100373685
76	0x3b825575	0.0039774724
77	0xbdd1475f	-0.10218691
78	0xbe07c475	-0.13258536
79	0x3c639128	0.013889588
80	0x3d88c328	0.06677848
81	0xbdd14fde	-0.102203116
82	0xbcec993d	-0.028881663
83	0xbd673f56	-0.056456886
84	0x3d2bad56	0.041913353
85	0xbe50c007	-0.20385753
86	0xbdcb2c08	-0.09920508
87	0xbdc5d6ee	-0.09660135
88	0xbdd392a7	-0.10330706
89	0x3d958334	0.07300416
90	0xbe1e8743	-0.15481286
91	0xbdaf864c	-0.08570537
92	0x3d08d488	0.03340581
93	0xbd95063a	-0.07276578
94	0xbe369ad8	-0.17832506
95	0xbd7ae98b	-0.06125788
96	0x3d2ffa25	0.042963166
97	0xbbc80101	-0.0061036353
98	0xbd8ab523	-0.0677283
99	0xbc965dae	-0.018355217
100	0x3cee8aba	0.029118884
101	0xbd5aae69	-0.053388987
102	0xbd9c3a9d	-0.07628367
103	0xbe2824a5	-0.16420229
104	0x3c3ea572	0.011636125
105	0xbe2bec91	-0.16789462
106	0xbdbecb15	-0.093160786
107	0x3ca92f2b	0.020652374
108	0x3c7837c2	0.015150012
109	0xbde1d379	-0.11026663
110	0x3d37c595	0.044866163
111	0xbe280931	-0.16409756
112	0x3da8a993	0.08235469
113	0xbe172b6d	-0.1476266
114	0x3d25d023	0.040481698
115	0xbe1f345f	-0.15547322
116	0xbddeb68f	-0.10874664
117	0x3d1ca2bc	0.038241133
118	0xbd9d06ef	-0.07667338
119	0xbd9319ce	-0.07182656
120	0xbcd0ac07	-0.025472654
121	0xbc8a1cef	-0.0168595
122	0xbe089877	-0.1333941
123	0xbb52cdc0	-0.0032166094
124	0xbe45b9e0	-0.19309187
125	0xbe108559	-0.14113368
126	0x3d8b85fb	0.06812664
127	0x3c38d110	0.011280313
128	0x3d31846c	0.043339178
129	0xbe6f6511	-0.23378398
130	0x3e121375	0.14265235
131	0xbdeb8c9c	-0.115014285
132	0x3d5379c9	0.051629815
133	0xbe3dd299	-0.18537368
134	0xbd200568	-0.039067656
135	0xbe77887d	-0.2417316
136	0xbe3b46a2	-0.18288663
137	0xbe0650ce	-0.13116762
138	0xbe0ac6d8	-0.13552415
139	0x3d8a1740	0.06742716
140	0xbe409d00	-0.18809891
141	0xbe489df1	-0.195915
142	0xbc9419b3	-0.01807866
143	0xbe713955	-0.23557027
144	0x3e1f1d7f	0.15538596
145	0xbd930ec0	-0.07180548
146	0x3e243a07	0.1603776
147	0x3d986186	0.07440476
148	0xbb291821	-0.0025801735
149	0x3e2c0ac6	0.16800985
150	0xbdb0238b	-0.08600529
151	0x3e2b1cd4	0.16710216
152	0x3e59ed4f	0.21281932
153	0xbd5a10f3	-0.05323882
154	0x3e54c82d	0.20779486
155	0xbe1f7637	-0.15572439
156	0xbc804635	-0.015658477
157	0x3cd3d867	0.025860025
158	0x3b8028f9	0.0039111343
159	0xbd27e116	-0.040986143
160	0x3db5979d	0.088668086
161	0xbe4de742	-0.20107749
162	0xbdba4a72	-0.090962306
163	0xbe9c1ada	-0.30489236
164	0x3d788faf	0.060683902
165	0xbdd4e23d	-0.10394714
166	0x3e0d21d1	0.13782431
167	0xbe4770a6	-0.19476566
168	0xbd100373	-0.03515954
169	0xbe6cb09b	-0.23114245
170	0x3e09d1a2	0.13458875
171	0xbe01ea25	-0.12686975
172	0xbd93e60f	-0.072216146
173	0xbe9e27ba	-0.30889684
174	0xbc52c096	-0.012863299
175	0xbe54b1d6	-0.20770964
176	0xbe39e7af	-0.18154787
177	0xbcdd0d8b	-0.026983997
178	0xbe071f67	-0.13195573
179	0x3dbc2f3d	0.091886975
180	0x3da0efba	0.07858224
181	0xbe471ecd	-0.19445343
182	0xbe23faf8	-0.16013706
183	0x3e4e0809	0.20120253
184	0x3e4dc040	0.20092869
185	0x3e291d41	0.16515066
186	0xbdbd8a67	-0.09254914
187	0x3ea86233	0.3288742
188	0xbc1ba990	-0.009500876
189	0xbd450a48	-0.048105508
190	0xbe0b2569	-0.1358849
191	0xbe1e852c	-0.15480489
192	0xbd6dceac	-0.058058426
193	0x3dd88238	0.10571712
194	0xbce5468f	-0.027987747
195	0xbaa3d0e1	-0.0012498164
196	0xbd724cb7	-0.059155192
197	0x3e17c36a	0.14820638
198	0xbdc72859	-0.097244926
199	0x3d9f9ddc	0.07793781
200	0x3d82ab2f	0.06380307
201	0xbe0e617f	-0.1390438
202	0x3e0c691a	0.13711968
203	0x3b91f925	0.004454749
204	0x3d787f5e	0.06066834
205	0x3c9c41a4	0.019074269
206	0xbcd4991c	-0.025951914
207	0x3e88dd11	0.2673116
208	0x3d4b43d0	0.049625218
209	0x3d887f1b	0.066648684
210	0x3cb5d79b	0.022197535
211	0xbdd34363	-0.10315587
212	0xbd4c2075	-0.04983564
213	0xbd12017d	-0.03564595
214	0x3dbd00cf	0.0922867
215	0xbd1aac0c	-0.037761733
216	0xbe1326f5	-0.1437033
217	0xbe205c7e	-0.15660283
218	0x3d56b6e7	0.052420523
219	0x3d8b505f	0.06802439
220	0xbda34292	-0.07971682
221	0xbd64fa02	-0.05590249
222	0xbd9c96dc	-0.07645962
223	0x3e0ca720	0.13735628
224	0xbe6c964e	-0.23104212
225	0x3d0bf052	0.034164734
226	0x3e122686	0.14272508
227	0x3e40b0bd	0.1881742
228	0xbe532a60	-0.20621634
229	0x3e3203ce	0.17384264
230	0x3c110a01	0.008852483
231	0x3e168e45	0.14702709
232	0xbd3571ab	-0.044297855
233	0x3d949a9e	0.072560534
234	0x3d9f1b19	0.0776884
235	0x3e0f01de	0.13965556
236	0xbd4ef84f	-0.050529774
237	0xbbcc2541	-0.006230027
238	0xbd9c4ca3	-0.07631805
239	0x3cdadd50	0.026716858
240	0xbdb856d3	-0.090009354
241	0xbd8e862e	-0.069591865
242	0xba36a88f	-0.0006967866
243	0xbd97b243	-0.074070476
244	0xbe584cb3	-0.21123008
245	0x3bc7d0a7	0.0060978713
246	0x3e027cb6	0.12742886
247	0xbdac209a	-0.08404656
248	0x3d3a3452	0.045460053
249	0xbe721a7a	-0.23642913
250	0xbe641a71	-0.22275712
251	0xbe391d74	-0.18077642
252	0x3c019cd5	0.007910927
253	0x3e2987d4	0.1655572
254	0x3cb1b87d	0.021694416
255	0x3d772e76	0.060347043

fc4.bias f4 [32]
0	0x3d8f6535	0.070017256
1	0xbe585d9b	-0.21129458
2	0x3ecd9cf6	0.40158814
3	0x3e54f8af	0.2079799
4	0x3ebb8725	0.36626545
5	0x3e4f4d4f	0.20244335
6	0x3e2f8766	0.17141494
7	0xbd1d8828	-0.038459927
8	0x3eb550ed	0.35413304
9	0x3ee1289c	0.43976295
10	0x3ea56667	0.3230469
11	0x3e937766	0.2880203
12	0x3cf2f83f	0.029659389
13	0x3c68caff	0.014208554
14	0xbd4197db	-0.04726396
15	0x3e954e46	0.2916128
16	0xbc0d8f8d	-0.008640182
17	0xbd483c3c	-0.04888557
18	0x3dffa130	0.12481916
19	0x3e16b528	0.14717543
20	0x3e7842dc	0.24244255
21	0xbe569451	-0.20955016
22	0x3e87c363	0.26516256
23	0x3dbcc174	0.09216586
24	0x3da7b73c	0.08189246
25	0x3c9bdcdb	0.01902621
26	0x3b5832b4	0.0032989206
27	0xbdfd6577	-0.123728685
28	0xbe82af9f	-0.25524613
29	0x3ed28b50	0.41121912
30	0x3e63da81	0.22251321
31	0x3e3ddfe5	0.1854244

fc5.weight f4 [1, 32]
0	0xbdbb0a48	-0.0913282
1	0xbdbf9389	-0.09354312
2	0x3e20699b	0.15665285
3	0xbde5364a	-0.111919954
4	0x3e44ef02	0.19231799
5	0x3e5aa4dd	0.21351953
6	0xbd97f132	-0.07419051
7	0x3c9d7b05	0.0192237
8	0x3e1937da	0.14962712
9	0x3e12d86a	0.14340368
10	0xbdca4007	-0.098754935
11	0xbdd53593	-0.10410609
12	0xbda573a2	-0.08078696
13	0x3cc24433	0.02371416
14	0xbbc728e4	-0.0060778726
15	0x3e3243e4	0.1740871
16	0xbd97d408	-0.074134886
17	0xbe26c160	-0.16284704
18	0x3dc0167e	0.0937929
19	0xbe01ed3c	-0.12688154
20	0xbdcdd003	-0.10049441
21	0x3c1f4749	0.009721586
22	0x3dc4e2c8	0.096135676
23	0xbe02a599	-0.12758483
24	0xbdcd8867	-0.10035782
25	0xbd28c6f6	-0.04120537
26	0x3d3be742	0.04587484
27	0xbc6be585	-0.014397983
28	0x3cb409f7	0.021977408
29	0x3e620156	0.22070822
30	0xbe07554d	-0.13216133
31	0xbdd498e7	-0.10380726
