scripts/built_models/torch_ou.pth (torch, 693587 bytes, 9 tensors)

fc1.weight f4 [256, 504]
000000 f9 90 ab 3d 3b e9 2e 3c 5c bf 44 bd 92 8e 2c bd
       0.08377261 0.010675724 -0.048034057 -0.042128153
000010 78 a4 88 3c 61 ec aa bd a5 e3 8d 3d 2d 34 2e 3d
       0.016679987 -0.08345867 0.069281854 0.042530227
000020 b2 c0 a1 3d 8c 3f 75 3d 96 5a df 3c 3c 12 66 bc
       0.07898082 0.059875056 0.027264874 -0.014042433
000030 32 b0 63 bd 5c 10 26 3d 34 95 74 3d b5 cb 95 bd
       -0.055587955 0.040542945 0.059712604 -0.07314245
000040 7a e2 34 bd 8d 97 99 3d 2a 9b f8 bc 36 7d 94 3d
       -0.044161297 0.07499609 -0.030347425 0.072504446
000050 9c 7c 74 bc 57 9e 75 3d 50 44 a6 bb c2 58 a2 3d
       -0.014922287 0.059965458 -0.0050740615 0.079270855
000060 e9 dd 37 3d 1f 4e 59 bd 7f af 87 bc 54 28 c5 bb
       0.044889364 -0.053053018 -0.016563175 -0.0060167704
000070 d2 57 a7 3b ef 2a f3 3c ce 4a 0d 3d 6b 63 29 3b
       0.0051069045 0.029683558 0.034495167 0.0025846611
000080 9d bd 71 bb 78 2a 9e bd b4 d3 fa 3d 23 5e 43 3d
       -0.00368867 -0.07722944 0.122474104 0.047697198
000090 c3 ae b1 3d a0 34 8d 3d 40 8d ec bc 04 ce 90 3a
       0.08675911 0.06894803 -0.028875947 0.0011047726
0000a0 ca c0 71 3d ba 91 97 3c 64 36 4a ba b5 0d d1 bc
       0.05902175 0.018502105 -0.00077137933 -0.025519231
0000b0 3e 98 ac bc de 68 c8 bd 4d 2b c7 bd ef 3c 32 3c
       -0.021068688 -0.09785627 -0.09725056 0.0108787855
0000c0 c9 79 71 bc 26 fa 2d bd 04 32 1a bd 79 bb ae 3d
       -0.0147385085 -0.04247489 -0.037645355 0.08531851
0000d0 8f 55 3d bd 5c 8b 35 bd 72 bc 03 3e e7 34 db bd
       -0.046224173 -0.044322357 0.12864855 -0.1070345
0000e0 1d a0 74 3d 05 e9 98 bc c6 e7 93 3d ad 37 64 3c
       0.05972301 -0.0186658 0.07221942 0.01392929
0000f0 08 09 55 3d d8 7d a1 3c 69 bb 04 3d a9 38 09 bd
       0.052010566 0.019713327 0.03240529 -0.0335013
000100 53 32 38 bd 5c f0 e6 bc f2 91 33 3d d1 bb 19 bd
       -0.044969868 -0.028190784 0.043840356 -0.03753263
000110 b6 3a ae 3d 75 ac 92 3c 1d 0f 69 3d 9c fd a7 3d
       0.08507292 0.0179045 0.05689918 0.08202669
000120 a9 78 09 bc cb a8 c1 bc 2b e5 da 3c c8 04 d7 bc
       -0.008390584 -0.023640057 0.026720604 -0.026247397
000130 fd 28 dd bc f2 3b a5 bc 5d 66 6c bd 16 b8 84 bd
       -0.026997084 -0.020170186 -0.05771481 -0.06480424
000140 3b b4 4c bd 35 30 c5 3c 23 20 00 3d 5a 56 51 bc
       -0.04997657 0.024070838 0.031280648 -0.0127769355
000150 bd 38 8c bd 32 b4 d1 3d e4 7c 8c 3b ab 04 8f bd
       -0.068467595 0.10239448 0.004287349 -0.06983312
000160 50 c2 c2 3b af 74 93 bd d4 5a 00 be e5 15 53 3d
       0.005943574 -0.0719999 -0.12534648 0.051534552
000170 cd 47 28 bd 20 24 6d 3d 68 7b 88 bd b6 f4 f7 bd
       -0.0410841 0.05789578 -0.06664163 -0.12107222
000180 c1 48 f6 bc 53 de ef bd 46 b8 87 3d c0 0b 06 3c
       -0.030063989 -0.11712327 0.06626944 0.008181512
000190 57 73 3c bd 98 4e 9f 3d 2e 5e 2a bd 31 a8 6e 3d
       -0.046008434 0.077786624 -0.041593723 0.05826587
0001a0 29 77 9f 3c 12 17 45 bd 43 e7 80 bd a6 05 af bd
       0.019466 -0.048117705 -0.0629411 -0.08545999
0001b0 f8 e3 00 bd 2f cc 8c 3c 4c 5a c3 bd 85 da 15 3d
       -0.031467408 0.017187206 -0.09538707 0.03658535
0001c0 1f 50 d8 3b c7 8b 0f 3d 81 d3 39 bc 03 09 dd 3c
       0.006601348 0.03504541 -0.01134193 0.026981836
0001d0 b1 60 b3 3d b3 ee 9b bd 91 2f dc 3d e5 6d 12 bd
       0.08758677 -0.07613888 0.1075126 -0.035749335
0001e0 6b 07 e7 3d ba 6d b4 3d ba 10 06 3c 87 14 95 bc
       0.11280712 0.08809991 0.008182699 -0.018198265
0001f0 65 3d 34 3b 48 90 d5 bc e2 ef 07 bd 89 9a cf bc
       0.0027502414 -0.026069775 -0.033187754 -0.025342243
000200 36 3a 98 3d 0f 66 dc bd 66 5e a6 3d 64 ef 2b 3d
       0.07432978 -0.10761654 0.08123474 0.041976348
000210 28 c9 af 3c e2 24 9c 3d b5 3b 02 bc 18 59 12 3d
       0.021458223 0.07624222 -0.007948806 0.035729498
000220 ee b7 e2 3b 3b f7 84 3a f1 3c 0e 3d b1 73 eb 3b
       0.006918899 0.0010144481 0.034726087 0.0071854223
000230 7b 99 6d bd 10 6c 73 3d a8 e2 35 bd 6c b0 9b 3c
       -0.0580077 0.05942923 -0.04440561 0.019005023
000240 45 7e c9 3a 70 ec ad bc 1a 5f 0e 3d 52 3b d2 bc
       0.0015372714 -0.021230906 0.034758665 -0.025663052
000250 e8 8e 3b 3d 94 1e 99 3d e4 05 20 3c a3 b7 96 3c
       0.045790583 0.074765354 0.009767029 0.018398112
000260 ed d5 5f 3c 36 c4 33 bd f9 e2 3b bd fb c0 95 3d
       0.013661844 -0.043888293 -0.045870755 0.07312199
000270 32 0f 79 bd 11 09 23 bd c3 fd 64 3c 38 f8 fb 39
       -0.060805507 -0.03980357 0.013976517 0.00048059388
000280 d7 ae 4e 3c 34 5b 4c 3d c4 de d5 3c 2f 15 8a 3b
       0.012614927 0.049891666 0.0261072 0.004213951
000290 b3 6c 9f bd 66 3b c4 3d 91 7d 17 3d bb 1d 09 3e
       -0.077844046 0.09581642 0.036984984 0.13390248
0002a0 25 49 bd bc 81 2e 23 bc 04 73 c7 3d e7 0e 0a bd
       -0.023106167 -0.009959818 0.09738734 -0.03370562
0002b0 7c c6 46 3c d1 04 02 bd 4d a4 9f bb 89 3a 5e bd
       0.012132283 -0.031742875 -0.004871881 -0.054255042
0002c0 04 7c f1 3c 92 47 fd bc 0d cb 6a bb cc 9e 13 bd
       0.02947808 -0.030917916 -0.0035826594 -0.036040112
0002d0 42 65 8e 3d 79 4a 8d bd 2b 69 03 3e 4c b6 dc 3d
       0.06952907 -0.0689897 0.12833087 0.10776958
0002e0 d4 f7 1d 3c c1 ef 32 bc 19 bc 21 3d 8f 7c b3 38
       0.009641606 -0.01092142 0.039486025 8.558586e-05
0002f0 74 ae a3 bc 8a ee 21 3d 4d 8e 29 3d c0 cc f9 bd
       -0.019980647 0.03953413 0.041395474 -0.12197256
000300 e4 06 16 3e 7e ce c5 3c 0e 42 a2 3c c8 22 b2 3d
       0.14651066 0.024146315 0.019806888 0.0869804
000310 10 fc 09 3d a9 e8 01 bb b9 56 8e bc e9 36 3d 3d
       0.03368765 -0.0019822514 -0.017375337 0.046194945
000320 f5 e7 0e 3d 5f c4 dc 3c 66 4f a5 3c f9 81 84 3d
       0.03488918 0.026949106 0.020179462 0.06470103
000330 18 ef 34 bd 39 ed ec 3c dd 37 54 3c 42 6b 5b 3d
       -0.04417333 0.02892171 0.012952772 0.053569086
000340 5f 74 bb bc ef 66 5f bb fb 23 60 3d b5 d8 dd 3c
       -0.022882638 -0.0034088453 0.054721814 0.027080873
000350 6e f2 3d 3c 77 fe 52 bd 31 5f 1d 3c 16 84 5b bd
       0.011593444 -0.051512208 0.009605215 -0.053592764
000360 14 da a6 bd 34 95 dd 3d 43 c3 9b bd 5b a6 d5 bc
       -0.08147064 0.10819474 -0.076056026 -0.026080301
000370 61 3c b2 3c c1 8d 0a bd 90 84 70 3d cf a9 1c 3c
       0.021757307 -0.033826593 0.05872017 0.00956197
000380 b7 14 1a 38 69 4b fe bc d5 69 ef bd 42 35 f5 3d
       3.6735753e-05 -0.031041818 -0.11690108 0.11973049
000390 63 50 51 3d 2c f6 c9 3d fd eb 1e bb d8 ec 0d bd
       0.051102053 0.09861407 -0.0024249547 -0.0346497
0003a0 ac 96 94 3d ce 3a e5 bc ca 7f a8 bb df 37 04 3d
       0.07255301 -0.027982142 -0.005142187 0.032279845
0003b0 cd 8f 98 3d f2 16 0e 3d db 23 29 3d a0 7a a9 3c
       0.07449303 0.03468985 0.04129396 0.020688355
0003c0 b4 77 c0 3d c6 a0 e7 bb e6 56 52 3d 58 39 0b bd
       0.093978316 -0.0070687262 0.051352404 -0.033990234
0003d0 ff 33 c0 3d d9 46 c8 3d 55 1a 55 3c 18 a0 bd 3c
       0.093849175 0.09779138 0.013006766 0.023147628
0003e0 f0 f0 f4 bb 05 cc 02 be 5d 0d c9 3a 28 f4 16 bd
       -0.007475011 -0.1277314 0.0015339066 -0.03685394
0003f0 e4 8a 6e bd 14 50 ee 3c a6 e2 a1 3d 04 82 83 3b
       -0.058237925 0.029090919 0.07904558 0.004013302

fc1.bias f4 [256]
000000 b5 6d 4c be 7e 13 b8 bd 08 8d 27 be fb ad 56 be
       -0.19963725 -0.08988093 -0.16362393 -0.20964806
000010 8a 43 00 be db 4d 90 be cf 72 31 3c 9f b3 d2 bd
       -0.12525764 -0.281844 0.010830595 -0.10288166
000020 c1 40 f3 bd 08 99 22 be 12 e5 e2 bd 2a 88 cd bd
       -0.11877585 -0.1587869 -0.11078848 -0.10035737
000030 6e 96 30 be d2 3b 9a bd 26 d2 1c be df 8d 15 be
       -0.17244884 -0.07530941 -0.1531454 -0.14604901
000040 47 9a 99 bd 80 a7 76 3c 74 f8 db bd b0 0c a6 bd
       -0.07500129 0.015054584 -0.10740748 -0.08107889
000050 fa 6b 08 be 10 14 a8 bd 10 d2 41 be 2e 1b 17 be
       -0.1332244 -0.082069516 -0.18927789 -0.14756462
000060 70 9e 28 be 06 a6 17 be a1 06 0b be c1 68 ac bd
       -0.16466689 -0.14809427 -0.13576747 -0.08418418
000070 eb 11 77 be 2e 4c 4e be f3 e9 1d be 3f 18 6c be
       -0.24127929 -0.20146248 -0.15421276 -0.23056124
000080 c0 e6 c7 bd bf ad 07 be ae 13 fa bd 46 3e 03 be
       -0.09760809 -0.13249873 -0.12210785 -0.12816724
000090 b8 09 bc bd d9 38 b5 bd 30 9d d3 bd 04 24 a7 bd
       -0.09181541 -0.088487335 -0.103327155 -0.08161166
0000a0 79 a8 b1 bd 9f 9e 3d bd fa 28 22 3d fc b2 31 be
       -0.08674712 -0.04629385 0.03958986 -0.17353433
0000b0 8e da 48 be f5 6c 16 be 6b 39 61 be 4d b9 4d bd
       -0.19614622 -0.14690001 -0.2199456 -0.050225545
0000c0 24 b4 c6 bd 89 62 74 be 65 68 ed bd be 4b 2e bd
       -0.09702328 -0.23865713 -0.11592177 -0.042552702
0000d0 85 4c c3 bd 6d 43 44 be ab a8 b8 bd 14 99 a4 bd
       -0.09536079 -0.19166346 -0.09016546 -0.0803701
0000e0 8f 59 0f be ba c7 06 be 1d 84 1f bd 79 22 17 be
       -0.13999008 -0.13162127 -0.038944352 -0.14759244
0000f0 a7 2f 3c be 9d c7 8d bb 70 2c 12 3d fd 32 17 be
       -0.18377553 -0.0043267743 0.03568691 -0.14765544
000100 07 e9 90 bd 6a ab c1 bd 8d 3d 1f be 6d f4 9e bc
       -0.070756964 -0.09456523 -0.15550824 -0.01940366
000110 39 af 05 be 73 6f 03 be 2b 83 75 bd c5 1d ae bd
       -0.13055123 -0.12835483 -0.059939545 -0.08501772
000120 99 0e 15 be d0 6e 75 be ca 85 cb bd 27 83 32 be
       -0.1455635 -0.23968053 -0.099376276 -0.17432843
000130 72 f1 ba 3d c6 12 4b be 9a c3 88 bd a2 ba 13 be
       0.09128083 -0.1983138 -0.06677933 -0.14426664
000140 a7 18 8a bd 2b a9 3e be d0 2f 83 bd 28 80 0c be
       -0.06742983 -0.1861922 -0.06405604 -0.13720763
000150 a4 1f 55 be d5 5d 55 be 8a 1e 1b be 27 ca 8f bd
       -0.20812851 -0.20836575 -0.15148368 -0.070209794
000160 03 f2 01 be 41 05 45 bd 12 33 88 bd 13 fe 0f be
       -0.12689976 -0.048100714 -0.06650366 -0.14061765
000170 c4 ae 7e be 75 d8 fe bd 69 d1 b0 bd 3b 2e 26 be
       -0.24871355 -0.1244363 -0.08633692 -0.16228573
000180 10 9a 29 be f7 4b d5 bc a4 73 5c be ea 17 0c be
       -0.16562676 -0.0260372 -0.21528488 -0.13680997
000190 90 a0 01 be 8d 12 0a be ca bf 02 be 37 5f ed bd
       -0.12658906 -0.13483639 -0.12768474 -0.115904264
0001a0 75 e4 08 be 9e a2 c9 bd 83 75 09 be 77 db 94 bd
       -0.133684 -0.0984547 -0.13423733 -0.07268422
0001b0 8e d7 4e 3c 82 1e 67 bd 85 90 24 be b8 c7 4a be
       0.012624634 -0.05642558 -0.16070755 -0.19802749
0001c0 99 c4 49 be 85 b8 ab bd b4 ce dc bd d3 8d b5 bd
       -0.19703902 -0.08384804 -0.10781613 -0.088649414
0001d0 44 3b 16 be c4 6d 02 bd 73 05 a5 bd a0 6c e3 bd
       -0.14671046 -0.031842962 -0.0805768 -0.11104703
0001e0 77 70 1a bd 96 69 21 be 68 11 02 be e7 2f ba bd
       -0.03770491 -0.15762934 -0.12701952 -0.09091168
0001f0 30 8f dc bd 70 61 18 be 07 6c b7 bc 53 20 fb bd
       -0.10769498 -0.1488092 -0.022390379 -0.12262025
000200 d7 39 14 be 55 18 4e bd 72 1c 12 be c0 9d a2 bd
       -0.14475189 -0.050316174 -0.14268664 -0.07940245
000210 69 e8 66 be 61 43 3d be 16 e0 2e be 92 32 27 be
       -0.22549595 -0.18482734 -0.1707767 -0.16327885
000220 73 e9 22 be 2d ec 17 be 87 3b 82 bd 14 ad 0f be
       -0.15909366 -0.14836188 -0.0635901 -0.14030868
000230 d5 db a6 3c 6d de 17 be ab 30 6c 3d c8 ad b0 bd
       0.020368496 -0.14830942 0.0576636 -0.08626896
000240 b5 bc 3a be dd 29 75 bd 8f b7 fc bc 3a 52 d4 bd
       -0.18236049 -0.059854377 -0.030849246 -0.10367246
000250 f1 2f d5 bd 4d 66 d8 bd 43 5f ea bd 6a 47 23 be
       -0.10409535 -0.10566387 -0.11443951 -0.15945211
000260 f3 28 e1 bd 84 04 ef bd 8f 8f fe bd 77 24 3e bc
       -0.109941386 -0.11670783 -0.124297254 -0.011605374
000270 b6 2d 56 be 7f 99 31 be 94 35 0a be c1 31 82 bd
       -0.20915875 -0.1734371 -0.13497001 -0.06357146
000280 1f cc e6 bd 55 73 40 be 36 59 73 be 8f af 9b 3c
       -0.11269402 -0.18793996 -0.237645 0.019004611
000290 36 20 09 be 42 64 9c bd 5c dd 05 be 37 ec 87 bd
       -0.13391194 -0.0763631 -0.13072723 -0.06636851
0002a0 be ab 67 bd 44 2d 24 be a6 60 89 bd ac 17 1c be
       -0.05656027 -0.16032892 -0.06707887 -0.15243405
0002b0 22 ad 91 bc 99 5b d8 bc 5b f2 d3 bd 3e e2 ca bd
       -0.017782751 -0.026410865 -0.1034896 -0.099064335
0002c0 f2 3a 0e be f7 6b 52 be 32 86 a4 bd 60 a9 ba bd
       -0.13889673 -0.20548998 -0.08033408 -0.09114337
0002d0 9b d0 65 be 2b 8d 8b be 9d 21 d7 bd 8c 8a 8a bd
       -0.22442858 -0.2725614 -0.10504458 -0.06764707
0002e0 8f 41 70 bd 2a 50 8b bd ad b0 36 be ec e9 74 bd
       -0.05865627 -0.068023995 -0.17840834 -0.059793398
0002f0 49 8f db bd 7f 0b 31 bd 5d d3 44 be 5b 81 2d 3b
       -0.10720689 -0.043223854 -0.19221254 0.0026474807
000300 90 89 98 bd 7e ea d7 bd dc ef 37 be 0a 43 4e be
       -0.07448113 -0.10542773 -0.17962593 -0.20142761
000310 41 6a c3 bd 81 96 6e bd 46 67 14 be d7 ff 1e be
       -0.09541751 -0.058249 -0.1449252 -0.15527283
000320 86 79 f7 bc 32 69 9a bd 54 7e ed bd 67 a7 9b bd
       -0.030209314 -0.07539596 -0.11596361 -0.07600289
000330 5d 71 4d bd 53 e8 1c be b3 3c b0 bd 74 c4 01 be
       -0.05015694 -0.15323 -0.086053275 -0.12672597
000340 b8 54 c1 bd d5 0d f2 bc ce 57 3a bd 13 91 1c be
       -0.09439987 -0.029547611 -0.045493893 -0.15289716
000350 bf 08 a6 bc 05 db 01 be 63 df 40 be 67 59 e9 bd
       -0.020267842 -0.12681206 -0.18835215 -0.11394005
000360 7f 23 e1 bc 43 07 90 bd 45 cc 39 be 11 71 b6 ba
       -0.027482746 -0.07032635 -0.18144329 -0.0013919194
000370 cf bd 7d be aa c5 98 bd 82 ba 31 3d a7 3e 51 be
       -0.24779437 -0.074595764 0.04339076 -0.20434056
000380 55 b6 e4 bd 2e e9 27 be 8a e4 06 be 11 f9 cf bd
       -0.111675896 -0.16397545 -0.13173118 -0.101549275
000390 b6 0f df 39 09 0e 18 be 2c 57 28 be 7e 8d 4d bd
       0.0004254558 -0.14849104 -0.16439503 -0.050183766
0003a0 49 97 13 be c7 a3 4f be 11 ed 1a be 50 37 5f be
       -0.1441318 -0.2027732 -0.15129496 -0.21798444
0003b0 a2 2a d0 bd fe 71 52 be 10 ae 03 be af 7b 14 be
       -0.101643816 -0.20551297 -0.12859368 -0.14500307
0003c0 8e 70 9f bd 2d 07 85 be 07 4e 35 be 5b cc 3e be
       -0.0778514 -0.25982037 -0.17705546 -0.18632643
0003d0 81 f1 3c bd 89 76 80 bd 2d 94 2c bd 87 0e d9 bd
       -0.046128754 -0.06272609 -0.0421335 -0.10598474
0003e0 bc b9 33 be 8e 64 b9 3d f0 7e 0a be d9 44 d9 bd
       -0.17551321 0.090523824 -0.13524985 -0.10608835
0003f0 db e4 01 be a0 f7 fe bd a8 ec 21 be 99 a6 54 be
       -0.12684958 -0.124495745 -0.15812933 -0.20766677

fc2.weight f4 [128, 256]
000000 b6 f3 1e bd 4d 86 1b 3d c7 9b 7f bd da d6 d9 bc
       -0.03880664 0.037969876 -0.06240442 -0.026591707
000010 3d 25 02 3d 22 83 a2 3c 9f df 24 bd cb 6b 65 bc
       0.031773794 0.01983792 -0.040252324 -0.014002751
000020 09 d4 58 bd 2b 0e 3c bc 2b 09 39 bd db 0c 0d bd
       -0.052936587 -0.011477987 -0.04517476 -0.034436088
000030 ef b8 b0 3c b5 3d 13 3d 64 66 37 bd 12 4e 1f bd
       0.021572558 0.03594752 -0.04477538 -0.038892813
000040 b4 48 6c bd 3e f5 f7 3c ac ae 4e 3c f9 f3 93 3c
       -0.057686523 0.030268308 0.012614887 0.018060671
000050 5c b1 7c bc b1 97 f3 bc 45 46 87 bd 65 f8 96 bc
       -0.015423145 -0.029735418 -0.066052 -0.01842899
000060 43 1f 59 bc ea 46 14 3d 88 58 a4 3b 93 b7 8f 3c
       -0.013252082 0.03620044 0.0050154366 0.01754359
000070 94 58 74 bd 75 27 19 3d 47 a9 52 3d 95 67 ac bd
       -0.059654787 0.037391145 0.051430967 -0.08418194
000080 b6 d4 3e bc ef 97 83 bd 9c 9c 08 bd a1 9c 5b bd
       -0.011647394 -0.064254634 -0.03335248 -0.05361617
000090 ca 71 b1 3c fd a7 c1 bc 65 3e 91 3c d0 2b 99 bd
       0.021660704 -0.023639673 0.017729947 -0.0747906
0000a0 db 93 41 bd 47 c4 a1 3b 64 af 2b bd 27 8c 78 bd
       -0.047260147 0.004936728 -0.041915312 -0.060680535
0000b0 e8 b5 2b 3d a4 c4 1f bd 62 75 f6 bc 3b 87 7d bd
       0.041921526 -0.03900589 -0.03008527 -0.061896544
0000c0 87 93 de 3c 5a 70 97 3c ac 51 d4 bc 0a 97 43 3d
       0.027169956 0.01848619 -0.02591785 0.047751464
0000d0 2d 59 95 3c ee 54 18 3d cf 99 49 bc 96 7f 16 bd
       0.018230999 0.03719037 -0.012304737 -0.03674277
0000e0 26 13 84 bd 91 ce 9c bd 9b 5b 01 3d fd e3 b1 3b
       -0.06448965 -0.07656587 0.031581502 0.0054287896
0000f0 0a 88 7a bc 47 4b c6 3c ab cc be bc f8 58 8e bc
       -0.015291223 0.024205817 -0.023290953 -0.017376408
000100 28 ff 78 bc d2 91 da 3b 7a 3e 85 bd 9f c3 ba bb
       -0.015197553 0.006670215 -0.06506057 -0.0056995894
000110 19 9f a8 3c 71 75 b8 bc 2e ce 24 bb eb f5 93 bd
       0.020583676 -0.022516938 -0.0025147307 -0.072246395
000120 27 b3 f3 bc 90 98 96 bc 44 4d 6d bd e2 f5 b8 bd
       -0.029748512 -0.018383294 -0.057935014 -0.090312734
000130 45 b4 c2 bc 8e 0b 47 bd 41 4e 8e bd 4a 92 86 bc
       -0.0237676 -0.048595004 -0.069485195 -0.016427178
000140 86 61 87 bd 78 8b bf b9 96 d4 df bc 51 c6 93 bd
       -0.06610398 -0.0003653427 -0.027323049 -0.0721556
000150 7b 2f 7d bd 5a 20 b5 3c 1b 07 b2 3c a9 be 67 bd
       -0.06181286 0.022110153 0.021731904 -0.056578312
000160 df fc 1c bd 59 8c 2b bd df 1c 5d bd 6d 49 9c bd
       -0.038327094 -0.041881893 -0.05398261 -0.07631192
000170 2e 23 07 bd 29 c8 39 bd d6 4a 8a bd e0 2d 88 bc
       -0.032992534 -0.045356903 -0.06752555 -0.016623437
000180 00 55 5b 3b f7 c6 44 bc 51 31 6e bd 72 24 05 3c
       0.0033467412 -0.012010328 -0.0581525 0.008126365
000190 ef 88 17 3d 4a 9e ab bb 26 ef 46 3c 05 f0 13 3c
       0.036995824 -0.0052373754 0.012141978 0.009029393
0001a0 a2 c4 d1 3c d1 f1 08 3d 8e fe 69 3c 1c d8 7d bb
       0.025606457 0.03343374 0.014281882 -0.0038733548
0001b0 85 74 0f bd b4 20 d0 3c 87 fe 37 3d 5d 08 ab bd
       -0.03502323 0.025406219 0.04492047 -0.083512045
0001c0 91 b3 47 3c f4 4a 09 3d bd 74 85 bd 46 3e 25 3d
       0.012188808 0.033518746 -0.06516407 0.04034259
0001d0 e2 d5 88 bd fc 13 84 3c 99 cb d1 bc e7 41 31 3c
       -0.0668142 0.01612281 -0.025609778 0.010818935
0001e0 be 8f da bc 10 33 fb 3b 5e 5a b4 3c a4 37 85 3c
       -0.02667987 0.0076659992 0.022015747 0.016261883
0001f0 54 3f 24 3d 8f df a8 bc e6 85 04 bd 5e 6b 07 3c
       0.040099457 -0.020614414 -0.032354258 0.008265344
000200 a5 c8 43 3c db 27 10 bd 11 d1 14 3a 7e 6c 95 bb
       0.011949693 -0.03519426 0.0005676905 -0.0045600524
000210 4b aa 26 3d 66 1a 28 bd c2 69 c8 bc b8 2a 9f b9
       0.040689748 -0.0410408 -0.024464492 -0.0003035867
000220 35 a1 af bc 66 6b 04 bd 87 8d 72 bd c5 b3 c5 3c
       -0.021439174 -0.032328986 -0.059217002 0.024133572
000230 c9 4b 55 bc 5c 6b 61 bb bb cc a2 bb f5 00 a5 b9
       -0.013018557 -0.0034396267 -0.0049682534 -0.00031471965
000240 f0 78 58 3c 23 a9 32 3d fb 0d e8 bb dd 24 93 bd
       0.0132124275 0.043618333 -0.0070817447 -0.071847655
000250 06 3e 98 3c ca bb 63 3c 76 2b 63 bd e2 d7 a5 3c
       0.018584263 0.013899753 -0.05546137 0.020244543
000260 53 07 4a bd f0 3c e4 bc d2 82 ab 3c 7b ff 2a bd
       -0.04932339 -0.027861089 0.020936403 -0.04174755
000270 88 56 0b 3d 21 0d 8f bc e6 65 14 3d 0d 22 5b 3c
       0.03401807 -0.017462315 0.03622999 0.013374818
000280 e4 41 1a bd 24 ab 9a bc dd 02 2d 3d cc 28 e2 bc
       -0.037660494 -0.018880434 0.04223906 -0.027607344
000290 92 5e fa bc 90 cb 83 3c ed 02 41 bd 69 21 0c bc
       -0.030562673 0.016088277 -0.04712193 -0.0085528875
0002a0 79 0e 81 bd b5 ec 3a bb 97 20 88 bd fd 56 8e bc
       -0.063015886 -0.0028522436 -0.06646841 -0.017375464
0002b0 d0 b9 b0 ba 2c 0d 2b bd 79 cd 5a bd ff 94 2f bd
       -0.0013483111 -0.04176061 -0.05341861 -0.042866703
0002c0 f9 fa 81 3b c7 28 0d 3d ef 58 1a bb 03 26 63 bc
       0.003966686 0.034462716 -0.0023551544 -0.013864043
0002d0 08 bb 69 3c 73 e3 63 b9 29 09 7f 3c 21 bd 21 bd
       0.014265783 -0.00021733138 0.015566149 -0.039487008
0002e0 c1 36 5e bd 1c a6 5c 3c 26 2f d6 3c db db 39 bc
       -0.054251436 0.013467338 0.026145529 -0.011343922
0002f0 ee 80 e2 3b 48 29 91 bd c9 30 af 3c fa 64 6d bd
       0.0069123423 -0.07087952 0.021385567 -0.057957627
000300 a2 e7 43 bd 24 8c d9 3b 82 aa 28 bd 1f 98 64 bc
       -0.047828324 0.0066390205 -0.041178234 -0.013952284
000310 ab d3 48 3c 0d 8f 77 bd 80 9b 88 bb aa 4e 37 bc
       0.012257497 -0.06043916 -0.0041689277 -0.011188189
000320 2f 72 36 3d 48 dc 59 3c b4 a4 69 bc 13 d0 1c 3d
       0.044542488 0.013297148 -0.01426046 0.038284373
000330 e1 5d fe 3c fc b2 35 3d 41 d4 31 3c 61 ee 7b bd
       0.031050624 0.044360146 0.010853828 -0.061506633
000340 64 a6 d4 bc 71 fa 80 bd 1a a8 3c bc a5 ef ff 39
       -0.025958247 -0.06297768 -0.011514688 0.0004881594
000350 0f d6 1c 3c fb db 05 bd ec 24 57 3b 2b 94 83 bb
       0.00957252 -0.032680493 0.0032828404 -0.0040154657
000360 a1 d2 38 bd ef 18 eb ba 51 f6 16 3d 8b 13 b7 bc
       -0.045122746 -0.0017936508 0.036856 -0.022348186
000370 4f a4 79 3d c2 3a 72 bd 45 d5 38 bd e0 e4 80 bd
       0.060947713 -0.059138067 -0.045125265 -0.062936544
000380 a4 6d 01 bd 92 48 97 3c c6 cd b3 bc ca e7 55 3c
       -0.031598702 0.018467221 -0.021948706 0.013055751
000390 31 3d 60 bd 23 6a 0a 3b bf da eb 3c 8e 13 13 3c
       -0.054745857 0.0021120391 0.02879083 0.00897683
0003a0 0f bd 29 3b 4c db 83 ba 78 1b 93 bc cf d8 74 3c
       0.0025900041 -0.0010059862 -0.017957434 0.014944269
0003b0 b4 c5 25 bd 57 af 56 bd cf a3 98 bc 59 c8 02 bc
       -0.040471748 -0.05241331 -0.018632798 -0.007982337
0003c0 6a 2b 84 bd 00 ef b9 bb d2 e5 2a bd 15 02 b1 bd
       -0.06453593 -0.005674243 -0.04172308 -0.08642975
0003d0 ec 23 12 bd 38 a9 5c bb d9 ef 96 bd 86 45 d7 3c
       -0.03567879 -0.0033670198 -0.07369966 0.026278269
0003e0 df 14 38 3d b2 70 8d bd 9f 01 11 3d f2 6e c5 bb
       0.04494178 -0.069062606 0.035401937 -0.0060251886
0003f0 6b 1f 14 3c 2a c1 f6 3a b9 a4 89 bd 7f 7e 33 bb
       0.009040694 0.0018825878 -0.067208715 -0.002738863

fc2.bias f4 [128]
000000 c2 75 f0 3b a0 85 e2 bc 8e e7 88 bc 5b 0c bc 3b
       0.0073382566 -0.027651608 -0.016711976 0.0057387776
000010 bd f1 2e 3d f9 db ad bd 27 60 ce bb fd 30 78 bd
       0.04271101 -0.08489222 -0.0062980833 -0.060593594
000020 b5 a5 8d 3c 23 9d 37 3c e0 8f d1 bc c7 77 11 bd
       0.01729093 0.011206898 -0.0255813 -0.03551462
000030 6b a9 b5 bc 18 e3 b5 3c 57 fd 16 bd aa be 99 bd
       -0.022175511 0.022203013 -0.036862697 -0.075070694
000040 57 d7 0f bc e2 a4 03 3b 27 14 99 3d ce 4f f6 bc
       -0.008779368 0.0020087291 0.07474547 -0.03006735
000050 1b 19 e7 3c 02 4a b9 bd a2 aa 7a bd 8f 9c 9d bd
       0.028210213 -0.09047319 -0.061197884 -0.07695877
000060 25 10 60 bd 72 86 a2 3c bb 57 9b bd b1 f6 4f bd
       -0.054702897 0.0198395 -0.07585093 -0.050772373
000070 d2 b0 2a bb f1 11 11 bd cb cb af bd f7 59 49 3c
       -0.0026045335 -0.0354175 -0.08583792 0.012289516
000080 06 dd 43 3c 9d b4 a0 3c 9a 6c 7d bd 0a c0 e8 bc
       0.011954552 0.019617373 -0.06187115 -0.028411884
000090 8e d2 0f bd 2e 6d 23 3d 5d ce e8 3c 65 04 21 bd
       -0.03511291 0.039899044 0.028418714 -0.03931083
0000a0 96 43 08 3d c2 89 9e bd 16 d3 7a bd 30 d6 10 bd
       0.03326758 -0.07741119 -0.061236463 -0.035360515
0000b0 b9 27 80 bc 30 24 80 bd 74 68 62 bd 3a 45 84 bd
       -0.015643941 -0.06256902 -0.055275396 -0.064585164
0000c0 eb c8 33 bd f5 09 a1 bd 77 65 80 3c 94 d9 a3 bd
       -0.043892782 -0.07863227 0.015673382 -0.08000484
0000d0 d4 b4 fc 3c a6 1c 16 3d 9f 40 2e bb 3f 52 0a bd
       0.030847944 0.036648415 -0.002658881 -0.033769842
0000e0 a4 61 de bc 54 00 46 bc 7a b3 a2 bc b6 c5 6b bd
       -0.027146168 -0.012085039 -0.019860972 -0.0575616
0000f0 9d cd 4f bb dd cf f5 3c 9e 02 9a 3c 5e 0c ec 3b
       -0.0031708248 0.030006343 0.018800076 0.0072036227
000100 1a 80 22 3c 78 82 7b bd 72 7f 18 bd 1c b2 96 3c
       0.009918237 -0.06140372 -0.037230916 0.018395476
000110 00 4f 1e bd 24 de fe 3c b3 72 94 3c e2 ef ac 3b
       -0.03864956 0.031111784 0.0181211 0.0052776197
000120 db cd 2d 3c f6 35 95 3d 32 e1 c7 bb 3d 54 8a 3b
       0.010608162 0.07285683 -0.0060998434 0.0042214678
000130 b0 7e 4e bd fa 65 7c bc e7 d8 d9 bc 7a 06 52 bc
       -0.050413787 -0.0154051725 -0.026592685 -0.012818927
000140 0d 00 38 3d 32 63 4b bd 03 51 d3 ba 24 49 b7 bc
       0.044921923 -0.049655147 -0.0016122166 -0.022373743
000150 0f 74 43 bc 19 40 a2 3b e6 ad a2 bc cc 13 74 bd
       -0.011929526 0.0049514887 -0.019858312 -0.059589192
000160 df f7 9c bd 14 30 2b bd be 02 4d bc 03 d3 8f bd
       -0.07664465 -0.041793898 -0.012512861 -0.07022669
000170 a3 39 8e bd 06 ad 93 bd b8 46 0b bb 66 9e ca bc
       -0.06944587 -0.07210736 -0.0021251868 -0.024733733
000180 c6 de 0d 3c 45 95 15 3c e9 8e b5 bd 3a 7a dc bc
       0.00865907 0.009129827 -0.088651486 -0.02691375
000190 d0 5d 24 3d 90 29 9a bd b7 48 59 bd 70 ed f2 bd
       0.04012853 -0.07527459 -0.053047862 -0.11861694
0001a0 8a 2c 60 bd c4 e2 8c 3c d8 1f e0 bc 94 b6 c3 bc
       -0.054729976 0.017197974 -0.027358934 -0.023890771
0001b0 be f0 24 bd 4c 7b 5c bc 09 85 eb bc a8 ed 34 bd
       -0.040268652 -0.013457131 -0.02874996 -0.04417196
0001c0 d9 a9 c4 bc 51 0f 11 3d 7c 5c 74 bd 0b f6 86 bb
       -0.02400677 0.035414997 -0.059658512 -0.004118686
0001d0 10 84 ae bc e6 2b af bd 69 ed 4e bc e2 a0 99 bd
       -0.021303207 -0.08553295 -0.012629845 -0.07501389
0001e0 d2 38 9e bd d6 3a 0b 3d c9 6a 4a bd 37 0b 6b bd
       -0.07725681 0.033991657 -0.049418245 -0.057383742
0001f0 6c 91 0c bd e1 3a 1a bd 22 5f 6c bd 83 57 42 bd
       -0.034318373 -0.037653808 -0.057707913 -0.04744674

fc3.weight f4 [64, 128]
000000 4f 32 b3 3c 04 79 d7 bc 4a 1e 58 3d 47 39 d5 3c
       0.021874575 -0.026302822 0.05276326 0.026028289
000010 9c 51 c7 bd 4c 8f 81 bd bc e1 28 3d 7b a1 a4 3d
       -0.09732363 -0.0632616 0.041230902 0.080386125
000020 ca 13 95 3d 66 91 3b be 27 05 a1 bd b3 26 7f bc
       0.07279165 -0.18317184 -0.07862311 -0.015573191
000030 d5 03 55 bd 21 45 16 3d ac e6 c6 3d 16 9a 51 be
       -0.052005608 0.03668702 0.09711966 -0.20468935
000040 b7 c6 10 3d eb 9b aa 3d 8c d4 61 bd 53 8c 68 bd
       0.03534576 0.0833052 -0.05513434 -0.05677445
000050 42 e3 87 3a e5 63 bf 3b 82 6a b8 bd ee 1d 95 3d
       0.0010367411 0.005840766 -0.0900469 0.07281099
000060 fa 92 d0 3c b1 f2 b7 bb c3 c6 db 3d 1b ae 39 3d
       0.025460709 -0.005613648 0.1073127 0.045332056
000070 c4 5a 19 bd a3 f2 d2 bc 86 d6 af 3c 1e 95 d1 3d
       -0.037440076 -0.025750464 0.021464597 0.1023352
000080 a1 11 bb bc 96 19 6e 3d 94 46 9a bd 59 2c e7 bd
       -0.022835555 0.05812987 -0.07532993 -0.112877555
000090 a2 db 54 3d 53 c9 2f bd e0 90 8a bc a8 e5 85 bd
       0.05196727 -0.042916607 -0.016914785 -0.06537944
0000a0 de 52 40 bb ad 4d a5 bd b5 5c ed bc b2 ba 0b bd
       -0.0029346268 -0.08071456 -0.02897487 -0.034113593
0000b0 46 d9 54 bd ff 42 b0 bc 73 33 96 bb d7 d9 96 3c
       -0.05196502 -0.021516321 -0.00458377 0.018414421
0000c0 f0 5f 38 3d d4 73 3e 3d 24 38 64 3d 28 54 01 be
       0.045013368 0.04649718 0.055717602 -0.1262976
0000d0 df dd 4d bc 6c 83 f1 3a 75 c1 81 3d 1e 61 4b 3d
       -0.012565105 0.0018426008 0.06335727 0.049653165
0000e0 c9 bc cd 3c 26 47 06 3d fa 47 cb 3c ac 6e 34 3d
       0.025114434 0.032782696 0.024814595 0.044050857
0000f0 a4 77 a0 3c 5d c7 6c 3d db 3b 1c bd 26 a9 51 bd
       0.0195883 0.057807315 -0.03814302 -0.051186703
000100 a0 1d de 3d 68 a2 4b bc f6 b1 b9 3c 35 20 fa 39
       0.10845494 -0.012428857 0.022667866 0.00047707712
000110 3b 3d 39 bd fe 54 48 3d 77 46 5b bc c6 84 ca bd
       -0.04522441 0.04890918 -0.013383499 -0.09888606
000120 85 01 21 bc 20 fa c8 bc e7 ff 7c 3d e9 3c 6a 3d
       -0.009827022 -0.024533331 0.061767485 0.057186995
000130 6e d9 9f 3d 79 51 13 bd 60 4b 69 bd 25 03 13 3e
       0.07805143 -0.03596637 -0.05695665 0.14356668
000140 0d 57 18 bd 4c 4e c6 bb fe 02 c6 3c de 4b bc 3d
       -0.037192393 -0.006051814 0.024171349 0.09194158
000150 3e 3d fe 3c ce ec f9 bd b4 66 b3 bd d0 09 cb bd
       0.031035062 -0.1220337 -0.087598234 -0.09913981
000160 83 47 9f 3d c9 e1 85 bc 37 1d 02 bd 6d 8b 6c bd
       0.07777312 -0.016343014 -0.031766143 -0.057750154
000170 af 50 d7 bc 5e 5b 75 bd 6e b3 24 3d dc fb 16 3c
       -0.02628359 -0.059901588 0.04021018 0.009215321
000180 6b 81 e5 3c ec 84 8c 3d 2a f0 13 bd 4c b2 eb bd
       0.028015813 0.0686129 -0.03611771 -0.11508617
000190 3a 3e 59 3c 45 2a a6 bd 9e 42 81 bc f4 d2 09 3c
       0.013259465 -0.08113531 -0.015778836 0.008412112
0001a0 78 a9 5a bd 60 9c ca ba 87 38 a4 3d 9d d9 6a bd
       -0.053384274 -0.001545798 0.08018594 -0.05733644
0001b0 e5 ef bf bb 5f 09 95 3d 1b 75 8d bd 19 1b 84 3d
       -0.005857455 0.07277178 -0.06907102 0.06450481
0001c0 e9 83 af bc ef dd 1c 3c da 90 c8 bc 45 09 80 bd
       -0.021425204 0.0095743975 -0.024483133 -0.06251768
0001d0 60 08 1d 3d cf f3 a1 bd 7e 97 80 bc 0e 36 08 bd
       0.038338065 -0.07907831 -0.015697237 -0.033254676
0001e0 63 9a 38 3d 59 fa 54 3d b6 03 6e bd 6a 9b 56 bd
       0.04506911 0.051996563 -0.058109008 -0.05239431
0001f0 bb d6 ea bc ca b9 99 bc 42 99 45 bb a9 2a 2f bd
       -0.028666845 -0.018765349 -0.0030151163 -0.042765293
000200 6c 3f 78 bd 43 eb b5 bc 5b f8 42 bc 57 2d 15 3d
       -0.06060736 -0.022206908 -0.011900033 0.036420193
000210 a6 ba 95 bc 4a f0 83 bd 75 5d 8a bd 69 61 2d 3d
       -0.018277477 -0.06442316 -0.06756107 0.042329226
000220 06 d5 64 bd 89 d8 aa bb 8a 20 ec 3b 9a 27 c5 bd
       -0.055867217 -0.0052138013 0.0072060274 -0.09626694
000230 f5 53 52 bd 40 8f b6 3b d9 5e de bc ad e1 10 bb
       -0.0513496 0.005571276 -0.027144836 -0.002210717
000240 2d c3 0a bd c7 a4 51 3d 7c 83 1b bc f8 6d 2e 3d
       -0.03387754 0.051182535 -0.009491798 0.042585343
000250 dc 16 30 bd 1f 6d db bd fe 52 ce bd 7b cf 37 bd
       -0.04299055 -0.107141726 -0.10074423 -0.044875603
000260 ba 38 9c bd cd 76 6b bd 8e 5d bb 3d f0 a5 32 bd
       -0.07628007 -0.057486344 0.091487035 -0.04361528
000270 cc f7 82 bd e8 21 0d ba 88 2f 94 3c 81 d3 e5 3c
       -0.0639492 -0.00053837756 0.01808907 0.028054954
000280 1f 6b 13 3d 66 66 0e bd 0f d2 73 3d 79 f4 07 bd
       0.03599083 -0.034765624 0.0595265 -0.03319213
000290 c2 8c 7b bd 8a 1e 10 bd c8 bb 1b bd 19 f3 a7 3c
       -0.061413534 -0.035185374 -0.03802088 0.02050166
0002a0 14 65 d7 bc 99 23 db 3c 49 2c b9 bc fa 2f 18 be
       -0.026293315 0.026750373 -0.022604125 -0.14862052
0002b0 04 0e 45 bd 05 02 c7 bd b3 77 f3 bc 21 27 99 bd
       -0.04810907 -0.09717182 -0.029720163 -0.07478166
0002c0 e2 15 58 3d 3a c0 57 3d d5 1d 91 bd ab 6e b7 3c
       0.052755244 0.052673556 -0.07085768 0.022391638
0002d0 1c 3c af bc 83 5c b1 bc 51 df e4 bb 3f f9 53 bd
       -0.021390967 -0.021650558 -0.006984629 -0.05175137
0002e0 df 4d 23 3b 70 9a 30 3d 3f ac 92 3d 49 62 45 3d
       0.002491824 0.043116033 0.071617596 0.048189435
0002f0 0a f5 af bd 8c 6b 9a bd 02 bd 0a bc 12 1c b7 3c
       -0.08591659 -0.07540044 -0.008467915 0.022352252
000300 4c 63 97 3c 0f e1 fc bc f6 3d b1 bd c7 7b 92 bd
       0.018479966 -0.030869035 -0.08654396 -0.07152515
000310 94 de 42 bd 02 6e 8d 3c 67 4b 36 bd d4 bd 9d bd
       -0.04757555 0.01726437 -0.044505503 -0.077022225
000320 db 07 31 3c 38 90 a9 bd cd 91 9f bd b0 bb d2 3d
       0.010805096 -0.08279461 -0.07791481 0.10289705
000330 69 66 d4 3c d0 6e 6c bd 43 69 6a bd 9e 9c 9f bd
       0.02592774 -0.057722867 -0.05722929 -0.07793544
000340 0d 49 c7 3c 6e ac a7 bb 54 6d 48 bd 17 d6 d2 3c
       0.024326826 -0.005116991 -0.04893239 0.025736852
000350 a3 54 6c 3a c2 02 d1 3c df ed f8 bd 30 5b 08 bd
       0.00090152974 0.02551401 -0.12154745 -0.03329009
000360 14 92 30 bd eb 79 96 3d 5e 73 0a bb 0b eb 6e bd
       -0.04310806 0.07347473 -0.0021125893 -0.058329623
000370 6d 09 17 bd 66 c4 6f bc dc fc 79 bd 72 4e d8 3c
       -0.036874224 -0.014634227 -0.06103216 0.026404593
000380 06 fd 70 3d a7 f8 80 3d 2a 41 18 3d ab 3a a0 bd
       0.058835052 0.06297427 0.03717152 -0.0782369
000390 3a 75 ff 3c 6b 26 d3 bb 3a fe 2d 3d 37 52 52 3d
       0.031183828 -0.0064437888 0.042478777 0.051347937
0003a0 b4 21 fe 3c 5e 4e 2a bd 6a 55 3c bd 64 42 5b bd
       0.03102193 -0.041578643 -0.045979895 -0.053530112
0003b0 29 71 93 bd dd c4 4d bc 02 7d 8b bd ba 97 5d 3c
       -0.07199318 -0.012559143 -0.06810953 0.013524944
0003c0 d2 f3 27 bd a4 e5 86 3d 24 af 43 3d 9a d3 1a bd
       -0.04100401 0.06586769 0.04777445 -0.037799455
0003d0 04 45 84 bd 70 b3 1b bd d8 e5 c1 bc 66 30 26 3d
       -0.06458476 -0.03801292 -0.023669168 0.0405735
0003e0 5a ee 8f bd 09 45 0a bd c6 26 63 3d 5f 86 72 bd
       -0.07027884 -0.033757243 0.0554569 -0.059210178
0003f0 a0 33 1c bd d5 49 ef 37 10 be 10 bd b0 8a a6 bd
       -0.03813517 2.8525401e-05 -0.035337508 -0.08131921

fc3.bias f4 [64]
000000 8f 6f 0e be 61 11 78 bb a4 59 02 be 08 98 c9 bd
       -0.13909744 -0.0037852156 -0.12729508 -0.09843451
000010 aa fe bd bd f8 a6 cb ba 97 82 91 bd a8 76 34 3d
       -0.09277089 -0.0015537431 -0.07104986 0.044058472
000020 f6 d6 25 be 4b 89 08 be 13 8b f2 bd 5a e0 85 bd
       -0.16195282 -0.13333623 -0.118429326 -0.06536932
000030 0c 96 ec bd ae fa d8 bd 44 5a 12 bd ea de 7d bc
       -0.11552057 -0.10594688 -0.035730615 -0.015495041
000040 47 92 5a be 2a 86 02 3c 77 60 21 be 30 89 38 be
       -0.21344863 0.0079665575 -0.15759455 -0.18021083
000050 45 74 90 bd 86 07 d0 bd 81 ed e0 bd 3a 43 ee bd
       -0.07053427 -0.10157685 -0.109828 -0.11633916
000060 c9 5e c5 bd f9 ba 2f bd fd ba c1 3d 7e fb 08 be
       -0.096372195 -0.04290292 0.09459493 -0.13377187
000070 4b e1 84 3d bc f6 0e 3e 23 d6 86 bd 42 89 6b bd
       0.06488284 0.13961309 -0.06583812 -0.057503946
000080 3d ec 17 3d 4d 64 58 bd 24 f5 21 be 83 37 fd bc
       0.03709053 -0.05283003 -0.1581617 -0.03091026
000090 8f 51 f6 bd 27 89 68 bc bb b8 09 be ea d7 1e bd
       -0.12027275 -0.014192856 -0.13449375 -0.03878013
0000a0 f4 1b af bd 48 c8 0e be b4 6c 21 bd ef 95 3d bd
       -0.085502535 -0.13943589 -0.039410308 -0.046285566
0000b0 df 58 e3 bc 4b 26 49 3d 21 fb bb bd 6c 7e 95 bd
       -0.027752338 0.049108785 -0.091787584 -0.07299504
0000c0 97 89 9f 3b 22 15 de bd 6d 09 f5 bc 58 01 b4 bd
       0.004868697 -0.108438745 -0.029911721 -0.08789319
0000d0 20 18 13 be 15 05 04 be ce 9d 59 bd 59 89 85 bd
       -0.14364672 -0.12892564 -0.05312901 -0.065203376
0000e0 af a6 21 be 25 2a a8 bd 2c 41 14 bd 52 0a 18 bd
       -0.15786241 -0.082111634 -0.036194965 -0.037119217
0000f0 41 7e ca 3b c6 37 98 ba 17 c6 84 bd fb a5 ab 3d
       0.0061796014 -0.0011613301 -0.06483095 0.08381268

fc4.weight f4 [32, 64]
000000 c3 2a 99 bd 58 14 cf bc 86 bc 0a 3e cc 7e 59 3c
       -0.07478859 -0.025278255 0.13548478 0.01327486
000010 36 4b b4 bd f3 a2 2c bd be 81 0e 3e 1b 48 cf 3d
       -0.08803408 -0.042147588 0.1391668 0.10121175
000020 ed e8 e2 3d 5d f0 47 bd 44 b7 66 3d 4e a8 c8 bd
       0.11079583 -0.048813213 0.05632712 -0.097977266
000030 d9 ad a4 ba 8c 93 19 bc 50 df 59 bd c0 42 94 bd
       -0.0012564018 -0.009373557 -0.053191483 -0.07239294
000040 d5 b5 ae 3d 69 28 a8 3d d7 5c 08 bd 61 4d 2b bc
       0.085307755 0.082108326 -0.033291664 -0.01045546
000050 80 c6 86 bd 24 7d db bc e7 ac e9 bc d2 27 1a bb
       -0.065808296 -0.02679307 -0.02852483 -0.002352227
000060 a6 dc a3 bd 3e b4 0f bd 26 a7 f0 3b 20 b8 29 3e
       -0.0800107 -0.035084 0.0073441444 0.16574144
000070 30 32 dd 3d 58 75 82 bb f6 4a 30 3b c8 0f ad bc
       0.10800588 -0.0039812736 0.002690015 -0.02112569
000080 39 dc 2a 3d 5d cd da 3d de 45 3c bd 51 70 06 be
       0.041713927 0.10683701 -0.045965068 -0.13128783
000090 17 e1 9c bd 77 7e f4 bd 87 4a 36 bd 81 e4 80 3c
       -0.0766012 -0.11938184 -0.04450467 0.01573396
0000a0 45 c5 a3 bc 31 f4 ec bd 4e ad ad 3c 96 a2 e9 bd
       -0.019991526 -0.11570013 0.021200802 -0.11407964
0000b0 d6 52 a2 bd 4f 09 9b 3d a5 91 ea 3d 36 a4 2e bc
       -0.07925956 0.07570135 0.11453561 -0.010659268
0000c0 ce 4f fd 3d fb be c1 bd f8 18 a6 bb 99 a2 55 bd
       0.12368737 -0.09460255 -0.0050688945 -0.05215702
0000d0 a0 b1 a1 3d 04 c0 85 3d a4 9b f3 3d d1 07 fb ba
       0.078952074 0.06530765 0.118949205 -0.001915211
0000e0 02 10 07 3a 78 e5 48 b9 dd b7 ad 3d c9 b4 89 bd
       0.00051522267 -0.0001915897 0.08482335 -0.06723935
0000f0 12 dd bf bd 6a 90 59 3d 4d 7c 1c be ec ae d1 bc
       -0.09368338 0.05311624 -0.15281792 -0.025596105
000100 26 bf 8d bd c1 8b 83 3d 91 c5 cd 3d 1f 8b 23 be
       -0.06921224 0.0642314 0.100474484 -0.15971039
000110 22 3d 15 be 4c 69 ab bd 5b d2 29 bd 0d 3f c8 bc
       -0.14574102 -0.08369693 -0.041460376 -0.024444127
000120 25 e1 ea 3b 48 4c 83 bd de 8c 41 3d 41 64 bd bc
       0.0071679526 -0.06411034 0.047253482 -0.023119094
000130 3f 71 ab 3b c9 47 14 bd 42 cd ed bd 28 ca 35 3d
       0.005232006 -0.036201272 -0.116114154 0.044382244
000140 0e 4e b5 3d da 4c 13 3a f2 f9 16 3e e4 4d 95 bd
       0.088527784 0.0005619057 0.14743784 -0.07290247
000150 f8 34 b0 bc c1 58 85 bd 13 1c 38 bd dd c2 54 3d
       -0.021509632 -0.06511069 -0.04494865 0.05194365
000160 fd 25 01 bd fa 7f 0f 3d 12 16 cd 3d 08 47 b7 bd
       -0.03153037 0.035034157 0.10013975 -0.08949095
000170 ed e2 c7 bd 36 2e 23 be 02 6e 36 ba 29 09 87 3d
       -0.097600795 -0.15935597 -0.00069591415 0.06593544
000180 f2 6c e2 bc a4 c4 9f 3d 9a f0 9d 3b 0f 2d db bd
       -0.02763984 0.07801178 0.0048199417 -0.107019536
000190 b2 ab 75 3c b0 47 e7 3c 93 98 33 bd de 6e 9b 3d
       0.014994549 0.028232425 -0.043846678 0.075895056
0001a0 86 4f 50 be 7f fa 0a bd ad 1a 70 bc f9 ad 8a 3b
       -0.20342836 -0.033930298 -0.0146547975 0.004232165
0001b0 8a 84 0c bc 58 87 2a 3d 2c 22 77 3d 27 42 97 bc
       -0.008576522 0.04163298 0.060335323 -0.018464161
0001c0 f8 a3 55 bd a9 33 b0 3d 50 6e 2c be 9b 30 46 bc
       -0.052158326 0.086036034 -0.16838956 -0.012096549
0001d0 9a a4 5d 3b 68 23 d7 bd 99 72 93 3d e0 fe 36 3c
       0.0033820034 -0.105048 0.07199592 0.011169165
0001e0 79 81 c0 3d 9d c2 ae bd d4 55 55 3d 17 e5 07 3e
       0.09399695 -0.08533213 0.052083805 0.13270985
0001f0 27 54 9c bd 01 1f 29 ba a5 83 45 3c e1 cc 1c 3d
       -0.07633238 -0.00064514583 0.012055312 0.038281325
000200 fd a1 1b 3d b8 24 14 be 40 b4 8a 3d 26 ee a4 3c
       0.03799628 -0.14467132 0.06772661 0.02013309
000210 42 ae 42 be 92 33 2f bc 90 a1 83 bd 53 14 da bd
       -0.19011787 -0.010693448 -0.064273 -0.10648408
000220 b0 c1 db 3d cd 93 48 3d 71 60 d8 3c 33 e5 a9 bd
       0.10730302 0.04896908 0.026413174 -0.082956694
000230 20 3b f8 3c 6a 37 af bc e4 75 2c be 15 8a 2b be
       0.03030163 -0.021388728 -0.16841847 -0.16751893
000240 18 56 a7 bd d5 b7 b4 3b 65 ce ee bd 91 3e ba 3d
       -0.08170718 0.0055150785 -0.116604604 0.09093965
000250 1c 70 3d be 44 52 85 bd 94 c0 8a bc 4a 04 18 be
       -0.18499798 -0.065098315 -0.016937532 -0.14845386
000260 93 41 a7 bd e9 1c e4 bc 3a b2 f0 bd 9b 9b 8c bd
       -0.08166804 -0.027845817 -0.11752744 -0.06865617
000270 45 5c 83 3a 07 d8 d7 3d 9f 41 90 be 08 4d 0e be
       0.0010022005 0.10539251 -0.28175065 -0.13896573
000280 5e f6 35 3e 6c 73 57 bd 23 26 16 be a8 70 fe bd
       0.17769763 -0.05260031 -0.14662986 -0.12423831
000290 92 38 8b 3c 02 51 a1 3c 76 94 d9 bd 08 28 31 3c
       0.016994748 0.019691948 -0.1062402 0.010812767
0002a0 dd 8d f8 3b fb 2c c5 3d 0a 4f 15 bc 73 9a 85 3d
       0.007585271 0.0962772 -0.009113083 0.065235995
0002b0 03 4d ad 3d 71 74 80 bd c2 34 f7 3d ec 29 6f bc
       0.084619544 -0.062722094 0.1207061 -0.014597397
0002c0 c1 94 82 3d 0b 4c a0 bd 8b 3e c8 bc 6b 8e 89 be
       0.06376029 -0.07827004 -0.024443885 -0.2686647
0002d0 f6 e0 50 3d 80 c8 a1 3d a6 4a e6 bc fb 0c fa bc
       0.05099579 0.078995705 -0.028111767 -0.030523768
0002e0 ec ab 94 bb ce db f6 bd b1 71 de 3d 7e 5f eb bd
       -0.0045370962 -0.12053643 0.10861529 -0.11492823
0002f0 33 e2 1e 3d 31 35 02 be ac a8 c3 bc 17 d2 16 be
       0.03878994 -0.12715603 -0.02388414 -0.1472858
000300 e5 6f 70 bd 58 05 a0 3d 29 2b 17 3e f7 63 32 bb
       -0.05870046 0.07813519 0.14762558 -0.0027220228
000310 23 0e 56 bd b3 e3 cd 3d 59 33 9b bd f8 ff 06 be
       -0.052259576 0.10053196 -0.07578153 -0.13183582
000320 55 55 91 bd a6 1f be 3c d4 7b e7 bd 49 57 9a bd
       -0.07096354 0.02320845 -0.11302915 -0.075361796
000330 b8 7f 9a bd 85 bc fc bc dd 38 3d 3d 09 dc b6 3d
       -0.07543892 -0.030851612 0.046196807 0.08928687
000340 f8 ee 98 3d 3c fe be 3d 96 57 71 bd c0 0b f3 3d
       0.07467455 0.09325835 -0.05892142 0.118674755
000350 c6 c2 d7 3b d3 79 3e bd cf 9d 01 be 17 28 55 bd
       0.006584498 -0.0465029 -0.12657855 -0.052040186
000360 2a f2 e5 3b 95 f2 6a bd 8a 8c df bd 88 39 8d bd
       0.0070173936 -0.05736025 -0.109154776 -0.06895739
000370 e7 ce b1 3d 03 a2 83 3d 4a 69 a6 bd 93 2e 8e 3d
       0.086820416 0.06427386 -0.08125551 0.06942477
000380 d6 d9 36 3d ea ac 8e bc 49 21 64 3d 31 94 b6 3d
       0.04464134 -0.017416436 0.055695806 0.08914984
000390 d7 67 16 3c 30 39 af bd 88 f9 e4 39 ae 20 a7 3a
       0.009180031 -0.085558295 0.00043673464 0.0012750828
0003a0 7d 23 74 3d cf 79 00 3d 49 7e ae bd ab fe 9a 3d
       0.059604157 0.031366166 -0.08520181 0.07568105
0003b0 1f 74 02 3c 92 5e 90 3c 16 61 40 ba 69 1a ab 3c
       0.007962256 0.01762322 -0.00073386857 0.020886617
0003c0 d5 11 8c bd a1 e1 39 bd 60 cd 17 be 68 4b cf 3c
       -0.06839339 -0.045381192 -0.14824438 0.025304511
0003d0 13 e3 55 3d 93 c1 20 3c fb 77 b9 bc 9c 0e 02 3d
       0.052218508 0.009811777 -0.022640219 0.031752214
0003e0 7c ec 8e bc c0 d2 e6 bc 8c 1b 2f bd 54 ff 97 bd
       -0.017446749 -0.028176665 -0.04275088 -0.07421747
0003f0 80 e3 8d 3c c2 ae 86 3d bf e5 03 3d 14 67 89 3d
       0.017320395 0.06576301 0.032201525 0.06709114

fc4.bias f4 [32]
000000 25 84 a3 3b 55 e6 cc 3d d8 d3 97 3d 0c 2f 82 3d
       0.004990118 0.1000487 0.07413453 0.0635663
000010 d3 4c 0d 3e f5 ef e9 bc bd 86 5f be ef 6c 4d be
       0.13798837 -0.028556803 -0.21828742 -0.20061086
000020 17 dc f0 bb bb a6 31 be 75 1e 6f bb ee 40 6c be
       -0.0073504555 -0.17348759 -0.003648666 -0.23071644
000030 b2 e6 45 3e 28 f2 39 be da 83 b6 bd e9 47 53 3d
       0.19326285 -0.18158782 -0.089118674 0.05158225
000040 28 a4 0c be b7 a1 ab bc 84 64 14 3d 8e ee 31 be
       -0.13734496 -0.020951135 0.03622867 -0.17376158
000050 0b 27 8a bc cc fe 21 3c 22 51 2f bd c3 71 7a be
       -0.01686432 0.009887408 -0.042801984 -0.24457459
000060 82 b0 f2 bd d0 76 7f 3c c0 b1 8d bd 7a 90 e7 3d
       -0.118500724 0.015592292 -0.06918669 0.113068536
000070 cb e6 1c be ea e7 15 3d ef 96 aa 3c fe 9c a9 bd
       -0.15322416 0.036598124 0.020823924 -0.08281897

fc5.weight f4 [1, 32]
000000 25 43 e9 ba e8 51 c0 bc 20 24 28 3d 52 aa 2d bb
       -0.00177965 -0.023476556 0.041050076 -0.0026499224
000010 0f 65 89 bb 31 33 4c bc f8 8b 75 bd bd 4d a9 bc
       -0.0041929553 -0.012463377 -0.059947938 -0.020666951
000020 e6 7a 80 3d 85 c6 db 3c 53 fe 8f 3b 6a 55 27 3c
       0.06273441 0.02682806 0.0043943315 0.010213235
000030 ed d9 48 3c 7a 4a c3 3c 56 f1 8b 3d be 48 a2 bc
       0.012258989 0.023839224 0.068331406 -0.019810077
000040 76 e1 35 bc a1 21 bd bb cc fc 8f 3c 03 7c 0b 3b
       -0.011101117 -0.005771831 0.017576598 0.0021283634
000050 66 65 32 3a 3e a5 b7 bc 3c 5a 2c bc 84 d0 08 3d
       0.00068052707 -0.02241766 -0.01051956 0.03340198
000060 f2 8f 59 bc 87 12 af bd 12 93 af bc 34 18 bb bc
       -0.013278948 -0.08548456 -0.021432433 -0.02283869
000070 5f 3c bc 3a 97 d2 5c ba 80 6a 6a 3d e5 95 89 3b
       0.0014361254 -0.00084237143 0.057230473 0.004198777
