scripts/built_models/torch_ou.pth (torch, 693523 bytes, 9 tensors)

fc1.weight f4 [256, 504]
0.09968871 0.14815006 0.13776758 -0.015060987 -0.006670927 -0.008392272 -0.038997274 0.004589195
0.052047808 0.021555481 -0.058905553 0.16892114 -0.15015592 -0.097041786 0.19015619 -0.15001659
-0.038020536 0.21175559 -0.20320924 0.038026746 0.139842 -0.02222741 0.13501272 -0.09361318
0.027763354 0.13116801 -0.11549054 0.06356823 0.1768925 -0.08172332 0.086922765 0.14396903
0.030158151 0.05571419 -0.012028269 0.06995951 -0.066317275 0.027561141 0.036103528 -0.06598902
0.046906795 0.15314066 0.043176144 0.22510263 -0.09105019 0.07826642 0.24184398 -0.1672499
0.04763576 -0.012034558 -0.07310622 0.110394694 -0.15751037 -0.16072638 0.0889972 -0.19644299
0.001554917 0.10189977 0.022538645 -0.1267767 0.083129235 -0.06684689 -0.022891596 0.13676614
0.093561195 0.026831016 0.04472921 -0.09846268 -0.006224894 0.029185036 0.08751432 0.036246337
0.10755965 0.009220157 0.022283586 0.048626505 0.05050511 -0.007504418 0.078224994 0.06723432
0.061589226 0.03953606 -0.020655595 0.15722851 -0.003543493 0.054378822 0.07642352 0.115862384
-0.024270909 0.095700435 0.07760845 0.06521906 0.059887413 0.0697999 -0.061044715 -0.051594336
0.053705443 -0.044590212 0.16938183 0.07987279 -0.14385262 0.11934453 0.10035215 -0.036995783
0.059802834 0.21236858 -0.07965139 0.115202 0.21252087 -0.07485072 0.051478423 0.20280042
-0.0011384933 -0.01458159 0.030757193 -0.020787293 0.04308045 -0.017747017 -0.09156779 -0.043098602
-0.08232846 0.076566525 -0.07927003 -0.06654403 -0.07448478 0.11268465 0.10743399 0.011574525
0.15085123 -0.079951115 -0.0656496 0.0937258 0.106422186 0.086226806 0.039250605 0.06560009
-0.04203435 0.042296678 0.11782897 -0.050700203 0.06554144 0.058851708 0.03032776 0.07353268
0.030495038 0.07099793 0.04935436 0.03067709 0.034953944 0.1005007 -0.042326685 0.16521357
0.063498065 0.018848658 0.09002728 0.02974864 -0.010581117 -0.02244307 0.013122087 0.02694669
0.027450735 0.089196615 -0.051266115 0.026518518 0.10444814 -0.06571472 0.0745808 0.16646393
-0.054328937 0.17786922 0.16493405 0.0068701697 -0.02152075 0.21289435 0.059797794 -0.048229627
0.042576 -0.042316783 0.012453842 -0.043207485 -0.005166704 -0.07102 -0.058145456 0.085587084
0.032634377 0.020117322 0.05735599 0.07744787 0.16037545 0.040817797 0.09750258 -0.047580495
-0.07686911 0.04254828 0.06437107 0.11047831 0.102621704 0.049675137 0.04898728 0.09116149
0.05919007 0.023642462 0.1147969 0.06801515 0.05263083 -0.0014242091 -0.017471215 0.039022956
-0.01070877 0.011150649 0.10990528 0.007602269 0.034402076 0.122165486 0.04190791 0.09313246
0.08512792 -0.027090784 -0.03548475 -0.055879686 0.10202738 -0.034032773 0.012752954 0.002716628
0.0052182483 0.02778025 0.058940064 0.00012286146 0.14245573 0.023146393 -0.006543469 0.14411461
0.10894377 0.07087007 0.012183838 0.07899373 0.045549773 -0.03469986 -0.005185125 -0.029619433
0.05729838 -0.046021853 -0.05983869 0.043049876 -0.03893301 -0.010668035 -0.045111246 -0.006974542
-0.034808364 0.2664582 0.14681539 0.09181498 0.10398462 0.036912143 0.05633734 -0.09367445
00000000: 9829 cc3d a6b4 173e f212 0d3e 5cc2 76bc
00000010: cb97 dabb bd7f 09bc 9bbb 1fbd f560 963b
00000020: 1530 553d 1f95 b03c f346 71bd aaf9 2c3e
00000030: 79c2 19be d8bd c6bd 4eb8 423e f39d 19be
00000040: 6cbb 1bbd 75d6 583e 1516 50be efc1 1b3d
00000050: be32 0f3e 4216 b6bc c640 0a3e 44b8 bfbd
00000060: f96f e33c e850 063e 4e86 ecbd 0f30 823d
00000070: 4f23 353e 8e5e a7bd 9004 b23d 9e6c 133e
00000080: 3a0e f73c 9034 643d 3712 45bc ee46 8f3d
00000090: 5ad1 87bd e7c7 e13c 4be1 133d 4025 87bd
000000a0: 5721 403d e8d0 1c3e 78d9 303d 4e81 663e
000000b0: 8678 babd 254a a03d f3a5 773e 8f43 2bbe
000000c0: b71d 433d 982c 45bc b7b8 95bd 9d16 e23d
000000d0: 664a 21be 7595 24be 2a44 b63d 5a28 49be
000000e0: 5bce cb3a d4b0 d03d f7a2 b83c c0d1 01be
000000f0: a93f aa3d 06e7 88bd 2887 bbbc 6c0c 0c3e
00000100: 039d bf3d b8cc db3c fa35 373d cda6 c9bd
00000110: 32fa cbbb 7515 ef3c b53a b33d 0a77 143d
00000120: 3c48 dc3d 2410 173c 118c b63c 962c 473d
00000130: 72de 4e3d 9fe7 f5bb 6d34 a03d 26b2 893d
00000140: fc44 7c3d 90f0 213d ec35 a9bc 8300 213e
00000150: f339 68bb 54bc 5e3d ef83 9c3d 4249 ed3d
00000160: c9d3 c6bc 97fe c33d 2ef1 9e3d 9291 853d
00000170: 814c 753d 40f3 8e3d 060a 7abd 9554 53bd
00000180: 3dfa 5b3d 3aa4 36bd 6e72 2d3e 5894 a33d
00000190: 1a4e 13be e86a f43d 6e85 cd3d e488 17bd
000001a0: d1f3 743d 2677 593e 4520 a3bd 07ef eb3d
000001b0: 129f 593e 564b 99bd 0adb 523d eaaa 4f3e
000001c0: 7f39 95ba 9fe7 6ebc 82f6 fb3c 1d4a aabc
000001d0: 2075 303d 3162 91bc e587 bbbd 2988 30bd
000001e0: d39b a8bd e9ce 9c3d 5358 a2bd 3d48 88bd
000001f0: 7a8b 98bd 36c7 e63d 5a06 dc3d 14a3 3d3c
00000200: bf78 1a3e 69bd a3bd 4c73 86bd 50f3 bf3d
00000210: e0f3 d93d ae97 b03d 3ec5 203d 5759 863d
00000220: 362c 2cbd 483f 2d3d 5150 f13d 04ab 4fbd
00000230: 973a 863d 7d0e 713d ec71 f83c 4d98 963d
00000240: bbd0 f93c 5d67 913d cc27 4a3d 854e fb3c
00000250: de2b 0f3d 50d3 cd3d bf5e 2dbd bf2d 293e
00000260: 460b 823d 8068 9a3c 3960 b83d 6bb3 f33c
00000270: 6c5c 2dbc 87da b7bc 06fe 563c 4ebf dc3c
00000280: 5de0 e03c b7ac b63d 6bfc 51bd 5d3d d93c
00000290: e8e8 d53d 7095 86bd d2bd 983d 8575 2a3e
000002a0: 0588 5ebd 5923 363e 79e4 283e 291f e13b
000002b0: 494c b0bc fa00 5a3e 88ee 743d 6e8c 45bd
000002c0: 2c64 2e3d 5d54 2dbd 330b 4c3c 55fa 30bd
000002d0: 744d a9bb ef72 91bd ee29 6ebd 4848 af3d
000002e0: a0ab 053d 15cd a43c 1dee 6a3d fd9c 9e3d
000002f0: 7639 243e 9030 273d 6faf c73d c4e3 42bd
00000300: 8d6d 9dbd 1b47 2e3d fbd4 833d 7442 e23d
00000310: 542b d23d 2878 4b3d e3a6 483d e0b2 ba3d
00000320: 4971 723d d6ad c13c a31a eb3d 874b 8b3d
00000330: 6d93 573d 87ac baba cb1f 8fbc 89d6 1f3d
00000340: d673 2fbc 36b1 363c 0516 e13d 741c f93b
00000350: 31e9 0c3d e631 fa3d a1a7 2b3d 3bbc be3d
00000360: 8c57 ae3d 7eed ddbc 7558 11bd 19e2 64bd
00000370: bbf3 d03d f365 0bbd c4f1 503c 7409 323b
00000380: d7fd aa3b 6893 e33c 236b 713d 5fd4 0039
00000390: eadf 113e 819d bd3c 996a d6bb c892 133e
000003a0: e91d df3d 5424 913d b89e 473c 77c7 a13d
000003b0: 6692 3a3d 7121 0ebd fbe7 a9bb 74a4 f2bc
000003c0: b5b1 6a3d 6981 3cbd 6a19 75bd 1155 303d
000003d0: 3878 1fbd fbc8 2ebc 92c6 38bd b38a e4bb
000003e0: 3793 0ebd 366d 883e c656 163e 7e09 bc3d
000003f0: e3f5 d43d 3031 173d fcc1 663d 64d8 bfbd

fc1.bias f4 [256]
-0.07255584 -0.19410804 -0.11478807 -0.10578194 -0.1474777 -0.2293254 0.036250986 -0.19921601
-0.1920515 -0.15888575 -0.12871702 -0.07538131 -0.21997866 -0.19868709 -0.23730505 -0.20931798
-0.2468481 -0.033613034 -0.15701346 0.019831577 -0.09212439 -0.15429501 -0.14672394 -0.11209361
-0.103043444 -0.14315906 -0.21486415 -0.17359717 -0.19063786 0.003966498 -0.08357546 -0.24827524
-0.25734848 -0.39783776 -0.10359488 -0.21531174 -0.0994995 -0.067321114 -0.0752078 -0.29142562
-0.10915185 -0.28232658 -0.05619035 -0.10172507 -0.12628509 -0.13097534 -0.18891707 -0.021262236
-0.20992991 -0.08699386 0.004580528 -0.1363677 -0.05841222 -0.13194485 0.054192644 -0.058302116
-0.19317003 -0.26027396 -0.1623239 -0.1445457 -0.16548626 -0.1077209 -0.12570745 -0.007754055
-0.19021706 -0.15289901 -0.24260966 -0.25099435 -0.11269959 -0.16651647 -0.07470773 0.030142885
-0.09941421 -0.043192524 -0.113692105 -0.2888628 -0.29603907 -0.13828161 -0.14146382 -0.18049558
-0.14537367 -0.03219282 -0.121767655 -0.22698596 -0.20569284 -0.08291591 -0.13927662 -0.2510296
-0.081875674 -0.22731593 -0.23579223 -0.18912548 -0.16108538 -0.10614373 -0.11444234 -0.20887676
-0.23595026 -0.06761214 -0.19591466 -0.18092217 -0.11732221 -0.16747588 -0.19297063 -0.18419056
-0.13734333 -0.116880074 -0.14413922 -0.0045662913 -0.07888178 -0.19390242 -0.15285079 -0.1443746
-0.029638242 -0.18861668 -0.26799834 -0.11557262 -0.13801157 -0.072550334 -0.20945974 -0.13070261
-0.066729575 -0.0502369 -0.034514774 -0.15014282 -0.15777592 -0.09132101 -0.18135153 -0.19718549
-0.06396458 -0.15015829 -0.08871062 -0.12717873 -0.1788291 -0.1092186 -0.17388345 -0.05226827
-0.11832483 -0.15506145 -0.26119888 -0.1655812 -0.3100196 -0.2755674 -0.10140935 -0.101476476
-0.08600644 -0.12906767 -0.14379665 -0.1477172 -0.3197683 0.022389648 -0.06945221 -0.049105402
-0.11334216 -0.12047539 -0.15296888 -0.049588352 -0.230489 -0.29057992 -0.17056336 -0.2263429
-0.2132731 -0.1325152 -0.119400814 -0.06277887 -0.059946116 -0.17777479 -0.10017678 -0.27118933
-0.04331782 -0.25766006 -0.29630584 -0.20053235 -0.25308648 -0.01663364 -0.14386892 -0.16786562
-0.036337987 -0.23095313 -0.062618986 -0.06096312 -0.1245993 -0.15794894 -0.050741643 -0.2910172
-0.25525835 -0.15534122 -0.07865203 -0.06876878 0.04777846 -0.1459245 -0.22487147 -0.08478903
-0.15563035 -0.06431685 -0.29940483 -0.20450418 -0.082147926 -0.028124237 -0.2245961 -0.11539212
-0.18003042 -0.0998394 -0.18015207 -0.14190082 -0.036830388 -0.09372496 -0.097131096 -0.13795556
-0.20737715 -0.08692149 -0.16976036 -0.19894525 -0.05859503 -0.25133124 -0.06347533 -0.17362544
-0.04107538 -0.16689101 -0.11575604 -0.16900098 -0.29822543 -0.18719049 -0.17832258 -0.13325347
-0.19762763 -0.16734588 -0.122771524 -0.047067035 -0.09997508 -0.15263505 -0.1223773 -0.2400619
-0.13417011 -0.22838113 0.021055434 -0.14390047 -0.17330547 -0.15815718 -0.12571082 -0.08100548
-0.15015006 -0.26756886 0.14934902 -0.035409495 -0.09240371 -0.32463622 -0.022015093 -0.23622629
-0.16255793 -0.08785517 0.06810191 -0.15134583 -0.039098468 -0.17834802 -0.12331615 -0.15012155
00000000: 2898 94bd 42c4 46be 0216 ebbd 34a4 d8bd
00000010: 6504 17be 47d4 6abe ea7b 143d 48ff 4bbe
00000020: 26a9 44be f2b2 22be 65ce 03be 8461 9abd
00000030: 1642 61be a174 4bbe 1800 73be 7457 56be
00000040: c0c5 7cbe d2ad 09bd 23c8 20be d575 a23c
00000050: b6ab bcbd 83ff 1dbe cd3e 16be 5691 e5bd
00000060: 7108 d3bd 4a98 12be 5905 5cbe 75c3 31be
00000070: 9236 43be 66f9 813b 9c29 abbd dd3b 7ebe
00000080: 2ec3 83be 64b1 cbbe 8d29 d4bd ae7a 5cbe
00000090: 65c6 cbbd a7df 89bd 8c06 9abd bd35 95be
000000a0: 018b dfbd 1c8d 90be da27 66bd 3c55 d0bd
000000b0: e150 01be 661e 06be 7a73 41be 242e aebc
000000c0: def7 56be d629 b2bd 4118 963b f9a3 0bbe
000000d0: a741 6fbd 8d1c 07be 1bf9 5d3d 33ce 6ebd
000000e0: 5dce 45be a142 85be 3d38 26be ca03 14be
000000f0: 3b75 29be c69c dcbd 74b9 00be ba15 febb
00000100: 43c8 42be 8f91 1cbe ab6e 78be 5582 80be
00000110: 0bcf e6bd 4b83 2abe 5e00 99bd 36ee f63c
00000120: ad99 cbbd a5ea 30bd 68d7 e8bd d3e5 93be
00000130: 6f92 97be b299 0dbe e4db 10be d5d3 38be
00000140: d6dc 14be 9edc 03bd 5261 f9bd 026f 68be
00000150: 25a1 52be d1cf a9bd 889e 0ebe f486 80be
00000160: 6fae a7bd 82c5 68be 8573 71be 1caa 41be
00000170: 91f3 24be e261 d9bd bf60 eabd cae3 55be
00000180: f29c 71be 3c78 8abd da9d 48be a943 39be
00000190: a046 f0bd cc7e 2bbe 189a 45be 739c 3cbe
000001a0: bba3 0cbe d25e efbd 3b99 13be d4a0 95bb
000001b0: c58c a1bd 5b8e 46be eb84 1cbe efd6 13be
000001c0: e6cb f2bc bb24 41be 1437 89be 56b1 ecbd
000001d0: e852 0dbe 4595 94bd 9d7c 56be e8d6 05be
000001e0: 84a9 88bd 35c5 4dbd 5d5f 0dbd 0abf 19be
000001f0: 0390 21be 8206 bbbd 37b4 39be feea 49be
00000200: ddff 82bd 18c3 19be eaad b5bd 243b 02be
00000210: fa1e 37be 00ae dfbd 810e 32be 4117 56bd
00000220: 4a54 f2bd 6ec8 1ebe dcbb 85be 1e8e 29be
00000230: e4ba 9ebe 2c17 8dbe b5af cfbd e6d2 cfbd
00000240: 2524 b0bd 512a 04be 6e3f 13be 2d43 17be
00000250: acb8 a3be 7f6a b73c f63c 8ebd bf22 49bd
00000260: ef1f e8bd cdbb f6bd e0a3 1cbe 281d 4bbd
00000270: 4f05 6cbe e4c6 94be 29a8 2ebe 6fc6 67be
00000280: 4364 5abe 11b2 07be 6a88 f4bd 3592 80bd
00000290: 0f8a 75bd 980a 36be 7c29 cdbd 54d9 8abe
000002a0: 076e 31bd 05ec 83be 66b5 97be 5a58 4dbe
000002b0: 8d94 81be 4543 88bc 6052 13be f7e4 2bbe
000002c0: 24d7 14bd fa7e 6cbe 623e 80bd 77b4 79bd
000002d0: eb2d ffbd 5ebd 21be 78d6 4fbd 3500 95be
000002e0: 39b1 82be c511 1fbe 5114 a1bd a5d6 8cbd
000002f0: 59b3 433d 3b6d 15be b544 66be dfa5 adbd
00000300: 905d 1fbe 8db8 83bd 974b 99be 8b69 51be
00000310: 2c3d a8bd cd64 e6bc 85fc 65be b452 ecbd
00000320: e559 38be 9978 ccbd c979 38be 734e 11be
00000330: 76db 16bd dff2 bfbd abec c6bd 3944 0dbe
00000340: ad5a 54be e503 b2bd a9d5 2dbe 4eb8 4bbe
00000350: 5801 70bd 7dae 80be 5bff 81bd deca 31be
00000360: a83e 28bd 7ae5 2abe 8111 edbd 980e 2dbe
00000370: 01b1 98be ddae 3fbe 329a 36be 9973 08be
00000380: e65e 4abe b85c 2bbe a36f fbbd 5dc9 40bd
00000390: bcbf ccbd 5d4c 1cbe f3a0 fabd c9d2 75be
000003a0: e463 09be bedc 69be 727c ac3c a55a 13be
000003b0: fd76 31be f5f3 21be 56ba 00be 33e6 a5bd
000003c0: f0c0 19be c9fe 88be f3ee 183e 8c09 11bd
000003d0: 283e bdbd b836 a6be ff58 b4bc 4ee5 71be
000003e0: 9675 26be 69ed b3bd 0479 8b3d 67fa 1abe
000003f0: b725 20bd dda0 36be 2d8d fcbd 77b9 19be

fc2.weight f4 [128, 256]
0.018089142 0.06072327 -0.019148085 -0.0028311445 0.0481948 -0.06974628 -0.03542592 -0.083558396
-0.027179727 -0.016139714 -0.065972514 -0.060043264 -0.038795155 -0.03560654 -0.028095039 0.042568512
-0.07496735 -0.041832708 -0.04903093 0.0016648425 -0.07140374 -0.0064489273 -0.026301194 -0.019192226
-0.017184487 -0.051376957 -0.047604773 -0.0312804 0.044211067 0.029783122 -0.011753675 -0.05440915
0.038767874 0.0009888548 -0.09804554 -0.01808504 -0.061475974 0.029720131 0.016748449 -0.0017163904
0.038476516 -0.039846152 -0.027923591 -0.014554235 -0.0752257 -0.029765295 0.012823098 0.009936561
-0.019331902 -0.10477678 -0.047134418 -0.0058452142 -0.045719914 -0.021545008 -0.0019338097 0.0563157
-0.03741766 0.04090656 -0.042798534 -0.031126652 -0.04063346 -0.030073702 -0.034266107 -0.0019291212
-0.049864527 -0.008750842 -0.057922423 -0.020637548 -0.09816541 -0.008959886 0.07011287 0.025470281
0.0074562314 -0.05506719 -0.025737712 0.00066436705 -0.004275304 -0.006716007 -0.03834186 -0.024043934
0.026887385 -0.051625915 -0.0060804095 -0.05142241 -0.06191027 0.051122423 -0.039163318 -0.05059263
-0.039023 0.009222074 -0.01787589 -0.050759044 0.022587586 0.05219361 0.056186296 -0.056302994
-0.00013480494 0.02557682 -0.031125594 -0.05110154 -0.099225126 -0.00054731383 0.010024684 -0.07313491
-0.025901128 -0.01868402 0.0030518363 -0.05511831 0.049206343 -0.054971483 -0.046341717 -0.041698594
0.029228613 -0.012427353 -0.03579975 0.018391322 -0.10234927 -0.04416201 0.06912622 0.012697475
-0.071952075 -0.06700432 -0.07058649 -0.0329976 -0.0175398 -0.057495438 0.040108323 -0.037444416
0.0031180342 -0.039911676 -0.021489942 0.0045031863 0.016311577 -0.045631252 -0.0010067787 -0.029090913
-0.016399601 0.0056494176 -0.085779175 0.0130377235 0.023175403 -0.08097869 0.020953076 0.008601316
-0.05032928 -0.021035772 -0.084671184 -0.035625964 -0.03889739 -0.07883226 -0.029188385 -0.015109756
0.0018989252 0.011257283 0.032943167 0.03916234 -0.028319309 -0.06351543 -0.03138929 -0.07554692
0.0010660059 -0.021707194 -0.05775333 -0.07706877 -0.06362749 -0.05344568 -0.02727088 0.006761632
-0.03705859 0.030737868 -0.024048133 -0.045777068 -0.013501078 -0.00053283543 0.008765397 0.0042642155
-0.019178277 -0.07907513 0.009826205 -0.0355826 -0.0014717162 0.034866147 -0.076815166 -0.08251003
-0.06603286 -0.0050312825 0.013464644 -0.030645616 0.024472767 0.065654166 -0.030124163 0.00069108355
-0.036984194 -0.03645495 0.046380993 -0.06899347 -0.06945806 0.02624081 0.04600548 0.0060981396
-0.03354528 0.04478383 -0.044211127 -0.05726339 -0.023273807 0.06077491 -0.028719261 0.0193901
-0.030779328 -0.027461931 -0.033332903 0.034509763 -0.042584863 -0.0016193604 -0.032450624 -0.03906014
-0.037800808 -0.08931065 -0.01190697 0.022644103 -0.07332843 0.012715187 -0.007886246 0.0014828021
-0.02624214 -0.049629748 0.008650466 -0.043319654 -0.026416827 -0.0462874 -0.05602777 -0.067797236
0.016833723 -0.049215175 -0.08047446 -0.02324237 0.0022411717 0.026986074 0.007011056 -0.03035827
0.0054931203 -0.0009224389 -0.026465196 -0.019797303 0.00499312 -0.006010671 -0.041823998 -0.030986287
-0.00752653 -0.006520149 -0.006151194 -0.004528912 0.0007933037 -0.014301795 0.03619742 0.026799291
00000000: ae2f 943c f7b8 783d 72dc 9cbc b98a 39bb
00000010: e967 453d 23d7 8ebd c51a 11bd aa20 abbd
00000020: 05a8 debc 6f37 84bc 991c 87bd edef 75bd
00000030: abe7 1ebd 2ad8 11bd 9127 e6bc 525c 2e3d
00000040: 7b88 99bd c658 2bbd a8d4 48bd d836 da3a
00000050: 203c 92bd 8651 d3bb 9a75 d7bc 0439 9dbc
00000060: 7bc6 8cbc a570 52bd 39fd 42bd e01f 00bd
00000070: aa16 353d bcfb f33c 7c92 40bc 21dc 5ebd
00000080: 10cb 1e3d 769c 813a 1acc c8bd 1427 94bc
00000090: 3bce 7bbd a277 f33c 0b34 893c 81f8 e0ba
000000a0: 8d99 1d3d b835 23bd 04c0 e4bc e374 6ebc
000000b0: ef0f 9abd 59d6 f3bc f917 523c f5cc 223c
000000c0: f05d 9ebc 3595 d6bd 0510 41bd 3689 bfbb
000000d0: ce44 3bbd 287f b0bc e377 fdba 4bab 663d
000000e0: 4343 19bd a38d 273d 844d 2fbd 52fd febc
000000f0: 456f 26bd 205d f6bc 9e5a 0cbd 91da fcba
00000100: bf3e 4cbd b15f 0fbc 1040 6dbd 1310 a9bc
00000110: f20a c9bd 7ccc 12bc 5697 8f3d 0da7 d03c
00000120: 6753 f43b 228e 61bd e5d7 d2bc eb28 2e3a
00000130: d917 8cbb f311 dcbb 5b0c 1dbd c9f7 c4bc
00000140: ef42 dc3c b275 53bd 2c3e c7bb 4ea0 52bd
00000150: a095 7dbd bf65 513d b769 20bd 383a 4fbd
00000160: 95d6 1fbd 2f18 173c 7570 92bc b7e8 4fbd
00000170: 9a09 b93c f8c8 553d 9a23 663d f89d 66bd
00000180: 6d5a 0db9 7b86 d13c 1afb febc d94f 51bd
00000190: 8b36 cbbd 9c79 0fba 923e 243c c1c7 95bd
000001a0: 9a2e d4bc 3b0f 99bc 5101 483b bdc3 61bd
000001b0: 978c 493d c729 61bd d0d0 3dbd 25cc 2abd
000001c0: d870 ef3c 199c 4bbc c2a2 12bd 66a9 963c
000001d0: 7e9c d1bd 39e3 34bd 0c92 8d3d 1209 503c
000001e0: 9c5b 93bd 9039 89bd a68f 90bd 7e28 07bd
000001f0: a0af 8fbc 5680 6bbd a048 243d 515f 19bd
00000200: ef57 4c3b 6d7a 23bd ad0b b0bc 778f 933b
00000210: db9f 853c d6e7 3abd e3f5 83ba 1150 eebc
00000220: 7558 86bc c01e b93b feac afbd 2d9c 553c
00000230: 58da bd3c 28d8 a5bd c9a5 ab3c 89ec 0c3c
00000240: 1326 4ebd 3653 acbc 1668 adbd 88ec 11bd
00000250: df52 1fbd cf72 a1bd 7b1c efbc e98e 77bc
00000260: 5be5 f83a 7870 383c 6aef 063d b168 203d
00000270: e5fd e7bc 6114 82bd 0e92 00bd 58b8 9abd
00000280: 39b9 8b3a 49d3 b1bc c18e 6cbd 3bd6 9dbd
00000290: 214f 82bd dbe9 5abd 2e67 dfbc ae90 dd3b
000002a0: c0ca 17bd fbcd fb3c 9700 c5bc bc80 3bbd
000002b0: a033 5dbc fbad 0bba bd9c 0f3c d5ba 8b3b
000002c0: c31b 9dbc 24f2 a1bd 17fe 203c 0fbf 11bd
000002d0: 9ae6 c0ba cecf 0e3d 4551 9dbd 05fb a8bd
000002e0: 3c3c 87bd 75dd a4bb cf9a 5c3c 840c fbbc
000002f0: 1d7b c83c b175 863d f3c6 f6bc d529 353a
00000300: bd7c 17bd c951 15bd fff9 3d3d 734c 8dbd
00000310: 0740 8ebd f8f6 d63c 3e70 3c3d e7d2 c73b
00000320: c766 09bd 406f 373d ba16 35bd 048d 6abd
00000330: b6a8 bebc 1def 783d a844 ebbc fdd7 9e3c
00000340: ee24 fcbc d8f7 e0bc 1588 08bd 1c5a 0d3d
00000350: 776d 2ebd b840 d4ba f2ea 04bd 86fd 1fbd
00000360: 05d5 1abd 81e8 b6bd 7415 43bc 2080 b93c
00000370: 372d 96bd 5c53 503c 5035 01bc 955a c23a
00000380: c2f9 d6bc 9048 4bbd afba 0d3c f36f 31bd
00000390: 1a68 d8bc db97 3dbd 607d 65bd 47d9 8abd
000003a0: e0e6 893c da95 49bd cbcf a4bd c866 bebc
000003b0: 9fe0 123b e611 dd3c 00bd e53b e8b1 f8bc
000003c0: a2ff b33b d4cf 71ba 8acd d8bc f42d a2bc
000003d0: 549d a33b 2af5 c4bb a44f 2bbd f4d6 fdbc
000003e0: 1ca1 f6bb f9a6 d5bb f58f c9bb 4467 94bb
000003f0: b6f5 4f3a 1352 6abc bf43 143d 308a db3c

fc2.bias f4 [128]
0.017096981 0.017126227 -0.07692387 0.02836918 -0.11088658 -0.010940575 0.033467308 -0.019840034
-0.009599921 0.0033257008 -0.013618733 -0.046456125 -0.058082588 -0.08583621 0.0028170391 -0.07391989
-0.07843965 -0.045376025 -0.044775307 -0.07737678 0.012955561 0.012315701 -0.028134212 -0.06259184
-0.047553085 -0.017911587 -0.09624036 0.022985063 -0.02649885 -0.036458958 -0.058724143 0.005775481
-0.07360582 -0.0077050324 0.018068153 0.041031502 -0.042436704 0.039346796 -0.009949452 -0.005411912
0.031332787 0.015091534 -0.0144551555 -0.058238875 -0.020927273 -0.010589317 -0.06643859 -0.017703488
-0.07395403 -0.009884204 -0.07260777 -0.059053093 -0.042837437 -0.0478954 -0.12809336 -0.087011136
-0.019391347 -0.011276261 -0.0013237535 -0.034608133 0.051815476 -0.05122633 -0.034328517 0.009454231
-0.02204364 -0.027027043 -8.469972e-05 0.00077558454 -0.04796361 -0.092547104 -0.008511633 -0.024029057
0.012378813 0.0124967145 -0.05000187 -0.07134392 -0.0028337513 -0.027291527 -0.07539153 0.029792406
-0.005211258 -0.048820693 -0.0079495795 0.023540696 0.05021651 -0.017966742 -0.023067052 -0.012549757
-0.06409974 -0.045609716 -0.038538396 -0.07325486 0.014879167 0.0048021227 0.027333984 -0.03373704
0.031054182 -0.102514386 -0.06580899 -0.030335607 -0.058274426 0.024746891 0.02420243 -0.030687386
-0.032098442 -0.015892867 -0.02319632 -0.05989114 -0.087071575 -0.02154053 -0.06186106 -0.04420359
0.023585323 -0.036303155 0.029546494 0.026110854 -0.0042634383 0.016317999 -0.01116388 0.011657696
0.02044916 -0.026404416 -0.020631084 0.029759716 -0.05656286 -0.0005451053 -0.017263686 -0.07819577
00000000: f80e 8c3c 4d4c 8c3c 438a 9dbd 7c66 e83c
00000010: 8118 e3bd 1940 33bc 0415 093d 9187 a2bc
00000020: fd48 1dbc 00f4 593b 1b21 5fbc c748 3ebd
00000030: 02e8 6dbd e5ca afbd 139e 383b 5063 97bd
00000040: f8a4 a0bd 36dc 39bd 5066 37bd b877 9ebd
00000050: 9043 543c cbc7 493c b879 e6bc 2730 80bd
00000060: 06c7 42bd 52bb 92bc aa19 c5bd 2c4b bc3c
00000070: 1e14 d9bc fd55 15bd ba88 70bd 3f40 bd3b
00000080: a6be 96bd 7f7a fcbb aa03 943c a610 283d
00000090: 1cd2 2dbd 1b2a 213d 0703 23bc 6956 b1bb
000000a0: cf56 003d 7b42 773c 51d5 6cbc e38b 6ebd
000000b0: ac6f abbc d17e 2dbc f510 88bd e806 91bc
000000c0: 3675 97bd 5bf1 21bc 62b3 94bd a8e1 71bd
000000d0: 4f76 2fbd f82d 44bd e82a 03be e532 b2bd
000000e0: 9ada 9ebc 11c0 38bc cc81 adba 42c1 0dbd
000000f0: 773c 543d b3d2 51bd 0f9c 0cbd ebe5 1a3c
00000100: dd94 b4bc d167 ddbc d1a0 b1b8 9950 4b3a
00000110: 7e75 44bd 5689 bdbd 6074 0bbc 96d8 c4bc
00000120: 81d0 4a3c 05bf 4c3c c3ce 4cbd c31c 92bd
00000130: 75b6 39bb 7b92 dfbc e066 9abd 340f f43c
00000140: 33c3 aabb 35f8 47bd f43e 02bc 6bd8 c03c
00000150: d4af 4d3d fd2e 93bc 1df7 bcbc 7f9d 4dbc
00000160: b946 83bd 41d1 3abd 70da 1dbd a506 96bd
00000170: c0c7 733c 205b 9d3b 85eb df3c da2f 0abd
00000180: 5765 fe3c 10f3 d1bd ddc6 86bd 6182 f8bc
00000190: 2ab1 6ebd feb9 ca3c 2d44 c63c 1d64 fbbc
000001a0: a879 03bd c231 82bc 3506 bebc 6950 75bd
000001b0: 9552 b2bd c475 b0bc 0662 7dbd d30e 35bd
000001c0: 0236 c13c 9eb2 14bd 7d0b f23c 6ee6 d53c
000001d0: 50b4 8bbb 53ad 853c b5e8 36bc ecff 3e3c
000001e0: ff84 a73c 134e d8bc 8502 a9bc a6ca f33c
000001f0: 75ae 67bd 66e5 0eba 936c 8dbc 1b25 a0bd

fc3.weight f4 [64, 128]
0.0009583535 -0.059358083 0.004285531 0.08592205 0.03411202 0.029314209 0.11444627 0.021619951
0.048667606 -0.0011697975 0.026355892 -0.059974518 -0.026632098 0.008350203 0.01512736 0.009405069
0.022275556 -0.03255474 -0.0010261651 -0.04853151 -0.061423693 -0.093802296 0.050031465 0.0445887
0.06625947 0.008138043 0.03504491 -0.033242963 -0.030885618 -0.08765299 -0.06735665 0.011805077
-0.031644087 0.090511575 0.017745912 -0.08254384 -0.091487035 0.048365086 -0.06985662 -0.0576077
-0.037953407 -0.067978 -0.040558327 -0.11282637 -0.12642637 -0.07949443 0.010098148 0.010617997
-0.023777522 -0.057906713 -0.08998072 0.07878478 0.06392836 -0.000667054 -0.02161039 -0.030515227
-0.008463435 -0.08407381 -0.10232828 -0.07299878 -0.09543318 0.05406951 0.07946371 -0.06677602
0.013272206 -0.053956814 -0.04213086 -0.04234373 0.02104686 -0.030482464 0.009513055 0.056485042
-0.041075032 -0.013821287 -0.031043777 -0.05973949 -0.21739419 -0.041252535 -0.046322525 0.080864586
-0.006071797 -0.042335417 0.053404376 0.017060371 -0.18845522 0.009506134 0.0025149146 -0.071514815
0.051647056 0.0007583913 -0.080204055 -0.014322361 -0.032081123 0.076635614 -0.02255741 -0.0898592
0.006670529 -0.028219247 0.045546614 0.01797531 -0.02819583 -0.06609093 -0.04112139 0.049857404
-0.022464326 -0.041244317 -0.099914834 -0.005001123 -0.042515688 -0.06667287 0.014085893 -0.017085612
-0.001975584 -0.07098468 0.041183636 -0.061567053 0.0556923 -0.037011407 -0.021655025 -0.055901136
0.079179496 0.059817538 -0.054168567 -0.04941418 -0.03961615 -0.056593463 0.08301563 -0.024145791
-0.09351982 0.027495043 -0.07523705 0.013860381 -0.0604891 -0.04919634 -0.12622757 -0.053432904
0.029056596 -0.061879404 -0.095452145 0.06591369 0.06824114 0.018389761 -0.06558053 -0.039627247
-0.020879272 -0.06745959 0.03655487 0.0033701558 0.06567207 -0.06922248 -0.012842212 0.021595757
-0.050715495 0.06108869 -0.077356145 0.02612261 -0.08407472 -0.09053109 -0.09112854 0.00916854
-0.04914256 -0.09946415 -0.008482833 0.04109255 -0.014759423 0.07051681 -0.11322725 -0.00018954503
0.064063326 0.055747993 -0.07727905 0.034993533 -0.018562164 0.0061990875 -0.026136776 -0.094920635
-0.092995614 -0.08437817 0.0024088114 -0.05227305 0.027314942 0.06046125 -0.012193053 0.044482403
-0.0048056627 -0.16529465 -0.065976106 -0.028538382 -0.13233227 -0.051663373 -0.044738196 -0.00654755
0.01456445 -0.08325246 -0.06882202 -0.06600176 0.025316212 -0.015899628 -0.016677998 -0.036049467
0.044081427 0.054178867 0.08237272 0.08748395 -0.07025341 -0.0861784 0.01903736 0.022476146
-0.08122387 -0.0818514 -0.027698118 -0.057237938 -0.1089121 0.001852203 -0.049101133 -0.0052275416
-0.08415567 0.024887204 0.17977466 0.073139906 -0.07341989 0.05460009 -0.10546981 -0.07307168
-0.04423598 -0.10171949 0.04944092 -0.0967559 0.079958074 0.00946051 0.076401524 -0.031061009
-0.086066484 -0.023803646 -0.017206918 0.00066415215 -0.07915689 -0.06909814 -0.007212338 -0.036997676
0.059021484 0.094938815 -0.014645528 -0.060885713 -0.06319075 0.04073364 -0.036949065 -0.05346741
0.015070566 0.037311096 -0.12681228 -0.043743208 -0.14360416 0.10470283 -0.008316249 -0.08404933
00000000: 043a 7b3a 7621 73bd a46d 8c3b e6f7 af3d
00000010: 0cb9 0b3d 5a24 f03c ce62 ea3d 531c b13c
00000020: af57 473d e453 99ba 50e8 d73c d7a7 75bd
00000030: 8f2b dabc 4acf 083c bfd8 773c b817 1a3c
00000040: 3a7b b63c 1e58 05bd 6380 86ba fac8 46bd
00000050: 6997 7bbd 6b1b c0bd cbed 4c3d a4a2 363d
00000060: 0cb3 873d 6d55 053c 408b 0f3d c629 08bd
00000070: d603 fdbc 6983 b3bd 49f2 89bd 156a 413c
00000080: 3b9d 01bd 225e b93d e05f 913c bf0c a9bd
00000090: 8e5d bbbd 781a 463d fd10 8fbd 0df6 6bbd
000000a0: 0875 1bbd 0d38 8bbd 7d20 26bd 8311 e7bd
000000b0: ea75 01be facd a2bd b472 253c 1bf7 2d3c
000000c0: 14c9 c2bc 972f 6dbd d047 b8bd ea59 a13d
000000d0: dfec 823d 3cdd 2eba 4608 b1bc 12fb f9bc
000000e0: 38aa 0abc e42e acbd 7d91 d1bd 6280 95bd
000000f0: 7972 c3bd fe77 5d3d dfbd a23d dec1 88bd
00000100: ab73 593c d201 5dbd 6991 2cbd 9e70 2dbd
00000110: 776a ac3c 5cb6 f9bc a5dc 1b3c dc5c 673d
00000120: 4b3e 28bd ae72 62bc 854f febc 65b1 74bd
00000130: 959c 5ebe 6bf8 28bd b0bc 3dbd 559c a53d
00000140: edf5 c6bb e767 2dbd 8cbe 5a3d 31c2 8b3c
00000150: 68fa 40be 9ebf 1b3c 44d1 243b 5c76 92bd
00000160: dd8b 533d c7ce 463a 0642 a4bd 56a8 6abc
00000170: 7f67 03bd 22f3 9c3d 51ca b8bc 1a08 b8bd
00000180: 7494 da3b 0d2c e7bc 168f 3a3d f540 933c
00000190: f1fa e6bc ae5a 87bd e76e 28bd 4737 4c3d
000001a0: 1b07 b8bc cdef 28bd 26a0 ccbd 76e0 a3bb
000001b0: ee24 2ebd c98b 88bd 84c8 663c 20f7 8bbc
000001c0: cd78 01bb 6a60 91bd 2cb0 283d bc2d 7cbd
000001d0: 9c1d 643d 4699 17bd e165 b1bc 97f8 64bd
000001e0: dc28 a23d 3c03 753d dcdf 5dbd 8666 4abd
000001f0: 8b44 22bd 8cce 67bd 1904 aa3d 65cd c5bc
00000200: 5287 bfbd 493d e13c e215 9abd a716 633c
00000210: 6bc3 77bd 1a82 49bd cd41 01be 76dc 5abd
00000220: 1908 ee3c 4275 7dbd 6a7c c3bd c2fd 863d
00000230: 03c2 8b3d 20a6 963c 164f 86bd 2e50 22bd
00000240: 020b abbc 4128 8abd 8fba 153d d5dd 5c3b
00000250: 147f 863d 84c4 8dbd 2468 52bc 96e9 b03c
00000260: 0dbb 4fbd 2238 7a3d e66c 9ebd 15ff d53c
00000270: 5e2f acbd 5d68 b9bd 9aa1 babd a537 163c
00000280: b649 49bd dcb3 cbbd 95fb 0abc a950 283d
00000290: 82d1 71bc 1e6b 903d b0e3 e7bd 9bc0 46b9
000002a0: a233 833d 0258 643d 7b44 9ebd 6155 0f3d
000002b0: ae0f 98bc b721 cb3b cb1c d6bc c065 c2bd
000002c0: 7c74 bebd 76ce acbd 26dd 1d3b 441c 56bd
000002d0: 96c3 df3c 37a6 773d 5fc5 47bc 2e33 363d
000002e0: d278 9dbb 0043 29be 7b1e 87bd 53c9 e9bc
000002f0: 1c82 07be f99c 53bd 663f 37bd d58c d6bb
00000300: bb9f 6e3c 4480 aabd 8ff2 8cbd ee2b 87bd
00000310: f263 cf3c f03f 82bc 4ca0 88bc 9ba8 13bd
00000320: ba8e 343d a9ea 5d3d 07b3 a83d c92a b33d
00000330: 05e1 8fbd 4d7e b0bd 3df4 9b3c e51f b83c
00000340: b358 a6bd b5a1 a7bd 2ae7 e2bc 5472 6abd
00000350: 4f0d dfbd 9fc5 f23a 451e 49bd cc4b abbb
00000360: cf59 acbd 40e0 cb3c d916 383e 60ca 953d
00000370: 2b5d 96bd 58a4 5f3d 8e00 d8bd 9ba6 95bd
00000380: c930 35bd 4f52 d0bd 9082 4a3d f527 c6bd
00000390: 0fc1 a33d 4100 1b3c 6778 9c3d a873 febc
000003a0: a043 b0bd ddff c2bc 86f5 8cbc 7f1a 2e3a
000003b0: 021d a2bd 5383 8dbd 7a55 ecbb e08a 17bd
000003c0: 83c0 713d 486f c23d ccf3 6fbc 4c63 79bd
000003d0: 276a 81bd 51d8 263d e757 17bd a500 5bbd
000003e0: 89ea 763c 85d3 183d 14db 01be 142c 33bd
000003f0: f80c 13be 706e d63d e040 08bc 0e22 acbd

fc3.bias f4 [64]
0.0055145007 -0.11354402 -0.19161233 -0.036019746 0.019394735 -0.044288956 0.018594095 -0.06598954
-0.15199813 -0.17600273 -0.13993031 0.15904497 -0.039099723 -0.22682977 -0.022243472 0.06569391
-0.031185888 -0.07299294 -0.06343198 -0.15230745 0.0027990784 -0.11881815 -0.074652925 -0.14790872
-0.039460447 0.020431442 -0.068244636 -0.1852014 -0.012138762 -0.07184458 -0.07092867 -0.04612418
-0.18794958 -0.08663885 0.012350697 0.07336626 -0.16410181 -0.13881624 -0.050255887 0.012001447
-0.04722066 -0.13199645 -0.11734463 -0.124176 -0.06443746 0.10199158 -0.07401174 0.008005951
-0.09331253 0.030698255 -0.17705417 -0.019758666 -0.017782513 -0.10253715 0.079429924 -0.19499317
-0.04730777 -0.14902124 -0.038986642 0.073154695 -0.19503598 -0.0038374995 -0.01495091 0.042271692
00000000: fcb2 b43b c489 e8bd 0636 44be 7189 13bd
00000010: b5e1 9e3c 5668 35bd a552 983c 8625 87bd
00000020: 66a5 1bbe 0f3a 34be e449 0fbe afdc 223e
00000030: 0827 20bd 1046 68be f137 b6bc 878a 863d
00000040: 8c79 ffbc 537d 95bd a0e8 81bd 7cf6 1bbe
00000050: be70 373b ee56 f3bd a2e3 98bd 6275 17be
00000060: 47a1 21bd d75f a73c d8c3 8bbd 70a5 3dbe
00000070: a8e1 46bc 4023 93bd 0d43 91bd b5ec 3cbd
00000080: db75 40be b66f b1bd 945a 4a3c 0d41 963d
00000090: 4e0a 28be d825 0ebe 1ed9 4dbd b8a1 443c
000000a0: 736a 41bd 142a 07be 6252 f0bd fd4f febd
000000b0: c9f7 83bd f6e0 d03d 7893 97bd 642b 033c
000000c0: a41a bfbd e87a fb3c b04d 35be eddc a1bc
000000d0: a2ac 91bc fffe d1bd 28ac a23d 4aac 47be
000000e0: cbc5 41bd 0699 18be 75b0 1fbd 21d2 953d
000000f0: 83b7 47be 8f7e 7bbb a9f4 74bc 1525 2d3d

fc4.weight f4 [32, 64]
0.07181201 -0.12208906 -0.021913225 -0.25097468 0.055993244 -0.0311244 -0.10716784 -0.037408266
-0.060613103 -0.11758445 0.048407532 -0.19764936 0.10075674 0.03433053 0.088749826 0.012430758
-0.06685693 0.05000207 -0.08406286 -0.17933986 -0.054731756 0.09646295 0.061943907 0.034243744
0.11801258 0.09170727 0.04356583 0.02230375 -0.005964092 0.034974664 -0.16905117 -0.1572896
-0.000297646 0.040936183 0.002938268 -0.12150471 0.0060269753 0.043427996 -0.055176336 -0.05755109
0.008080295 -0.054259595 -0.060860567 -0.17225708 -0.021072388 -0.07499025 0.04736841 -0.14310463
-0.04507463 0.013900435 0.060469728 -0.11150772 -0.009410901 -0.1521493 0.045305416 -0.06691624
-0.11354239 -0.056229126 0.021443347 0.06270875 0.051512334 -0.08259833 -0.0822206 -0.05057903
-0.006455977 0.022243759 -0.031919148 -0.23386866 0.10245563 -0.009691933 -0.013356844 -0.08561648
-0.13318796 -0.11880772 -0.15360342 -0.07395411 0.030789059 -0.031547848 0.010100102 -0.08089349
0.03807468 0.08418132 0.04470975 -0.004595245 0.13686086 -0.06328458 -0.012248453 -0.00869729
-0.09568873 -0.13049825 -0.07387427 -0.012689035 0.12732032 -0.12489944 0.055388685 -0.013222016
-0.019431345 0.08414081 -0.032143235 -0.2045978 0.08872888 -0.11852445 -0.036198214 -0.044971056
0.008161921 0.04478729 0.017849147 0.13485034 -0.13576718 0.18054868 0.01655559 0.11847562
0.08028101 0.0023864275 -0.085041955 0.0031063145 0.010747847 -0.0778331 -0.15790291 -0.02642153
0.09436142 0.021998683 -0.06607162 -0.04945018 -0.09124052 0.14411712 -0.06575681 0.1174988
0.051809676 0.0974918 0.058866516 -0.05113855 0.036615364 0.051853888 -0.17705879 0.082629286
-0.04060266 -0.0049652597 0.032849107 -0.110612325 0.07271037 -0.10771401 -0.023632316 0.017088378
-0.12560976 0.0898653 0.08843413 -0.08218261 -0.11485625 0.086256556 0.0818968 -0.034562487
0.0003232518 0.05906749 -0.1096795 0.0585326 -0.10604382 -0.026094507 -0.11901864 -0.108785436
0.008220105 -0.077470206 -0.08512703 -0.09806619 0.0595514 0.021120666 0.03526568 -0.06180091
-0.13674378 -0.08072804 -0.106396385 -0.0075969035 0.009104 0.08741845 0.0639267 -0.19176967
0.08696242 0.040075086 -0.029920546 -0.11701079 -0.043009125 -0.062309336 0.031385913 -0.023245199
-0.050696112 -0.0052121277 0.08004935 -0.049833458 0.035184834 0.017946072 -0.15105736 0.033413544
0.09967442 -0.20015958 0.13032676 -0.25972715 -0.06710942 0.077598594 -0.16637106 0.020017458
-0.06759605 -0.027964078 0.031926792 0.0012767377 0.08281238 0.019266589 -0.1553738 -0.14349999
-0.03618154 -0.11725915 -0.05689878 -0.05188106 -0.013498181 -0.09840449 0.0050182836 -0.047881123
-0.11782601 0.00024857622 -0.14135252 0.018720277 -0.045363322 0.054288626 -0.09276864 -0.16946338
-0.056122374 -0.18972123 0.04909248 -0.048535533 -0.15280488 0.029661475 0.016960725 -0.0059921285
0.10104621 0.064866714 -0.1418324 0.07926463 -0.0468335 0.09953954 -0.054663718 -0.053031866
-0.06999637 -0.056427654 0.018741256 -0.087082654 0.005232614 -0.23271777 0.02397857 -0.1415342
-0.10462613 0.10967256 -0.07939748 0.13187188 -0.14414167 -0.020010427 -0.13861014 -0.053452644
00000000: 2d12 933d d409 fabd 5d83 b3bc c17f 80be
00000010: 2c59 653d 99f8 febc d07a dbbd 6939 19bd
00000020: 7245 78bd 1ed0 f0bd fa46 463d 9864 4abe
00000030: 8d59 ce3d 2b9e 0c3d 78c2 b53d 61aa 4b3c
00000040: 49ec 88bd f8ce 4c3d 2629 acbd dea4 37be
00000050: 682e 60bd 5e8e c53d e5b8 7d3d 2b43 0c3d
00000060: 94b0 f13d 05d1 bb3d 1572 323d 5bb6 b63c
00000070: 6e6e c3bb 9841 0f3d c01b 2dbe 8610 21be
00000080: 5f0d 9cb9 b3ac 273d f58f 403b 76d7 f8bd
00000090: ef7d c53b 8ee1 313d 9500 62bd b1ba 6bbd
000000a0: 3763 043c 4f3f 5ebd ee48 79bd 2964 30be
000000b0: 00a0 acbc 7d94 99bd 6105 423d 058a 12be
000000c0: 2da0 38bd a6be 633c 1baf 773d 295e e4bd
000000d0: 2e30 1abc 07cd 1bbe 2c92 393d 620b 89bd
000000e0: ea88 e8bd 8350 66bd f5a9 af3c 726d 803d
000000f0: 99fe 523d 5029 a9bd 4663 a8bd f52b 4fbd
00000100: a98c d3bb 8b38 b63c a7bd 02bd 447b 6fbe
00000110: 42d4 d13d eaca 1ebc aad6 5abc b157 afbd
00000120: 6d62 08be 7651 f3bd 374a 1dbe 4175 97bd
00000130: 5639 fc3c 5138 01bd e67a 253c 7cab a5bd
00000140: 32f4 1b3d 4267 ac3d 9221 373d b593 96bb
00000150: 4125 0c3e 599b 81bd bcad 48bc 147f 0ebc
00000160: 74f8 c3bd 55a1 05be 654b 97bd ace5 4fbc
00000170: 4260 023e 47cb ffbd 3fdf 623d 28a1 58bc
00000180: 7c2e 9fbc 0452 ac3d a0a8 03bd 1682 51be
00000190: 7db7 b53d f2bc f2bd 9444 14bd 9233 38bd
000001a0: 94b9 053c e172 373d 6038 923c 3516 0a3e
000001b0: 8d06 0bbe c1e1 383e 979f 873c 59a3 f23d
000001c0: 5f6a a43d 9c65 1c3b 7a2a aebd 4f93 4b3b
000001d0: bd17 303c f666 9fbd 4db1 21be f771 d8bc
000001e0: 8f40 c13d 9536 b43c 8f50 87bd 468c 4abd
000001f0: 4fdc babd 7093 133e 82ab 86bd 36a3 f03d
00000200: 6236 543d c8a9 c73d 041e 713d a876 51bd
00000210: fef9 153d be64 543d e64e 35be 8b39 a93d
00000220: fa4e 26bd 9eb3 a2bb c98c 063d b788 e2bd
00000230: 2de9 943d 2a99 dcbd 8f98 c1bc edfc 8b3c
00000240: d89f 00be 4c0b b83d f41c b53d 5b4f a8bd
00000250: c139 ebbd 47a7 b03d 82b9 a73d 6591 0dbd
00000260: 1f7a a939 c1f0 713d a59f e0bd e1bf 6f3d
00000270: 812d d9bd 26c4 d5bc 0bc0 f3bd e6ca debd
00000280: 9fad 063c b3a8 9ebd 1557 aebd edd6 c8bd
00000290: 2bec 733d 3f05 ad3c bf72 103d f322 7dbd
000002a0: 9006 0cbe be54 a5bd 59e6 d9bd 72ef f8bb
000002b0: f228 153c 7208 b33d 00ec 823d 455f 44be
000002c0: 5a19 b23d c625 243d ef1b f5bc 5aa3 efbd
000002d0: 562a 30bd 1338 7fbd 848e 003d b76c bebc
000002e0: baa6 4fbd 7fca aabb eaf0 a33d 2b1e 4cbd
000002f0: f91d 103d a403 933c c8ae 1abe a4dc 083d
00000300: 1a22 cc3d a2f6 4cbe 6174 053e f5fa 84be
00000310: aa70 89bd 03ec 9e3d 2d5d 2abe a7fb a33c
00000320: cc6f 8abd ec14 e5bc abc5 023d 3558 a73a
00000330: 8999 a93d f7d4 9d3c 4f1a 1fbe a9f1 12be
00000340: 1833 14bd 9125 f0bd b20e 69bd 3c81 54bd
00000350: 7927 5dbc 4b88 c9bd 6a70 a43b ff1e 44bd
00000360: c34e f1bd 5653 8239 b7be 10be 445b 993c
00000370: e4ce 39bd c05d 5e3d 7cfd bdbd cf87 2dbe
00000380: 93e0 65bd 4846 42be 3215 493d 32cd 46bd
00000390: e278 1cbe 9ffc f23c 38f1 8a3c 9e59 c4bb
000003a0: 51f1 ce3d d7d8 843d 833c 11be 7f55 a23d
000003b0: 7cd4 3fbd 63db cb3d 10e7 5fbd f137 59bd
000003c0: 425a 8fbd af20 67bd 4387 993c 6458 b2bd
000003d0: 5976 ab3b 914d 6ebe b56e c43c 57ee 10be
000003e0: 3946 d6bd 029c e03d 259b a2bd 6c09 073e
000003f0: e099 13be e8ec a3bc d1ef 0dbe 29f1 5abd

fc4.bias f4 [32]
-0.036447454 -0.018955559 -0.24153753 -0.04706833 -0.008918854 0.04392893 -0.13553227 -0.23256081
-0.108947776 0.021992967 -0.06122175 0.062489055 0.06324184 -0.22326069 0.030579826 -0.20070536
-0.23938037 0.04480353 -0.09720937 -0.095415205 -0.18354699 -0.11474028 -0.01335506 0.014643877
-0.13252203 -0.13500741 -0.0991374 -0.015661709 -0.031955563 -0.0002755396 -0.23477927 -0.070021786
00000000: ed49 15bd b048 9bbc 9d55 77be b9ca 40bd
00000010: 6320 12bc d2ee 333d f9c8 0abe 6c24 6ebe
00000020: 0320 dfbd 982a b43c a8c3 7abd 86f4 7f3d
00000030: f084 813d 739e 64be 8b82 fa3c b585 4dbe
00000040: 2120 75be e883 373d b515 c7bd 0c69 c3bd
00000050: bef3 3bbe f4fc eabd 2ecf 5abc dfec 6f3c
00000060: dbb3 07be 623f 0abe 8d08 cbbd fc4c 80bc
00000070: d6e3 02bd 4d76 90b9 fa69 70be 9567 8fbd

fc5.weight f4 [1, 32]
-0.024401912 -0.006293195 0.08466536 0.037644587 -0.031555813 0.002927319 0.0019307003 0.040381268
-0.0030580848 0.0031774628 0.0045647463 -0.002203606 -0.01126342 0.009615773 0.029840622 -0.07633493
0.021342808 -0.014064706 0.004440191 0.01496919 0.053089373 0.04395935 0.019329853 0.010851719
0.01600718 -0.019670228 0.0001634186 -0.005150725 -0.0048071714 0.010180253 -0.000895771 0.049588162
00000000: 85e6 c7bc 2537 cebb 0865 ad3d 3631 1a3d
00000010: ab40 01bd 43d8 3f3b 8d0f fd3a d466 253d
00000020: 266a 48bb fb3c 503b de93 953b 606a 10bb
00000030: 358a 38bc 7a8b 1d3c 5274 f43c 7d55 9cbd
00000040: 1dd7 ae3c a76f 66bc 067f 913b 5541 753c
00000050: 3e74 593d b80e 343d a459 9e3c 69cb 313c
00000060: 7d21 833c 7523 a1bc 595b 2b39 6ac7 a8bb
00000070: 7a85 9dbb 13cb 263c 2dd2 6aba f51c 4b3d
