scripts/built_models/torch_ou.pth (torch, 693523 bytes, 9 tensors)

fc1.weight f4 [256, 504]
00000000: af08 9f3c 26a3 97bc 70dc d9bb 93fe c4bc
00000010: ee1c 03be df02 67bd e429 2a3e 9bf9 c5bd
00000020: 4c66 4ebd 65b0 1abd 9af0 303d c637 a3bd
00000030: e68b a63d c48f 0a3d f4f2 abbc 06d2 813d
00000040: 7b49 863d 0dc4 14bd 1428 da3d 8725 df3d
00000050: b3c7 4c3e 2066 eb3d b281 363d 5a17 f93c
00000060: 7ad5 c23d 8c92 533d 6251 203d 599c 303d
00000070: f29c cd3d d05a 93bc ce80 963d b483 013e
00000080: 2a88 443d 06dc 16bc 2c90 f13d ce9f 873d
00000090: ec06 5b3c 0c2d af3d 25dc d13d 5e85 903d
000000a0: 0aa2 db3d 5bf5 593d 133a 163d 5d04 f8bc
000000b0: 2f5a 9a3c 57b8 d2b9 d51e 253c cf84 b63c
000000c0: 8e47 42bd c391 173e 1447 143c 04a5 acbd
000000d0: a476 923d baec 393d fb66 f0bd 5bf2 f93d
000000e0: 5735 c53d 6015 213e 8a46 b93b fd06 67be
000000f0: 88b9 a6bb 92c4 2bbe 7577 ecbd 27da 51bd
00000100: 782e 43bd 964d 22bd b818 7fbd f974 353d
00000110: 636b a73d 57e4 15bd da4e cfbd e3f1 9fbd
00000120: de5b 33bd e875 86bd 777e 903c 074d 3cbd
00000130: 4ddc 26b9 152c ac3c 90ba 6d3c 99c1 9abd
00000140: 42df 143d c72e 753d f680 3f3d 3c4f 703d
00000150: c734 a8bc 9a92 a23d b414 b03c e021 32bc
00000160: 8987 ad3c 935c 803b a9fb 893c 5bcd f2ba
00000170: f334 323c c9a6 5a3d b02d 9abd e2e1 babc
00000180: d36a a03d efae 193b 3c60 813d 5f27 8e3c
00000190: 1669 993c 1cf1 a53d aec8 8e3c 4d36 823c
000001a0: a890 1d3d f2e0 4abc c2f3 123d cfc1 7b3c
000001b0: e3e9 b83c 3f35 1abd b1fa 8bbd b2a2 2e3d
000001c0: e022 ccbd d435 8b3c 8b6f 4ebd 105b d4bc
000001d0: fbb4 98bd a939 e43c 2373 febc ccb4 b33d
000001e0: 59d2 4e3d 43e2 21be d358 94bc aeff 80bd
000001f0: 5177 89bd 5d8f 9ebd 97c0 a1bd e816 6e3c
00000200: 222b b2bd e3c6 c53c 9ad5 c63c 52bb d2bb
00000210: cdef 3fbd 6a5b 94bd b42d 69bd 5958 b6bd
00000220: 668f 77bc 9eb3 3fbd eabe a3bd c54e d1bc
00000230: 7cce 5cba 2e4c cbbc 0605 473d 8c83 f0bc
00000240: 31ca 153d e03b a53c ac77 2ebc 31c4 8ebc
00000250: 6cd0 903d 6b57 27bc 52ec b63b a54d 8f3c
00000260: fff5 a23d 8bdc 67bc f976 a2bc 2c3c 753d
00000270: 0930 79bd e869 a63d 60ea 993c 254f 013d
00000280: 1499 913b b99d e13d 14cc c13c 5c2d fe3c
00000290: 51d0 103d cffd 29ba fe9a 723d bb04 fa3b
000002a0: 4a48 e7bc 2017 6bba 0cf8 8d3d d3b1 58bd
000002b0: 121b e1bb 7204 033b 76f4 14bd 362d 20bd
000002c0: e4de 57bc 187c 0fbd ff45 d6bd fd8c 7d3d
000002d0: f161 b2bb 8ad6 1b3e d9b4 973d 91c7 30be
000002e0: 3a7a 073c 0e22 c5bd 5ab7 69bd 6265 5cbd
000002f0: 4b9e 98bd 8eb4 9abc c51f 61bd ff25 c83c
00000300: 68e1 8bbd 54d6 3cbd de41 a6bd 8381 0bbc
00000310: 9f1f 00be d0e4 63bd 8777 73bc e1b2 cdbd
00000320: fd02 98bd ec19 c0bc b7f0 16bd fd41 c9bd
00000330: 7ed5 673c 3aa0 0fbd ee20 873d cb90 05bc
00000340: ccfd 10bd 541e 1ebd 9f25 113d 7c49 c0bc
00000350: fa1a 15bd 8dd0 c63c f232 1dbb f347 5f3c
00000360: 7580 ef3c f391 c23c 01d4 00bd afaf 793d
00000370: 1eb0 1cbd e8cc ebbc d4c9 73bd 481a 323c
00000380: fcc9 bc3c da75 33bd 04d1 233d c6e0 553c
00000390: 3a77 203d 3aab 523d 445e c8bb 1047 a83c
000003a0: 4fa3 6c3c 950b cbbb 84dd 07bd ef7e 6bbd
000003b0: 420a cdbd 0d23 afbd 0687 09bd 8ec8 8dba
000003c0: 0f67 edbd 82d7 843c 54cd 5c3c f95e 743d
000003d0: 00d7 103d 3a0d e2bd 7f13 51bd 68b8 79bd
000003e0: ea9b c1bd 930a 7bbc 1b8f d33d 2573 8fbd
000003f0: 6f86 26bd 006b 7fbb 9840 babb bd84 9b3d
0.01941332 -0.018510412 -0.0066485927 -0.024047172 -0.12804005 -0.056399222 0.16617543 -0.09666749
-0.050390527 -0.03776588 0.043198206 -0.07969622 0.08132152 0.03382851 -0.020989873 0.06338887
0.06556984 -0.03631978 0.106521755 0.1089583 0.19998054 0.11494088 0.04455728 0.030406643
0.09513374 0.05165343 0.039140113 0.043117855 0.100397006 -0.017987639 0.07348786 0.12647897
0.04798142 -0.009207731 0.11795077 0.06622277 0.0133683495 0.08553514 0.10247067 0.07056688
0.10724266 0.053212505 0.036676478 -0.030275518 0.018841831 -0.00040191665 0.010078152 0.022280125
-0.04743152 0.14801697 0.0090501495 -0.08429912 0.07151535 0.045391776 -0.11738392 0.12204429
0.096293144 0.1573081 0.005654161 -0.2256126 -0.005088035 -0.16774204 -0.11546222 -0.051233437
-0.047651738 -0.039624773 -0.062279433 0.044301007 0.08174779 -0.036594715 -0.101224616 -0.07809808
-0.043788783 -0.065654576 0.017638428 -0.045971896 -0.00015913062 0.021017114 0.014509812 -0.07556457
0.036345728 0.059859063 0.046753846 0.058669314 -0.020532979 0.07938118 0.021494247 -0.010872334
0.021182792 0.0039172857 0.016843634 -0.0018524335 0.010876882 0.053381715 -0.075282454 -0.022812787
0.07832875 0.0023450216 0.063171834 0.017352758 0.018726867 0.081026286 0.017429676 0.015895033
0.038468033 -0.012382733 0.035876997 0.015366032 0.022572463 -0.037648436 -0.06834925 0.042635627
-0.099675894 0.01699344 -0.050399344 -0.025922328 -0.07456394 0.027859526 -0.03106076 0.08774719
0.050493572 -0.15808968 -0.018108761 -0.06298767 -0.06712211 -0.07742188 -0.07898062 0.014531828
-0.08699633 0.024142688 0.024271775 -0.0064310217 -0.04685955 -0.07243998 -0.05692835 -0.0890357
-0.015109872 -0.046802156 -0.07995398 -0.025550256 -0.00084231026 -0.024816599 0.048588775 -0.029359601
0.036569778 0.020170152 -0.010648649 -0.017427536 0.07071003 -0.010213713 0.005582371 0.017493078
0.07957076 -0.014151703 -0.019832121 0.059871837 -0.060836826 0.08125669 0.018788517 0.03156962
0.004443297 0.11016411 0.023656882 0.031027488 0.035354916 -0.0006484659 0.059229843 0.0076299584
-0.028232712 -0.00089679845 0.06932077 -0.05290396 -0.006869682 0.0019991663 -0.03636595 -0.039105617
-0.0131757 -0.035030454 -0.104625694 0.061902035 -0.0054438044 0.15218559 0.07407541 -0.17263629
0.008268887 -0.09625636 -0.057059623 -0.053807624 -0.07452067 -0.018884923 -0.05496194 0.02443218
-0.06830102 -0.046102837 -0.08118032 -0.008514765 -0.12512062 -0.055638134 -0.0148600405 -0.10043884
-0.07422445 -0.02344986 -0.036850657 -0.098270394 0.014150022 -0.035064913 0.06598078 -0.008152197
-0.03539829 -0.038603142 0.03543627 -0.02347254 -0.03640268 0.024269367 -0.0023986665 0.013627994
0.029236058 0.023751235 -0.031452183 0.06095856 -0.038253896 -0.02878423 -0.05951865 0.010870524
0.023045532 -0.043813564 0.039994255 0.013054078 0.039176203 0.051432826 -0.006114753 0.020541698
0.014443233 -0.006196449 -0.033170238 -0.0574941 -0.10011722 -0.08551607 -0.033576034 -0.0010817216
-0.115919225 0.016216043 0.013476688 0.059660885 0.03536129 -0.11037679 -0.051043984 -0.06096688
-0.09453566 -0.015322345 0.103300296 -0.07004384 -0.04065555 -0.003897369 -0.0056839697 0.07593677

fc1.bias f4 [256]
00000000: 9a3f 01be 7585 e4bd 8240 e2bc bbc5 1bbe
00000010: 91e0 03bd 6b4f 9fbc 87e9 10be aca4 23be
00000020: c20a 83bd e2e5 edbd b30b f2bc e686 a0bd
00000030: 2f61 5bbe 98c1 39be 1f02 d3bd 5d09 debd
00000040: 6d2a 02be e5ec 15be ee10 d9bc 36d1 ebbc
00000050: 565e a8bd ffe3 d7bd 0afc 0dbe 8f65 b8bd
00000060: 2173 d2bc 9a0c a2bd 00ae a3bd a1fe 63bd
00000070: 6046 5cbe fb7f 37be 8e26 bcbb adaf cfbc
00000080: 758c 40be a497 65bd aa52 7ebd 6d39 9ebd
00000090: f58d 8bbd ce44 b4bd 4555 bdbc 4a31 5ebe
000000a0: bf55 f2bd b9fa 7cbd 0e2e 23be f661 cabd
000000b0: 4be4 e4bd 8e9e 53bd 4561 4ebe 6e75 3dbe
000000c0: fb3f 0dbe 0025 d9bd 4ff7 43bd ca4e 00be
000000d0: 0418 80bb d5c6 14be d070 9dbd 4b08 55be
000000e0: 5cb2 02be 1719 27be 7c3b 28be 188d 98bd
000000f0: b2eb 2bbe 8bd4 86bd 817a 1ebd 17bf 97bd
00000100: 395e a6bd b84d 00bd 0a27 21bd 51f7 f6bd
00000110: 36d8 5dbc fa25 58be f150 b5bd f48c 03be
00000120: 2922 8fbd 63e8 b2bd 98b3 41be 727b dfbd
00000130: f4e4 a4bd 519d f9bd 10f8 25be 3706 adbd
00000140: becc 36be 0219 f2bb 4fe8 a4bd 653d 05be
00000150: 859f 5bbd 3c32 6dbd 8e92 adbc b06a 34be
00000160: 0fc3 0fbe 7434 cabd b814 78be 7d45 53bd
00000170: 21fe b2bd 4301 8dbd 4738 2ebd 3d32 a1bd
00000180: 0b60 60bd 3982 c2bd 731a 8abd 3a3b cbbd
00000190: dc54 c5bd db0b 87bd ca08 96bc ba7a a4bd
000001a0: bee6 47be 2a7a d6bc fa0e 8fbd f819 93bd
000001b0: 2a29 9ebd 4c0e 3bbd e9b4 913b 9c43 f5bd
000001c0: 7436 a1bd c2c3 a73a 4a76 0abe 7c24 cbbd
000001d0: cf57 b8bd c871 57be b57a c0bd 98d4 debc
000001e0: 0667 86bc fe21 3dbb fdaf febd d234 c9bd
000001f0: c137 48be 00f4 0abe 2ac7 8abd d130 05be
00000200: f0dc 55be adaa 0ebe f33b d2bd 34a6 55bc
00000210: 12da 1cbe b7d5 07bd c7eb 94bd c55a 03be
00000220: 730d 303d a47e 87bd dbf6 d5bd 3905 7fbc
00000230: 2867 5abd 57bd edbd a9d8 06be c5c8 4cbd
00000240: 081e 02be 2545 56bd 823c 12be 3827 a2bd
00000250: c030 3cbd cdc0 d5bd ec7a adbd 0b5d bdbd
00000260: 87c6 43be 9dd9 08be 05a0 e1bd 7339 aabd
00000270: b633 9cbd 4cc8 b8bd 6089 4bbe a74d a1bd
00000280: 43e9 14be 2d06 18be 7e1b 0c3c 781a f8bd
00000290: 1831 78bd 14aa 63bd 782a 99bd b037 7cbd
000002a0: 2c43 9cbd 2049 25be ecab f3bd ec36 30be
000002b0: 4439 143b 477f 86bd 980a 7f3a 8225 e8bd
000002c0: 9309 c9bd 068d 07be 6a68 12be a7fa adbd
000002d0: a29e 89bd 898f 34be c07d 88bc b0b7 e5bd
000002e0: 1296 92bc a0b8 9dbd b9f4 41be fc75 45bd
000002f0: 1c49 e8bd 8251 89bd efed 25bd 565f 3abe
00000300: e6a7 cfbc 6d7c bdbd da00 3bbe 2652 3cbe
00000310: 7cd5 05be 193f babd 4361 4ebe ce43 a0bd
00000320: f9d6 86bd 99ef cdbd 4460 9fbc 73f8 c5bd
00000330: c411 5eb9 451a 9cbd 789b 17bd 0455 d0bd
00000340: 7003 1cbe e03e 76bc 28d4 25bd 6cb9 a5bd
00000350: ad7d 2bbd aa93 a4bd 573e e2bd 1959 8bbd
00000360: e062 e2bd 7fed 9ebd 7207 85bd eeac 1ebe
00000370: fbd6 03be 89e9 10be 11ee 2c3d 9c0c fd3c
00000380: 9fb4 cdbd 40b5 b7bd 43d1 f0bd 6626 6ebd
00000390: c811 cebc c51c a9bc 0766 a93d 66b5 a2bd
000003a0: 960e 2cbe cd3d 0ebd 9894 babd 1494 6f3c
000003b0: ff10 07be 8db2 50bc 3523 c1bc c77b 56be
000003c0: 58c3 943c 288c 0cbd cada c9bd 8daa 30bd
000003d0: 1a72 eebc 3256 86bd 625b a8bd 36f8 35bd
000003e0: 2380 67bd 81f9 7abd 44a9 1fbe 06d2 e2bd
000003f0: a5ea 13be a651 febc 6713 7cbd b4a8 5abd
-0.12621918 -0.111582674 -0.02761865 -0.15212147 -0.032196585 -0.01944705 -0.14151584 -0.15980786
-0.06398536 -0.11616112 -0.029546594 -0.0783823 -0.21423791 -0.18140256 -0.10303139 -0.1084163
-0.12711497 -0.1464115 -0.02649733 -0.028786283 -0.08221118 -0.10541534 -0.13865677 -0.09003746
-0.025689663 -0.0791256 -0.07992172 -0.055662755 -0.21511221 -0.17919914 -0.0057419008 -0.025352323
-0.1880358 -0.05605282 -0.062090553 -0.07725797 -0.068141855 -0.08802186 -0.023111949 -0.2169849
-0.11832761 -0.061762545 -0.15935537 -0.09881966 -0.11176356 -0.05166488 -0.20154293 -0.18501827
-0.13793938 -0.1060276 -0.047843274 -0.12530056 -0.003909113 -0.14528973 -0.07687533 -0.20803945
-0.12763351 -0.16318165 -0.16428941 -0.074487865 -0.1678913 -0.06583508 -0.038691048 -0.07409494
-0.0812344 -0.03132412 -0.03934387 -0.120588906 -0.013540318 -0.21108237 -0.08853329 -0.12846738
-0.069889374 -0.087357305 -0.18916166 -0.10912217 -0.08051482 -0.12188209 -0.1620791 -0.08448451
-0.1785154 -0.007388235 -0.08052122 -0.13011701 -0.053618927 -0.057909235 -0.021188047 -0.17618823
-0.14039253 -0.09873286 -0.24226654 -0.05157994 -0.087398775 -0.06885006 -0.04253414 -0.0787091
-0.054779094 -0.09497494 -0.06743326 -0.09923406 -0.09635326 -0.06594058 -0.018314738 -0.08031221
-0.19521615 -0.0261813 -0.069852784 -0.071826875 -0.07722695 -0.04566793 0.004446615 -0.11975786
-0.07871714 0.0012799429 -0.13521686 -0.09919068 -0.09001123 -0.21039498 -0.093984045 -0.027200982
-0.016406547 -0.0028859372 -0.12435911 -0.09824528 -0.19552518 -0.13569641 -0.06776269 -0.13006903
-0.20885062 -0.13932295 -0.10265341 -0.013040114 -0.15317562 -0.0331628 -0.072715335 -0.12827595
0.042981576 -0.06615952 -0.104474746 -0.01556521 -0.053321034 -0.11608379 -0.13168587 -0.049996156
-0.12706769 -0.052312035 -0.14280894 -0.07917637 -0.04594493 -0.104371645 -0.08470711 -0.09246262
-0.19118701 -0.13364263 -0.110168494 -0.08311739 -0.076270506 -0.090225786 -0.19876623 -0.07876139
-0.14542107 -0.14846106 0.0085514765 -0.121144235 -0.060593694 -0.05558212 -0.074788034 -0.061576545
-0.076299995 -0.16141176 -0.11898026 -0.17208451 0.002261714 -0.06567245 0.00097290566 -0.11335279
-0.09816279 -0.1323739 -0.14297643 -0.08495074 -0.0671971 -0.1763288 -0.016661525 -0.11216676
-0.017893825 -0.0770123 -0.1894101 -0.04820822 -0.113420695 -0.067049995 -0.040510114 -0.1820043
-0.025348615 -0.09252248 -0.18262044 -0.18390712 -0.13069719 -0.09094066 -0.2015429 -0.07825433
-0.065839715 -0.10055465 -0.019455083 -0.096665286 -0.00021178188 -0.07622198 -0.0370135 -0.101724654
-0.15235686 -0.015029639 -0.04048553 -0.08092007 -0.0418679 -0.08035977 -0.11047047 -0.068041034
-0.11054015 -0.077601425 -0.06495561 -0.15495655 -0.12874977 -0.14151587 0.042219225 0.030889802
-0.10044216 -0.089701176 -0.117586635 -0.05814209 -0.025154963 -0.020643601 0.08271413 -0.07944755
-0.16802439 -0.034726907 -0.09110373 0.014622707 -0.13190077 -0.012737882 -0.023576358 -0.20945655
0.018159553 -0.03431335 -0.09856184 -0.0431314 -0.029107142 -0.06559409 -0.08220555 -0.044426166
-0.056518685 -0.0612731 -0.15591913 -0.11075215 -0.14444979 -0.031044792 -0.06154194 -0.053383544

fc2.weight f4 [128, 256]
00000000: a6e2 a03b 406e 74bd 8deb 443b 7442 0c3a
00000010: d7dc d1bd 965d 6abd d484 843d 9bdc 503d
00000020: b47a 43bd 82c4 0d3c 4153 99bd 79ab 103c
00000030: 0025 34bc cd18 3e3d e04a 3e3d 567d 3fbd
00000040: 7a31 fdbc ff92 9e3c ee9c 423d 4c58 bfbc
00000050: 55e7 e7bc 9a35 1fbc 1951 a7bb 7f98 2e3a
00000060: 51b3 6dbd a37f 8e3c b32e 7d3d 8d4f edbc
00000070: 3f3f 96bc 62ac 37bd 3d1a e13b f1d5 9bbd
00000080: 1393 6c3c 350f 5fbd 6156 85bb 045d cfbc
00000090: 4b16 0ebd 14eb 92bd ef9c 673c fd2f 41bd
000000a0: 03c0 933c d1e3 743d 5b04 4abd 043e fb38
000000b0: 37af 7cbd 93c1 3ebd edc4 093d 4cd6 16bc
000000c0: 78fc 2a3b 15cd 65bc 5386 063d b6de 3b3b
000000d0: 8bd8 1bbd 0b52 2f3d 2353 973c d073 acbc
000000e0: f688 81bd beec 01bd bc5f e93c f892 a9bd
000000f0: 81d8 b23b 9bd9 0e3d 3ee5 26bd 4fdb 62bd
00000100: bda5 38bd dd86 e63c 59cc 3bbd bef5 36bd
00000110: 9f54 09bd 66eb 46bd 2f62 503b 955d 68bb
00000120: 7115 01bd 1ea1 a0bb cb4e 40bd 5274 89bd
00000130: 6c86 48bd 9315 e6bb 6d83 4cbd 6b54 b3bd
00000140: e358 01bd 0c87 a8bc c597 8f3b 3ed1 90bd
00000150: 5190 b1bc 978f 95bc 344c 793d 63e5 d53b
00000160: 0fa6 85bc 322e 77bb ea78 67b9 9401 1fbc
00000170: bab3 e83c 2e55 d0bc b183 ef3c 7d5d cebc
00000180: 314e bf3c 3f32 aa3b 52ec 7e3c 3a8d 3c3c
00000190: 45ea 72ba f6e6 89bb 5132 b0bc 0a22 c1bd
000001a0: 982b acbd a160 2cbd 6f69 12bd 9e1f 45bc
000001b0: 5125 1cbc 4dbb b9bd b1d3 a3bd 3b2e 4dbd
000001c0: a7f8 1fb9 1e5f a2bc be1e 3bbd a3a3 82bd
000001d0: 87df b1bc 7102 d83b d7d8 3ebd f129 a0bc
000001e0: 673a b23c 4aeb 873b fd64 5d3d ed68 10bb
000001f0: f304 a13c f078 04bd dcee a6bd cffb 66bd
00000200: 36b1 0e3d 8717 f3bb 9b7a 333d cb44 293c
00000210: 5fbe cf3c 9110 563d f808 bb3b f2aa 43bd
00000220: 07ef d1bc da9e 5ebd 232e 86bd cf28 4c3a
00000230: 9a80 d1bc fad2 163d cb0c 9fbd 999c 8cbd
00000240: b57b 0abd df34 81bc 2b7e 0fba 2bb5 71bd
00000250: b4d5 8cbc 887e febc 939f 7abd 0cb9 ffbc
00000260: d14c 3abd 9fd9 bb39 b384 90bc 004a 8abc
00000270: 013e eb3b 1def 2dbd 988f 84bc 8ac6 3bbd
00000280: c111 30bd cdf8 72bd 0f36 a7bb 8731 10bd
00000290: 5af1 813d 2ced 89bc 9c7b a43b eea6 e5bc
000002a0: 9fa1 8cbd 1d27 7d3c 17f9 b33c acc4 14bd
000002b0: b30b 133d 757b 50bd c1d2 d2ba 41b9 753c
000002c0: 57c9 f33c 8dc9 533d 5be5 203d c6d7 d3bd
000002d0: 866e 073d ac2e 67bb 976e 8e3c b19b 6abd
000002e0: e24c b43c 352b 0fbd f120 303d 70d7 10bd
000002f0: e410 95bc 72dd 4abd 3495 ff3c c22d 843c
00000300: e8da a23c 8358 933c 69d9 8f3c a888 2f3d
00000310: a35f 2cbd ff99 42bd c34a 9dbd eb04 8f3c
00000320: a0fd 43bd 87c9 c0bb 1313 1d3d f1c9 cdbc
00000330: 97c2 82bd cfa3 603c a3dc e6bc 6a4f 27bd
00000340: bc30 2cbd 7678 bd3b f489 83bc a022 d53b
00000350: edcd 95bd 7c08 2f3d ec36 e33c b33b 05bd
00000360: a58d 34bd 58e7 f3bc 04df 73bd e21a 3f3d
00000370: 4292 7e3c d1b8 e13c 09d9 263c f783 0e3d
00000380: 228a 173d 0f6d 88bc 56e9 64bd d098 ef3c
00000390: 7704 87bd d79d 14bd 0dff 98bc 22fe 3abc
000003a0: 0ef7 e9bb b338 3aba 6f20 473d e9f9 88bc
000003b0: 6111 183d b524 81bd 5e5a d63c 078a 2d3d
000003c0: 1f8f aabd c92d 37bd 1730 6abd 8733 5e3c
000003d0: e63f b63c 8b0c 84bd e79a afbd d83f 713c
000003e0: a29e cf3c af21 f93c abeb 00bd a900 2f3b
000003f0: 256a c93b 9540 f9bb 15af f4bc 6232 7cba
0.004909831 -0.059675455 0.0030047626 0.00053504785 -0.102472 -0.057218157 0.064706475 0.050991636
-0.04772444 0.008652808 -0.074865825 0.008829945 -0.01099515 0.04641037 0.046458125 -0.04675039
-0.030907381 0.019357203 0.04751294 -0.023357533 -0.02830855 -0.009717369 -0.005106103 0.0006660297
-0.058032338 0.017394846 0.061812114 -0.028968597 -0.018340705 -0.04484213 0.006869583 -0.076091655
0.014439362 -0.054457862 -0.004069135 -0.025312908 -0.03468923 -0.07173744 0.014136537 -0.047164906
0.018035894 0.059787575 -0.04932056 0.00011980164 -0.061690535 -0.046571326 0.03363507 -0.009206366
0.0026090425 -0.014025946 0.032842945 0.0028666682 -0.03804831 0.04280285 0.01847226 -0.021051317
-0.06324951 -0.031719916 0.028488033 -0.08279985 0.005457938 0.034875493 -0.040745966 -0.05538493
-0.045079935 0.02814048 -0.045849178 -0.04466795 -0.033527967 -0.048564337 0.0031796803 -0.003545617
-0.03151459 -0.004902019 -0.046950143 -0.067116395 -0.04895632 -0.007021615 -0.049930025 -0.08756336
-0.03157891 -0.020572208 0.004382106 -0.0707116 -0.02167526 -0.018256946 0.06086369 0.006527589
-0.016314534 -0.0037716744 -0.0002207492 -0.009704966 0.028406013 -0.025431242 0.0292376 -0.025191063
0.023352714 0.005193978 0.015559273 0.01150828 -0.0009266476 -0.004208441 -0.021508368 -0.094303206
-0.08406752 -0.04208434 -0.03574508 -0.012031464 -0.009530381 -0.09068928 -0.07999361 -0.050092917
-0.00015256052 -0.019820746 -0.045683615 -0.063788675 -0.021713031 0.006592088 -0.046593513 -0.01955125
0.021756364 0.0041479217 0.054051388 -0.0022035197 0.01965568 -0.032341897 -0.081510276 -0.056392487
0.03483697 -0.007418576 0.043818098 0.010331343 0.02535933 0.052261893 0.0057078563 -0.047770448
-0.025626672 -0.05435071 -0.06551769 0.00077880634 -0.025574017 0.036822297 -0.07766112 -0.06865806
-0.033809382 -0.015772281 -0.00054738176 -0.059010666 -0.017191745 -0.031066194 -0.061187338 -0.031216167
-0.045483414 0.0003582956 -0.0176414 -0.01688099 0.0071790223 -0.042464364 -0.016181752 -0.04584364
-0.04298568 -0.059319306 -0.00510288 -0.035203483 0.06344862 -0.016836725 0.005019618 -0.0280337
-0.06866764 0.01545122 0.021969361 -0.036320373 0.03589983 -0.050898988 -0.0016084538 0.014997781
0.029759092 0.051705886 0.03928123 -0.1034389 0.033064388 -0.0035275621 0.017386718 -0.057277385
0.022009317 -0.034953315 0.043000165 -0.035361707 -0.01819653 -0.049527593 0.031199075 0.0161351
0.019879773 0.017986542 0.017559724 0.042854935 -0.042083394 -0.047510143 -0.07680275 0.0174584
-0.047849298 -0.005883399 0.03834827 -0.025120707 -0.06384771 0.01371093 -0.02818138 -0.04084722
-0.042038664 0.0057821823 -0.016056992 0.0065043718 -0.07314668 0.0427327 0.02773615 -0.032527637
-0.044080395 -0.0297734 -0.059538856 0.046656497 0.0155378 0.027553948 0.010183581 0.03479382
0.036996968 -0.016653566 -0.05588659 0.029247671 -0.065926485 -0.03628334 -0.018676305 -0.011413129
-0.007140047 -0.0007103786 0.048614915 -0.016720729 0.03712595 -0.063058294 0.026166137 0.04236796
-0.083280794 -0.0447214 -0.05717477 0.01356209 0.022247266 -0.06447705 -0.08574467 0.014724694
0.025344197 0.03041157 -0.03147475 0.0026703274 0.0061466866 -0.0076065757 -0.029868642 -0.0009620545

fc2.bias f4 [128]
00000000: 391b 6c3c b977 e3bc 20c3 0ebc 234d 92bd
00000010: de68 e73c 5a0c 2abd e569 583c d4fc cebd
00000020: de31 05bd 7a0e 2a3d 49ec 5d3c 1341 5e3b
00000030: 1149 623d a5ed 19bc 0502 8fbb ace2 113d
00000040: 193e 1dbc c718 e5bc 3bce a9bd 1465 39bd
00000050: ecea 02bd 0293 fbbd 96e6 7ebd 8321 95bd
00000060: b04d 2f3d 51d9 83bd 8101 6ebb 5926 323d
00000070: c85f b2bd 4c30 703b 260f 73bd 11a7 15bc
00000080: 57bc 883a 8342 b1bd 7f57 87bd 4d49 a5bd
00000090: 04f5 76bd 52e3 98bc fd3a 86bd 12d8 7dbc
000000a0: ea97 75bd e7c3 2abc 8c74 063d c092 42bc
000000b0: 8e31 03bd a2ee 9e3c e278 123d 5c16 0cbd
000000c0: 2a2c 02bd 1541 39bc 1cc5 f4ba aa71 adbd
000000d0: bf5c a9bd ba56 c5bd 7ea6 b3bd d9f1 2dbc
000000e0: 4e62 99bc 0345 9fbd e4c9 61bd 744e 8cbd
000000f0: 2752 f93a 9f1b febb 55e4 183c 6d23 18bb
00000100: 0e78 71bd 349c bbbd 5791 b73c abef b0bd
00000110: 14e9 1fbd f5f0 61bd dfc9 883c 7d90 9fbd
00000120: 1e51 2dbc 3249 dbbd eda8 c5bb 331b 6fbd
00000130: 47b4 683c 7c21 663d 763b 313d 22e5 fbbc
00000140: d3d7 9cbc 947a b6bc 9040 18bd b96d e6bc
00000150: 98c7 afbc 06ea 0e3b 3294 eebb a419 0bbc
00000160: 3bed 693c f814 acbc 5ead 603b 83da 72bd
00000170: 97e3 87bd 7b1c 89bd 6a2b 95bb 95d3 ccbd
00000180: cf9e 9ebd dc68 15bb d546 0d3d 92de 22bd
00000190: d660 b8bc f0a4 fa3b a053 c63c 4f4b 1bbc
000001a0: 3c12 0cbd 0a0d 0dbd 01f8 99bb bb43 07be
000001b0: cdef 1cbd 0d8a bd3d 6402 dbbc 1b69 87bd
000001c0: 4e61 e43b aba5 1bbc 155c 0c3d fd0b 43bd
000001d0: 1df9 0d3b 8ee4 0f3d 6510 9ebd f342 42bd
000001e0: 7bbd b9bc 40c1 e2bc 3440 a1bd 1577 5bbd
000001f0: 320b d5bc 7283 b8bc 7689 e83c 704c 69bd
0.014410787 -0.02776705 -0.008713514 -0.07143619 0.028248247 -0.041515686 0.013208841 -0.10106817
-0.03251826 0.041517712 0.013545104 0.00339133 0.055245463 -0.009395038 -0.0043642544 0.03561656
-0.009597325 -0.027965916 -0.082912885 -0.04526241 -0.03196232 -0.12283899 -0.062231623 -0.072817825
0.042798698 -0.06437934 -0.0036316814 0.043493602 -0.08709675 0.003664988 -0.05934062 -0.00913407
0.0010432106 -0.08655264 -0.066084854 -0.08070622 -0.06029226 -0.018663082 -0.0655422 -0.01549341
-0.05995933 -0.010422683 0.03282599 -0.011875808 -0.03202968 0.019400898 0.035759814 -0.03420101
-0.0317804 -0.011307021 -0.0018674466 -0.08468945 -0.08269643 -0.096356824 -0.0877199 -0.010616743
-0.018723633 -0.07776835 -0.05512418 -0.06850901 0.0019021676 -0.0077547575 0.009331782 -0.0023214475
-0.058952384 -0.09160653 0.02240817 -0.08639463 -0.03904064 -0.055161435 0.016697822 -0.07791231
-0.010578422 -0.1070732 -0.0060321004 -0.05837555 0.014203138 0.056184277 0.043269597 -0.030748907
-0.019145882 -0.022275247 -0.037170947 -0.028128492 -0.021457478 0.002180697 -0.00728085 -0.00849
0.014277752 -0.021006092 0.0034283022 -0.05929042 -0.06635206 -0.06694885 -0.0045522945 -0.100012936
-0.07745134 -0.0022798097 0.03449138 -0.03976304 -0.022507112 0.0076490566 0.024209797 -0.009478404
-0.034197077 -0.034436263 -0.004698754 -0.13209431 -0.03831463 0.09254847 -0.026734538 -0.06611844
0.0069696074 -0.009499948 0.034267504 -0.047618855 0.0021663376 0.035130076 -0.07717971 -0.04742713
-0.02267336 -0.02768004 -0.07873574 -0.053580362 -0.026006315 -0.022523616 0.028385859 -0.056957662

fc3.weight f4 [64, 128]
00000000: 5846 c9bd 13d7 973d a77b 89bd 166e 2abd
00000010: c866 9d3d 8391 49bd 9cf5 1abd 46b1 323d
00000020: 0aec 4a3c 41b6 53be d00c 97bc b9ab 33bd
00000030: 45da 17be 1c67 df3b 9ba2 0d3d 7fe5 24bd
00000040: 84d9 12be 0aec 92bd 6c9c edbd 6be3 4b3d
00000050: f733 9ebd a366 1cbe 2ea5 13bc 34a6 e03c
00000060: 2c5f adbd dec9 e33c 68e9 01bd 868a 0ebe
00000070: eef7 3b3d b680 2c3c e214 b33d fca7 a0bd
00000080: 0e56 10be 3ef6 ae3d b720 753c e175 16be
00000090: a93e 33be 54c8 a8bd b362 063c 1d12 463d
000000a0: 0d34 a7bd 0365 3e3d d334 49bd 568d 86bc
000000b0: d7b1 903d c416 db3d f040 b6bc 7982 8dbd
000000c0: 1032 ed3c 0ca4 58bd ff17 b4bd 50a4 013e
000000d0: 4607 98bd 8c87 ff3d 76eb 743d f89c 96bd
000000e0: c0ac 17be 0197 0abc 255b cebd 684d 34ba
000000f0: 584a a5bd 1b9e 19bd 1021 773d 1351 f53c
00000100: 88a6 e73c 9c41 87bd adec 843d e660 bfbd
00000110: 6a34 0d3c ffc9 883d 751b 8abd 4f54 eabd
00000120: 0082 a43d 9fef 8fbd be82 b2bd 683a 76bd
00000130: fa61 cabd a2ff b7bd cf72 a2bd 5c56 95bd
00000140: 7994 a7ba 7719 63bd 2705 39bc 2515 7bbd
00000150: 60a3 713c 2344 17bc ad2a 773c fa42 25bc
00000160: fe5f c4bd 6fc4 943c 4ce5 143d 6571 0d3d
00000170: bcae 47bb b04f b4bd 49ef eb3c 29da 93bd
00000180: 40e6 39bc b542 403d 7a8f 7f3c d328 343d
00000190: e598 83bc 2de0 943d 23b2 2abd eb98 4a3d
000001a0: 34a7 f73c dddd aabd 2f48 84bd d275 863d
000001b0: f61b 7b3d 290f 4ebd dd5c 0dbd d3f5 46bd
000001c0: 4728 fb3b eb68 5bbc 0db1 bcbc 1e2e 0c3d
000001d0: cfe1 a2bd f84c 9b3d b572 b2bd 927e 933b
000001e0: da82 af3d b386 563d 4f93 4bbd d068 1a3d
000001f0: 0461 9fbd 0e51 64bd 736c 89bc a0ce 5a3d
00000200: 10ef c2bd e613 a6bd 1b4b bc3d 1bb2 55bd
00000210: e47d 3e3d 61ab c23d 2f04 5e3d 1670 ecbd
00000220: 0bd9 05bd c4cf 453d 774f 7dbd 2c2e 723d
00000230: 802f 3d3c 0e3c af3c 39b4 d13b 3699 fe3b
00000240: fd92 94bd 0451 6dbc 58d3 f33c 9b35 1c3c
00000250: 0d7d e539 b5a3 2f3e fe00 3abd ca12 0e3d
00000260: 3df9 c7bd 4af9 14bd 28ac a2bd 5c07 0dbc
00000270: 4282 cbbc d96d babd 677f 083d afc0 c2bd
00000280: daa5 c7bd 5d00 e73c 5090 863d 638c 0a3e
00000290: 89d0 4abd 6fd7 ab3d 275b 20bc 2911 363d
000002a0: aa4b 443d b628 213c 25f3 37bd e913 fcbc
000002b0: a9dd bb3d ce59 64bc 28e4 8dbc 719e 4e3d
000002c0: 4e77 5dbd 97ef 05bd 552d 983d 8953 623d
000002d0: 6555 c93c da3a 44bd eaad 33bd 7616 efbd
000002e0: eff0 08be f596 debd bab1 213d 6839 a23d
000002f0: 0fb7 c6bc 60be 5bbc 772c 69bd 720e 9f3d
00000300: 8dff 5abd deb4 e7bc 5987 803d cbc6 31bd
00000310: 7389 133c 04f7 6fbd afba eabb fa1b 133c
00000320: 8681 4cbd a384 82bc 1411 003d ce2d 533d
00000330: edf5 c9bc 9ae2 9a3d 198a e1bd 4a08 2d3d
00000340: 0ce0 8a3d cf1d 6c3d 05fb a43d 5b58 773d
00000350: f39f a53d 812c 3e3d b0c8 94bd 7df2 213c
00000360: 4eac 133d 615a f7bc fd12 a43d c796 b5bd
00000370: 4445 52bc 7d7d b1bd 5472 49bd 96b7 033d
00000380: 7b69 5ebd 6dcf f9bb 5de9 19bd 7788 7dbd
00000390: 20fd 5bbd c04c 21bd 7097 a33c 59c9 bdbd
000003a0: 5ee2 d63d ea9f b3bc 77d1 97bd e47f 8c3d
000003b0: 7d60 2cbd 0ab6 0d3e d7db 2c3d c7aa 0c3c
000003c0: 682a 0fbc f525 7ebd 42aa 103d 882c 86bc
000003d0: 86d1 2bbd 0377 893d 5e01 c1bd 7f4b 333d
000003e0: 8f4e 113c 4303 843c c94f 2abd fc3b cebc
000003f0: 3f72 f7bb b5a3 8cbd 8eb7 a8bc f14f bbbd
-0.0982787 0.07414069 -0.06713038 -0.041608892 0.076856196 -0.049211036 -0.037831888 0.043626092
0.012385378 -0.20674993 -0.018438727 -0.04386494 -0.14829357 0.0068177115 0.0345789 -0.040257927
-0.14340788 -0.07173927 -0.11602101 0.04977743 -0.07724755 -0.15273528 -0.00901155 0.027423002
-0.08465418 0.027806219 -0.031716734 -0.1392003 0.04589074 0.010528734 0.087442175 -0.078445405
-0.14095327 0.08543061 0.014961413 -0.14693405 -0.17504372 -0.082413346 0.008202243 0.048357118
-0.08164225 0.04648305 -0.049122643 -0.016424816 0.0706517 0.106977016 -0.022247761 -0.06909651
0.028954536 -0.052890822 -0.087936394 0.12660336 -0.07423262 0.124770254 0.059794866 -0.07354158
-0.14811993 -0.008458854 -0.10075978 -0.00068779895 -0.080708206 -0.037504297 0.060334265 0.029945886
0.02827765 -0.06604311 0.06490455 -0.09344654 0.0086184535 0.06679153 -0.06743518 -0.11441862
0.08032608 -0.07028126 -0.08716343 -0.060114294 -0.09881969 -0.08984305 -0.07932054 -0.07291862
-0.0012785337 -0.055444207 -0.011292732 -0.061299462 0.014748424 -0.009232554 0.015085858 -0.010086769
-0.095886216 0.018160073 0.036351487 0.03453197 -0.003046914 -0.08804262 0.028800623 -0.07219345
-0.0113464 0.046938617 0.015598172 0.043984246 -0.016064117 0.07269321 -0.04167379 0.04946224
0.030231096 -0.08343098 -0.064590804 0.06565441 0.061305963 -0.050307427 -0.03451239 -0.04857428
0.0076647135 -0.013391714 -0.023033643 0.03422367 -0.07953226 0.0758304 -0.08713285 0.0045011723
0.0856988 0.052374553 -0.04970103 0.037697613 -0.07782176 -0.055741362 -0.016775345 0.05341971
-0.09518254 -0.08109264 0.09194013 -0.052171808 0.046506777 0.09505344 0.05420321 -0.11544816
-0.03267769 0.048293844 -0.06184336 0.059126064 0.011546969 0.021390941 0.006399658 0.007769729
-0.07254598 -0.014484648 0.029763862 0.009534265 0.00043771454 0.17152293 -0.045411102 0.034685887
-0.09764335 -0.036370553 -0.079429924 -0.008607712 -0.024842385 -0.09102983 0.033324625 -0.09509408
-0.097484306 0.028198415 0.06570494 0.13530116 -0.04951528 0.083907 -0.009787357 0.04444996
0.04792372 0.009836366 -0.044909615 -0.030771213 0.09173138 -0.013937427 -0.017320707 0.05044407
-0.054068856 -0.032699194 0.074305214 0.055255447 0.024576852 -0.047907688 -0.04386703 -0.11674206
-0.13373159 -0.108686365 0.039476134 0.079211056 -0.024257211 -0.013412088 -0.05692717 0.07766427
-0.05346637 -0.028284486 0.062758155 -0.043402474 0.009004938 -0.05858518 -0.0071633677 0.008978838
-0.04992821 -0.015932387 0.031266287 0.051557355 -0.0246534 0.07562752 -0.11012668 0.042244233
0.06781015 0.057645615 0.08055691 0.060386997 0.080871485 0.04642916 -0.072648406 0.009884474
0.036052994 -0.030194463 0.08011434 -0.08866649 -0.012833897 -0.08666513 -0.049181297 0.032157503
-0.054299813 -0.007623604 -0.03757607 -0.06189772 -0.053708196 -0.039379835 0.019969672 -0.0926692
0.10492395 -0.021926839 -0.07412999 0.06860331 -0.042084206 0.13838974 0.042201843 0.008585638
-0.008738138 -0.062047917 0.03531862 -0.016378656 -0.041947864 0.06712153 -0.09424089 0.04377317
0.0088688275 0.016114837 -0.041579995 -0.025175087 -0.007551461 -0.06867162 -0.020595338 -0.09146107

fc3.bias f4 [64]
00000000: dbd9 8abd 2239 6abd 787f ccbd f4d4 e6bd
00000010: 8338 cb3c 7c9f 1a3d 7833 1ebd 4ae1 fbbd
00000020: 1e64 a6bd 14a3 4b3c aca4 4cbd abff 1cbd
00000030: 73c8 93bc 92f9 5cbd 4e32 543c 63c6 2ebc
00000040: b121 93bd 0cc7 2abe 3604 56bc fd7e 1a3d
00000050: ae19 03be e8ca 98bd 8c10 d7bd 7eab c3bd
00000060: 2f4d 733c 4335 bdbd 0c3a ba3c 676b d3bd
00000070: a2cb 36bd c6ec 88bd d466 3f3d 2ba1 36bc
00000080: 9ac2 c5bd c9f5 08be 55f3 b93c 764b 583b
00000090: c30c 7fbd 88f7 66bb bbd6 d33b bd54 16bc
000000a0: 1b17 0dbe 1a12 3fbe 01bb d1bd 0ee2 e2bd
000000b0: f842 e3bd 7418 a5bd a077 8fbc 91ab fabc
000000c0: a562 d53d b04c 97bd 387c 90bd 99fd 93bd
000000d0: 902b fe3c 826d ec3a 6d23 d8bb 4a49 fbbd
000000e0: cb88 c9bc 4785 27be 87dc 0bbd 61f4 34bd
000000f0: cee0 7b3b b705 06be a7fe 45bd 9923 6b3d
-0.06779834 -0.057183392 -0.0998525 -0.11271086 0.02480722 0.037749752 -0.038623303 -0.1229883
-0.081245646 0.012429018 -0.04996173 -0.03832976 -0.018039918 -0.053948946 0.012951447 -0.010667416
-0.071841605 -0.16677493 -0.013062527 0.03771876 -0.12802765 -0.07460576 -0.10501203 -0.09554194
0.014849945 -0.092386745 0.022732757 -0.1032322 -0.044627793 -0.06685786 0.046728924 -0.011146824
-0.09656258 -0.1337501 0.022699038 0.0033003963 -0.06226803 -0.0035242755 0.006464807 -0.009175477
-0.13778345 -0.18659249 -0.10240746 -0.11078273 -0.11096758 -0.08061305 -0.017513096 -0.030599387
0.104192056 -0.07387674 -0.07054943 -0.07226104 0.031026632 0.0018038007 -0.00659602 -0.12269838
-0.02460136 -0.16359435 -0.03414586 -0.04417837 0.0038433555 -0.13088118 -0.04833856 0.057406995

fc4.weight f4 [32, 64]
00000000: 7d67 03be f98b 4b3d d01e 7d3d ea29 19be
00000010: 12a2 debd 7ac0 efbd 1ae1 0ebd a18d 073d
00000020: fdd6 6d3d 524a 1a3c 2ce0 6ebd b2f9 d63c
00000030: 3ee9 dabd 7a2a 943d d77f a23d 5d1c ecbc
00000040: 8798 b8bd 95dd 6d3d 4151 d7bd 1009 e13d
00000050: 6ac9 3ebc 3468 13be 31fc 1abe 6bfd 68bd
00000060: e78f d1bc 19c0 29bd fd0e 6abd 151d d0bc
00000070: 71e1 85bc 8ff9 6339 1688 6ebd 9d87 1fbe
00000080: 63a0 5bbc f0df 01bd 9d80 30bd 10e8 d23c
00000090: 906d e0bd 14b1 f43b 62bd 07bd 62d2 90bd
000000a0: 0348 a5bd f04d cf3c 06f1 02bd 5a9d c93d
000000b0: d5e4 d7bd 49d8 aabd f6cd 9d3d 05e4 00be
000000c0: c960 dcbd eac9 e6bd 08c4 81bc 1796 723d
000000d0: a45b e93b 9f3c 3fbd fd23 e63c 4197 833d
000000e0: c689 cbbd b90b 75bd 6939 513c a0a9 05bd
000000f0: 1604 48be c456 f23d 0060 873a 893e 1aba
00000100: 9e6d d7bc a039 76bd 5549 19be e57c 893d
00000110: 7045 95bd 9dde fcbd 1859 28be 25aa 9abd
00000120: c6a4 8bbd e61a 89bd 9213 3ebd dd5d 79bd
00000130: eeb5 6f3d 87be 863b b94f 463d b2b2 2b3d
00000140: ce98 c3bc 1289 a4bd 2be5 fd3d 69c1 58bc
00000150: 3b3c 823d 93e4 b93d 9d68 a43a ba47 89bd
00000160: c48b 4ebc 2d87 b03d 50da 113d 4081 fdbd
00000170: 8aa7 91bd 1ccb 9dbd ed53 e1bd 8495 83bd
00000180: 471b a03d 75e7 a4bd e0d4 fdbd cd4b 913d
00000190: 31ce 8e3c ebb9 0bbe f1ab 653d 481f b13d
000001a0: 7c08 84bd aa87 c93d 87a0 673a bd85 a6bd
000001b0: f19d 223c 671a bbbd 1af7 a13d 7583 413d
000001c0: 6d1b 99bd af81 0c3d e78f 8abd d827 aa3d
000001d0: f226 cdbc 6ca9 4abe 729f a53d b8f1 2dbb
000001e0: 1585 dc3d ee72 56bd 05cd 1c3d f1a9 96bd
000001f0: 7dd6 78bc 299a 4a3d 79aa 1f3d 172e 013d
00000200: 0fae 053d 354f 733c 6f39 c33d b093 87bd
00000210: 97a8 84bd 83f2 893d 28f0 853d f508 6bbd
00000220: 50ce 37bd da22 143c 86be 7c3d ae22 bb3c
00000230: 1aaa a6bd 9d46 a33c bd8a 99bd 76e7 193d
00000240: af87 a03c 6458 153d e6a9 a03c d409 e1bd
00000250: c53c e53d eb0f 8cbc e0e7 9dbd 2df8 aa3c
00000260: e5ba cbbc 4659 b8bd 441c cebd 9d5c 79bd
00000270: f3b4 9e3d 396d ddbc 7ee3 95bd d4a1 663d
00000280: 3ea5 a9bd 7319 dbbd 6ad5 1dbe 92d8 993d
00000290: 5ce3 7bbd 5a40 23bd b97f 2abd 29ca 60bc
000002a0: f1ed f93a e252 70bb 7325 af3d dde0 af3d
000002b0: c9bb 913d 78bd 973d 69f0 313d b788 f3bb
000002c0: d01c 8ebc a482 e9bd a3d8 93bd 7f50 2cbc
000002d0: d2f7 09be a5da 873c b39c 5dbd f8fd 2e3d
000002e0: c576 11be a072 3b3e fcc4 a23c 6e7d 1b3d
000002f0: f713 13be c868 783c 38f2 2ebd 7eff db3d
00000300: 908d 03bd d764 a63d 85bf 0d3d 4820 64bd
00000310: 19bc 84ba 62d3 8b3d 8b1e 523d 3807 7dbd
00000320: bbbe 603c 3602 8e3d 9098 13bc cc8a 833d
00000330: 991b fbbc d537 d83d 28e3 333c 9907 48bd
00000340: 998d 88bd 773d dfbd 06db 87bc ed20 363b
00000350: 1864 b63d e2fb b5bd dd6f 39bd a670 1abc
00000360: 284d 6d3d 14ae eebc 58b0 24bd 318a 28bd
00000370: ee5e 04be a646 96bd b816 f5bd 3a79 153d
00000380: 26f3 68bd db68 fa3d 7db3 1cbe 6ef2 23be
00000390: 655c f0bd 1d88 54bd 3e79 babd 71fb 0e3c
000003a0: b883 833d 1f24 0abd fb87 91bd 7813 5abc
000003b0: 88af 683c 41fb 783b e487 c0bd c8d4 15be
000003c0: cb78 203d 16a3 50bc c47b 873d 10e0 063d
000003d0: 6da3 883d 397c 18bd fe4b 2bbe 61ed 17bc
000003e0: 8222 a6bd 6939 e6bc e9a4 8d3d afa5 abbd
000003f0: 5504 063e 435f e73d f52d e6bc a24d 7d3c
-0.12832446 0.049694035 0.061796963 -0.14957395 -0.10870756 -0.11706634 -0.034882642 0.033094052
0.058066357 0.009417133 -0.058319256 0.02624211 -0.10689019 0.07234664 0.0793454 -0.028822118
-0.09013467 0.058072645 -0.10513545 0.10988057 -0.011644701 -0.14395219 -0.15135266 -0.056882303
-0.025581313 -0.041442964 -0.0571432 -0.025404492 -0.01634285 0.00021741375 -0.05823525 -0.15579076
-0.013404938 -0.031707704 -0.043091405 0.025745422 -0.109583974 0.0074673984 -0.033139594 -0.07071377
-0.08070376 0.025305718 -0.03196814 0.098444656 -0.10541693 -0.08342034 0.077052996 -0.12586983
-0.10760648 -0.11268981 -0.015840545 0.059225168 0.00712152 -0.046688672 0.028093332 0.06425334
-0.099383876 -0.059825633 0.012770035 -0.03263247 -0.19532809 0.118329555 0.0010328293 -0.0005883952
-0.026297387 -0.06011355 -0.1496938 0.06713275 -0.07288635 -0.123471476 -0.16440237 -0.07551984
-0.068185374 -0.066945836 -0.046405382 -0.06088053 0.05852311 0.004112068 0.048415873 0.041918464
-0.023876574 -0.080339566 0.12397226 -0.013229706 0.06359144 0.090768 0.0012543384 -0.06703134
-0.012606565 0.08619533 0.03560859 -0.12378168 -0.07112034 -0.07704756 -0.11002336 -0.06425002
0.07817703 -0.080519594 -0.12394118 0.07094536 0.017432304 -0.13645141 0.05607218 0.086485445
-0.06446931 0.09840329 0.0008835871 -0.08130977 0.0099253515 -0.09135895 0.07908459 0.047244508
-0.07475934 0.034303363 -0.067657284 0.08308381 -0.025042985 -0.19791192 0.080870524 -0.002654178
0.10767571 -0.0523557 0.03828146 -0.073566325 -0.015187857 0.049463425 0.038980935 0.031538095
0.0326367 0.014850427 0.09532439 -0.06619966 -0.064774685 0.067357086 0.06539947 -0.05738159
-0.04487449 0.009041512 0.061705135 0.022843685 -0.08137913 0.019931132 -0.07497165 0.037574254
0.019595949 0.03646125 0.019612264 -0.10988203 0.111932315 -0.017097434 -0.07710242 0.020870293
-0.024869392 -0.090014026 -0.10063985 -0.06087934 0.07749357 -0.02702962 -0.07318781 0.056306675
-0.082834706 -0.106982134 -0.15413442 0.07512011 -0.061496124 -0.039856292 -0.041625712 -0.013720074
0.0019068104 -0.0036670496 0.08552065 0.08587811 0.07115895 0.07409185 0.043442164 -0.007432069
-0.017347723 -0.11401871 -0.072190545 -0.010517239 -0.13473442 0.01658375 -0.05410452 0.042722672
-0.14205463 0.18305445 0.01986932 0.037961416 -0.14363085 0.015161701 -0.042711467 0.10742091
-0.032117426 0.081247024 0.034606475 -0.05569485 -0.0010126858 0.068274274 0.05129866 -0.061774462
0.013717349 0.069340155 -0.009008542 0.06422958 -0.030652808 0.10557524 0.010979451 -0.04883537
-0.066676326 -0.10900395 -0.01658393 0.0027790621 0.0890581 -0.088859335 -0.045272697 -0.009426272
0.05793491 -0.029135741 -0.040207237 -0.041147415 -0.12926838 -0.07337694 -0.11967224 0.036492564
-0.05687251 0.12227031 -0.15302844 -0.16010448 -0.11736373 -0.05188762 -0.09105156 0.0087269405
0.06421608 -0.033725854 -0.07106014 -0.013310306 0.014202006 0.0037991556 -0.09400919 -0.14631951
0.039177697 -0.012734195 0.06615403 0.032928526 0.06671796 -0.037227843 -0.16728207 -0.009272904
-0.081120506 -0.028103547 0.0691622 -0.08381211 0.1308759 0.112974666 -0.028098086 0.015460404

fc4.bias f4 [32]
00000000: 557f 013d 8fdd 73bd fb4c ecbd 1cdd 063d
00000010: babf e8bc 97ab b33d d30e 093d 049d 7c3d
00000020: c1db f7bc 19eb d8bd 9a79 ccbd f9be 38be
00000030: 2ec9 f43d 32e6 0fbe db51 03be 0c35 34be
00000040: 7e34 2ebe b251 c9bd 3e99 a2bd 10a5 9abd
00000050: 69f3 bb3c 152a aebd a8df 26be 3d4a a8bb
00000060: 2165 953d 83f3 1ebc eeda aabd 9863 0f3e
00000070: e51e 55bd 24ad 49be 2c93 71bc c9a9 adbd
0.031615574 -0.059537467 -0.1153812 0.03292571 -0.028411735 0.087729625 0.033461403 0.06167318
-0.030256154 -0.10591716 -0.09984131 -0.180416 0.119524345 -0.14052656 -0.12824194 -0.17598361
-0.17012212 -0.09830035 -0.07939385 -0.075510144 0.022943215 -0.0850412 -0.16296256 -0.005135803
0.072946794 -0.009701612 -0.08342539 0.14002836 -0.052031416 -0.19694954 -0.014744561 -0.084796496

fc5.weight f4 [1, 32]
00000000: 27ee 7b3d a4d0 a13c eebd 55bc c201 dabb
00000010: 9722 5abd 1044 61b9 4550 333d 934f d03b
00000020: 4be2 e5bc 0a15 003c 2705 df3d e206 3bbd
00000030: 85e7 883c d726 3ebd 57fe 5039 e4be e9bb
00000040: 3deb 163d 4042 033d b594 063e 5106 9cba
00000050: 368a 1e3c ddd2 263c 815e 98ba 0d6e 653b
00000060: 93cb 253d cb96 c1bc dae9 963a 0a87 85bd
00000070: 8635 523b 35b5 233c 3653 d0ba 9fab b7bd
0.061506417 0.019752808 -0.013045771 -0.0066530416 -0.053255644 -0.00021483027 0.043777723 0.0063571422
-0.028062006 0.007817516 0.108896546 -0.04566086 0.01671196 -0.04642376 0.00019931175 -0.0071333516
0.036845434 0.032045603 0.13142665 -0.0011903738 0.009676507 0.01018211 -0.0011624844 0.0035008222
0.040477347 -0.023631474 0.0011513785 -0.06519897 0.003207536 0.009991934 -0.0015893939 -0.08968281
