scripts/built_models/torch_ml.pth (torch, 691475 bytes, 9 tensors)

fc1.weight f4 [256, 502]
00000000: da3a d4bd a07d abbc 35e8 73bd b22f ab3c
00000010: 875c f53d e9dc c3bd 2e11 bbbd 6c9f 4c3d
00000020: 79d2 a63d 8f32 be3d 64d7 1f3d 9ecc b13c
00000030: 0ed2 4e3d a584 90bd bafb a93d 4dc3 fdbd
00000040: 676b a8bd a189 353c 3780 a1bb 6ef7 41bd
00000050: 8876 19be 5446 253d 842a 01be bf3d af3d
00000060: 8512 c43c 1b8c 73be 16c6 023e 6dd2 a43d
00000070: 54cb d2bd 61b5 be3d ca70 7c3c 7613 ce3c
00000080: 6c8e a1bd 7db9 e5bc aba5 2e3e 9c5c 6ebd
00000090: 9f80 943d 3b6f 75bb 3a70 343d 8f15 91bb
000000a0: 0455 9d3d 2f1a 5b3e fd49 ecbd 374d 5ebe
000000b0: 03e4 703d 490a ca3d 4297 0cbe 1923 393e
000000c0: cbdf b2bd 8031 acbe 9ee3 803c 64fa 1d3e
000000d0: 5283 a43b 155d 29bd 84bf fc3c b6c9 ae3d
000000e0: ad7b 203d 56d6 8dbe ace0 beba aafc 563e
000000f0: 8ee3 e4bd 9ba5 823d 1d44 79bc 7ca8 d3bc
00000100: ee93 d1bc 650a 1ebd 91af 76be f2df 243e
00000110: 40a5 423e 1f63 26be 5b83 68be d169 7abe
00000120: c70f 093e 56e9 24bd 1684 363d 2a0f be3b
00000130: f85a a33b 9ef8 a9bd fff6 823d b78a 493d
00000140: 8452 9c3c e45a 953d 3ebb f93d 7f48 493d
00000150: d1f1 dc3d 5807 a5bc 3ca6 b0bb 7c2d 1f3d
00000160: 90f5 d3bd 1022 113e 25c0 0c3e 79e1 f4bc
00000170: 6bda 903d 0718 593e dcc2 1ebe 2210 7fbd
00000180: 2852 a93d dec3 573c 1ca4 81bd efa6 0a3e
00000190: c605 a53d 2be4 f3bb eeee 193e 2f6a 7e3e
000001a0: 4689 8ebd c300 f73c 3541 d9bd 2fac 193e
000001b0: 5822 223e bbf4 063d 083c f8bd 1332 cabc
000001c0: c656 ad3e 2ea6 56be a881 c43e ccf1 4fbc
000001d0: 466b 1bbe 3c0c 1e3e 40ed d5bd aeaf 0bbe
000001e0: a8d3 b43d 7dd9 c23d 6284 c0bc 369b c1bd
000001f0: 5159 42bd 8af1 923c 4cd8 debb 2067 ddba
00000200: fb4a dcbc cbb8 29bc 5faf fcbb b539 ee3d
00000210: 9542 683d 344f 3a3d 0c4a d73c 1b12 003e
00000220: 430c 31bd 1a85 c5bd 7491 233e 7d8d 3fbe
00000230: fb53 53be f329 20bd 0bb5 d1bd d51f f7bc
00000240: 4f09 dbbc 86c8 febc 6b06 6a3e 55a8 efbd
00000250: 388b d4bd 302d 9c3d 5451 82be 7e16 95bc
00000260: 97bd e63d afc6 2ebe ced3 91bd 034c 20be
00000270: d109 fdbd 57aa 203e 7039 4c3d 30ee 803d
00000280: 3152 febd 3d43 02bc 0061 443d 6495 0cbe
00000290: 9c1a f63d a55d e23d d7ae 3ebe 4413 313e
000002a0: 3ab1 89be 6407 07be 6add 043e 96d4 05be
000002b0: b0ec 3abe 2851 c8be 3eb5 a53e 33dd 5f3d
000002c0: b6fb a53e ea76 56be 0115 1abe 5f9f 483a
000002d0: d52d 03be bb48 143e ea1d 843d bb4e 8cbc
000002e0: 5403 5fbc 80ae a3bc 5829 583c 5f21 a43c
000002f0: cbd7 013d 9188 023d 08f6 2a3e 31c9 53be
00000300: 686d 343d 2630 6e3e e05c 343e 73de 313e
00000310: 3ee4 3e3d eeb9 57bd 611b 213d 62ea 0ebd
00000320: 1c8e 07be e572 cfbc 7425 99bd d822 2cbe
00000330: 9986 1b3d c89f cebc a41e 86bd 5c82 c53d
00000340: d761 a0bd b76d 333e 3cab d53d bebf be3d
00000350: 7b2e e1bd d8fb 833e b966 7b3d 7274 b73d
00000360: 80d3 873d f62b 5fbd f251 1abe 7de4 acbc
00000370: 2950 22bd a29f 8e3c da45 c1bd 4a98 773e
00000380: 30a5 803d 55aa e13c fad1 913d 8e66 483e
00000390: 02ba 0c3e 8b3d 283d 0d70 01bd ab42 513e
000003a0: 79d6 05bd 6d5b 463d 115e 003e 4ccf c9be
000003b0: 6264 183e a515 88bc 8431 3e3e 0e97 acbe
000003c0: 288c 37be c996 be3b a3eb a0bd e06d ef3c
000003d0: df48 753d 7c2e e9bd 36f7 2abd b1df 05be
000003e0: 0488 68bd d5a1 1dbe be63 be3c 9717 063d
000003f0: 95e2 bebc 9ca1 3a3c ee64 8c3d 49da d6bd
-0.103627875 -0.020933926 -0.05954762 0.020896766 0.11980539 -0.0956362 -0.09134136 0.049956724
0.08145613 0.09286987 0.039023772 0.021704014 0.050493293 -0.0705655 0.08299966 -0.12390766
-0.0822361 0.011080177 -0.0049286145 -0.047355108 -0.14986622 0.040350273 -0.12613875 0.08556699
0.023934612 -0.23783915 0.12770876 0.08047948 -0.10292688 0.09311939 0.01540775 0.025155764
-0.07888493 -0.02804255 0.17055385 -0.058193788 0.07251095 -0.0037450332 0.04405234 -0.004427619
0.07682231 0.21396707 -0.1153755 -0.21709143 0.0588112 0.09865243 -0.13729575 0.18079795
-0.08734091 -0.33631516 0.015733536 0.15427548 0.0050205374 -0.041348536 0.03085304 0.08534567
0.039180446 -0.27702588 -0.0014562807 0.20994821 -0.11176215 0.06379243 -0.015213993 -0.025837176
-0.025583234 -0.03858413 -0.24090411 0.16101053 0.1900835 -0.16248749 -0.22706358 -0.24454428
0.13384925 -0.04026159 0.04455956 0.0058001475 0.0049852096 -0.08299373 0.06394767 0.049204554
0.019082315 0.07292727 0.12193917 0.049141403 0.1078831 -0.020145103 -0.0053909104 0.038861737
-0.10349572 0.1417315 0.13745172 -0.02989267 0.0707291 0.21200572 -0.1550402 -0.062271245
0.08267623 0.013169257 -0.063301295 0.13540243 0.08057742 -0.007442971 0.1503255 0.24845193
-0.069597766 0.03015173 -0.106081404 0.15007089 0.15833414 0.032948237 -0.12120825 -0.02468208
0.33855265 -0.2096183 0.3838017 -0.012691926 -0.1517764 0.15434355 -0.104456425 -0.13641235
0.08829433 0.09514139 -0.023500625 -0.09453432 -0.04744846 0.01793744 -0.006800687 -0.0016891696
-0.026891222 -0.0103589995 -0.0077113356 0.116321005 0.056704123 0.04548569 0.026280425 0.12506907
-0.043224584 -0.09644528 0.15973455 -0.18706317 -0.20637505 -0.039102506 -0.10239609 -0.030166546
-0.026737837 -0.031101476 0.22854011 -0.11702029 -0.10378116 0.07625806 -0.25452673 -0.018199202
0.1126663 -0.1706798 -0.07120477 -0.15653996 -0.12355388 0.1568998 0.049859464 0.06295431
-0.124180205 -0.007950601 0.04794407 -0.13728863 0.12016794 0.110530175 -0.18621384 0.17292506
-0.26893026 -0.13186413 0.12975088 -0.13069376 -0.18254352 -0.39124417 0.3236484 0.05465431
0.32418603 -0.209438 -0.15047075 0.00076531427 -0.12810452 0.1448087 0.06451018 -0.017127385
-0.013611633 -0.019980669 0.013193451 0.020035444 0.031699937 0.03186852 0.16695416 -0.20682217
0.04404965 0.23260555 0.17613554 0.17370014 0.046604387 -0.05266755 0.03933275 -0.034891494
-0.13237804 -0.02532334 -0.07477847 -0.16810167 0.03797016 -0.025222674 -0.06548813 0.09644005
-0.078311615 0.17522322 0.10433051 0.09313916 -0.109951936 0.2577808 0.06137726 0.08957757
0.06632137 -0.054485284 -0.15070322 -0.021105045 -0.039627228 0.017410103 -0.09437151 0.24179187
0.06281507 0.027547041 0.07120128 0.19570372 0.13742831 0.041074317 -0.031601 0.20435588
-0.03267524 0.048427034 0.12535883 -0.39415967 0.14882043 -0.016611883 0.18573576 -0.33708996
-0.17924559 0.005816315 -0.07857444 0.029227197 0.05988395 -0.11385819 -0.041739665 -0.13073613
-0.05677034 -0.15393765 0.02324092 0.03273734 -0.023301402 0.01139107 0.06855188 -0.10490853

fc1.bias f4 [256]
00000000: d5a7 6bbf 7c21 22bf 525d 36bf c199 22bf
00000010: 6050 f2be 7dce 00bf b1ad 0ebf 0110 debe
00000020: 2c6e 47bf f1de e2be cb5a 25bf 9aa2 01bf
00000030: bfb7 46bf f3c9 31bf 93d2 f7be 106b efbe
00000040: 79fd 1dbf 3d86 26bf c80f 30bf d868 15bf
00000050: e858 26bf e853 6cbf 9f33 05bf 842b 13bf
00000060: 86d1 19bf b17b 0dbf 32a7 09bf 18a9 18bf
00000070: 9289 c5be bb39 1fbf ab33 25bf 2eb9 39bf
00000080: 92a9 33bf 1df3 16bf 5199 3bbf 16fb 69bf
00000090: c9a6 e3be c394 13bf 4f36 09bf 508d 46bf
000000a0: 1bf6 1fbf dfba 25bf 4dec 50bf fc9b d2be
000000b0: d282 20bf f12d 2abf 22be d3be 7005 21bf
000000c0: 4904 16bf ecb3 debe 0a08 29bf feb3 40bf
000000d0: 5acb 09bf 3977 15bf bd52 02bf bace 0ebf
000000e0: 5c3a 21bf 03c7 27bf b44a 5dbf 183c 41bf
000000f0: d433 46bf ab53 e6be 1e13 30bf 2709 03bf
00000100: f90d 17bf 2aef 71bf 002d 30bf 5ca6 21bf
00000110: b07c 2dbf bafa c8be cee7 3dbf 5a9d 21bf
00000120: 9764 f0be 4355 05bf 170c ccbe 5c92 27bf
00000130: e66a 28bf 6108 0cbf 2caa 03bf 22a4 dfbe
00000140: fbb6 b6be 874d 33bf 0ab4 2abf a289 19bf
00000150: 9652 35bf b38c 24bf aa8b 48bf 5e9f 2cbf
00000160: 17e3 0abf dc60 2fbf 7c17 21bf fa62 fabe
00000170: f474 17bf ce3b 36bf bf1e dfbe 54a6 efbe
00000180: e083 38bf 21a6 12bf 309f 02bf 3a78 14bf
00000190: d1de 4ebf 60f6 e5be 398a 41bf 457e 2cbf
000001a0: f70a 31bf a25c 04bf 09d5 3dbf 9c7b 2abf
000001b0: 3648 19bf c008 26bf 1b4b 1ebf fc7c 38bf
000001c0: 5f4b 55bf db2c 29bf 3207 21bf 6aea 0ebf
000001d0: b2c9 d3be 4267 13bf ae0b 18bf 72b8 15bf
000001e0: a308 04bf 0d8b 1ebf 530d 24bf 06f4 15bf
000001f0: 3511 34bf e8bc 1dbf 8af6 44bf 17f2 30bf
00000200: fc51 0ebf 5816 dabe 9ac2 fcbe 44ba e6be
00000210: c7cd 28bf b216 45bf 229d 4ebf 278b 54bf
00000220: f239 abbe 88db 3cbf 8597 0cbf 0c33 13bf
00000230: e586 16bf 99c5 00bf 30ef 26bf c694 40bf
00000240: 605f 2dbf d132 3bbf dc88 01bf c6e4 02bf
00000250: db27 0ebf 5b40 0abf 469c 47bf 28ea 22bf
00000260: 3416 27bf a2ff 3fbf c935 04bf f59b 31bf
00000270: 2672 10bf 50bd 34bf c1cd 55bf 63af 24bf
00000280: 0e15 1bbf 5d52 20bf 4eec 43bf 2835 03bf
00000290: 7740 36bf b9da 23bf a855 35bf 781e f6be
000002a0: 447b 07bf ba2f 9dbe 48d5 c8be 6063 26bf
000002b0: 778d 44bf db49 13bf d431 1bbf 34d6 19bf
000002c0: 3a41 e6be a234 11bf f535 22bf 9e32 c5be
000002d0: bfcc 26bf dd08 36bf 0f5a 1ebf 0598 20bf
000002e0: bf4c 35bf 7b88 3fbf 7056 2dbf bd34 57bf
000002f0: 0d3f 6bbf f91d 3bbf 5027 f5be 7403 05bf
00000300: 3d45 25bf 2727 16bf e548 4dbf f8dc 24bf
00000310: ca1d febe 5abc e4be 98b2 3bbf 7f8a 27bf
00000320: 4eae 07bf f4e5 1dbf 2bec 49bf ced1 42bf
00000330: 2313 28bf 6a65 cfbe a11f 2dbf 9edd 5cbf
00000340: 4034 12bf 9ced 15bf 2b40 12bf 3aad 31bf
00000350: bba3 39bf 3da9 24bf 66b5 13bf f07d 63bf
00000360: bb65 09bf 99ae 15bf df7c f9be bbb3 dcbe
00000370: ff3a 19bf 1bcb 42bf cd5a 0abf 4c8d 61bf
00000380: 8f59 06bf af24 d6be c6cc 07bf ad71 30bf
00000390: 0399 1abf 2882 03bf 71e9 42bf a75b f3be
000003a0: 5ccf 4abf 5798 3ebf 684b 09bf 4f67 4cbf
000003b0: 5ba9 00bf 176d 34bf aa9f 48bf 2431 c4be
000003c0: 4781 17bf b014 f2be 3831 13bf 2378 cabe
000003d0: 2595 04bf 1cb8 02bf 1efe abbe 251c 5cbf
000003e0: 6853 18bf 0e5e 16bf 0819 3abf 60ec 21bf
000003f0: 2672 22bf f84e f3be 2f75 91be e67d 30bf
-0.92052966 -0.63332343 -0.71236145 -0.6351586 -0.47326946 -0.50315076 -0.5573378 -0.43371585
-0.77902484 -0.44310716 -0.64591664 -0.50638735 -0.77624124 -0.69448775 -0.48402843 -0.4676137
-0.61714894 -0.6504858 -0.6877408 -0.58363104 -0.6497941 -0.9231553 -0.5203189 -0.57488275
-0.6008533 -0.55266863 -0.53770745 -0.59633017 -0.3858152 -0.62197465 -0.64531964 -0.72548187
-0.7018062 -0.5896471 -0.7328082 -0.9139875 -0.44463184 -0.5764887 -0.53598493 -0.77559376
-0.624849 -0.6473827 -0.81610566 -0.41134632 -0.62699616 -0.6647635 -0.41355997 -0.6289892
-0.5860029 -0.43496644 -0.6602789 -0.75274646 -0.53825915 -0.58385044 -0.509075 -0.5578419
-0.62979674 -0.6553804 -0.8644211 -0.7548232 -0.77422833 -0.4498571 -0.6877917 -0.5118584
-0.59005696 -0.9450556 -0.68818665 -0.6314447 -0.67768383 -0.3925379 -0.7418183 -0.63130724
-0.46951744 -0.52083224 -0.39852974 -0.654577 -0.65788114 -0.54700285 -0.51431537 -0.4367991
-0.35686478 -0.7004017 -0.6668097 -0.59975636 -0.7082914 -0.6427719 -0.7833811 -0.67430675
-0.5425276 -0.6850717 -0.6292646 -0.48903638 -0.5916283 -0.71185005 -0.43578145 -0.46806586
-0.72076225 -0.5728474 -0.5102415 -0.5799595 -0.8080874 -0.44914532 -0.75601536 -0.6738017
-0.69157356 -0.51703846 -0.7415319 -0.6659486 -0.5987581 -0.648571 -0.6183335 -0.7206571
-0.8331813 -0.6608407 -0.62901604 -0.5582644 -0.4136482 -0.57579434 -0.5939282 -0.58484566
-0.5157568 -0.61930925 -0.6408283 -0.58575475 -0.70338756 -0.61616373 -0.7693869 -0.691194
-0.5559385 -0.42595172 -0.4936722 -0.45063984 -0.6593899 -0.76987755 -0.80708516 -0.8302483
-0.33442646 -0.7377248 -0.549187 -0.57499766 -0.5879958 -0.5030151 -0.6520872 -0.7522701
-0.67723656 -0.73124415 -0.50599456 -0.5113033 -0.55529565 -0.5400445 -0.7797283 -0.63638544
-0.65268254 -0.7499944 -0.5164457 -0.69378597 -0.56424177 -0.7060137 -0.8351708 -0.6433012
-0.60579 -0.62625676 -0.7653245 -0.51252985 -0.71192116 -0.6400562 -0.70833826 -0.4807012
-0.52922463 -0.30700475 -0.3922522 -0.64995384 -0.7677836 -0.5753457 -0.60622907 -0.60092473
-0.4497164 -0.56720936 -0.6336358 -0.3851518 -0.6515617 -0.71107274 -0.6185617 -0.62731963
-0.7082023 -0.7481763 -0.6771002 -0.8406485 -0.9189308 -0.7309261 -0.47881556 -0.51958394
-0.64558774 -0.5865349 -0.80189353 -0.6439967 -0.49632102 -0.4467495 -0.7331939 -0.65445703
-0.5300034 -0.61679006 -0.7887599 -0.76101387 -0.656542 -0.4050706 -0.67626387 -0.8627566
-0.5711098 -0.5856569 -0.5712916 -0.6940495 -0.7251546 -0.6432074 -0.5769867 -0.8886404
-0.53670853 -0.5846954 -0.48728082 -0.43105873 -0.59855646 -0.76091164 -0.540448 -0.88106227
-0.52480406 -0.41824862 -0.53046834 -0.68923455 -0.6038973 -0.5137048 -0.76137453 -0.47530863
-0.79222655 -0.744512 -0.53630686 -0.79845136 -0.50258416 -0.7047896 -0.7836863 -0.3831874
-0.59181637 -0.47281408 -0.57496977 -0.39544782 -0.51790076 -0.5106218 -0.33592314 -0.85980445
-0.5950227 -0.58737266 -0.72694445 -0.63251305 -0.63455427 -0.47521186 -0.28409716 -0.68942106

fc2.weight f4 [128, 256]
00000000: 77eb d9bc c445 4e3d 0e1f 0ebe 1232 ae3c
00000010: efd1 903d 7c84 3ebd 4085 abbd 8e91 003e
00000020: 3359 f7bd 2ea0 33be f355 2f3e 6188 363e
00000030: 864d 6f3d 6f73 e43c 66df 383c 9a37 203e
00000040: 5a4c 6f3e 2283 a5bd 9e98 453d 51d6 633d
00000050: faf4 90bb d5d0 5ebe 696b ccbd bbed cfbe
00000060: 8d45 833a 0035 7ebe 3ea3 53be aac4 393e
00000070: 44af 2d3e ae98 2b3d 3a77 01be b701 b73d
00000080: 4a82 39be b3bf febe 2837 2dbe 6ff8 273e
00000090: ef39 76bd efa6 9fbd 571b 3dbd da1b d9bd
000000a0: 1f06 acbe a6e9 e4bd d6e2 3fbd 5e4e c1bd
000000b0: 62d7 2a3e ea97 3c3c 403b 78be 0ab9 063e
000000c0: 45f6 96be 1fb0 b43c 557a a43d 4203 1a3e
000000d0: 51e9 36be acd2 1ebe b5d4 d63c 37f3 85bc
000000e0: aed1 f83d 4d4a 6b3d 7ece f3bd 2b77 53be
000000f0: bf46 8abd b8fe a6bc 4489 07be 999d f93d
00000100: ffe7 bfbd d863 d3bd 402b 263e b65c 253e
00000110: 66e5 08bd 4cd3 9e3c f5f5 fabd 82b1 5abe
00000120: ca07 703d 1c57 a2be be85 5dba 4113 913d
00000130: f341 2abd ce59 8abd 070b a3bd e829 5a3a
00000140: a107 35be a165 5dbd 7dd5 173e 2ba2 133e
00000150: 5c7b f63d f4b0 8f3d 677f 77bb a925 82bd
00000160: 6543 c3bc 01fb 523e f475 e2be d28d 25be
00000170: 69f4 87be f02b f33b ac0a c2be 6584 5b3d
00000180: a622 a53d dd9c 263d a354 45bd a7e7 4dbe
00000190: ce7b 59bd ac15 66be 0cc6 97b9 e830 b3bc
000001a0: 50e8 f13c 2f6d 373d 80cc e4bd b8c7 11bd
000001b0: 7aa0 a43d 605f 91bd 7348 903d aa9b 8a3d
000001c0: 85ae a43d e49b c8be dfc1 9dbd b172 b03c
000001d0: 88da 0e3b 7b2f 29be c795 8a3c 5751 043e
000001e0: 59e1 e5bd f29a f73d 59b4 533e 19a7 29be
000001f0: b4ab c83d 9ee7 213d 9302 b83d b43f f03d
00000200: 82a8 d6bc d0c5 6fbd 68fe adbd 75fc c3be
00000210: 3b3f 8e3e b0a9 03be be2f 833d d1c2 743c
00000220: d3a1 5abe bf6d 413e aecd 2b3e 8875 95be
00000230: 9471 bbbb b707 80be 6feb 873d 6498 11bd
00000240: af74 fc3c d29e 7b3c 92fa 2abd 0750 f43d
00000250: e092 0cbd 6005 603d a381 9a3e 301b b0be
00000260: da64 853c a698 99be 2869 9bbd 45cf 93bb
00000270: a41a 473b 0255 a4be e81e 193d a19e 42be
00000280: 63ca 373e 0b93 1bbd c875 1bbd 69de abbd
00000290: 8604 b6bd 0de6 303e b0d5 4d3e 928e a5be
000002a0: 52e7 563d 3b35 ddbd 76b6 80bd 082e f1bd
000002b0: 8a62 383e 624d b5bc 6f6d 803d c0d0 1abd
000002c0: edee 4c3d 9644 753d f956 8b3d 76bb eebe
000002d0: a831 7a3d 0469 6cbe 35a5 473c e31a e33d
000002e0: 1a20 23bd aa78 213e 60ff 043e 15f9 e3be
000002f0: bff8 19be cb25 6cbe 0d50 2cbd 60e4 e43d
00000300: d815 e7bd 8082 1e3c 6fd7 85bc 370d a5bd
00000310: 016f 2abe 9547 b53d 3b96 e4bb af6b 60be
00000320: c594 80be b339 2d3e 44f1 84be a1f9 f5be
00000330: 736b 29be ed44 b9bd aab3 993e 4adf 17bd
00000340: f5a5 52bd c2d0 e83d 8238 893d 5fc1 293e
00000350: 966b 87bd e3bd ea3d e0ce b63d e40a 27bc
00000360: 3bcf 243e 6994 0dbe c326 95be 0ee0 55be
00000370: b5ce a2bd 88c5 bcbd b33d a7bd 4b0e 2bbe
00000380: 1425 f7be d726 8dbe caa2 3e3e ef9c dfbd
00000390: 16a9 5c3e 51ae 543e e00c 9e3c 83cd 933d
000003a0: f884 46be 4349 163d 517d c6be 8950 c5be
000003b0: eef4 0b3e b3fc 553d f893 203e 479b 8d3e
000003c0: eeab bebe b654 633e 2e10 033e ba64 5f3d
000003d0: 318f 86be 2e37 3bbd a202 05be d33c 6dbd
000003e0: 7c05 6bbc 8256 e93d e4a7 57be be2b 49be
000003f0: 4151 903d e899 d6be 19d9 ec3c 251a d83c
-0.026601536 0.050359502 -0.13879034 0.02126411 0.07071292 -0.046513066 -0.08375025 0.12555525
-0.1207756 -0.17541572 0.17122631 0.17825462 0.05842354 0.027887074 0.011283731 0.1564621
0.2336897 -0.08081652 0.04824125 0.05562431 -0.0044237347 -0.2175935 -0.09981424 -0.4061106
0.0010015235 -0.24824905 -0.2066774 0.18141428 0.1696139 0.041893654 -0.12643138 0.08935874
-0.18116108 -0.4975563 -0.16915572 0.16403364 -0.060113844 -0.07795512 -0.04616865 -0.106010154
-0.3359842 -0.111773774 -0.046847187 -0.094387755 0.16683725 0.0115108285 -0.24241352 0.13156524
-0.29484764 0.022056637 0.080311455 0.15040305 -0.1786244 -0.15510052 0.026224473 -0.016351325
0.12149368 0.057443906 -0.1190462 -0.20650928 -0.06751775 -0.020385131 -0.13235956 0.121882625
-0.093704216 -0.10321778 0.16227436 0.16148648 -0.033421896 0.019387864 -0.12253944 -0.21356776
0.05860118 -0.31707084 -0.000845041 0.070837505 -0.0415668 -0.0675541 -0.07961088 0.00083222846
-0.17678691 -0.054052 0.14827533 0.14417331 0.12035248 0.07016173 -0.0037765147 -0.06354839
-0.023835847 0.20603563 -0.44230616 -0.16167381 -0.26553658 0.0074210092 -0.37898767 0.05359306
0.08063249 0.04067694 -0.04817642 -0.201079 -0.053096585 -0.22469205 -0.0002894852 -0.021873906
0.02952972 0.04478186 -0.11171818 -0.035590857 0.08038421 -0.070982695 0.070450686 0.06767972
0.080410995 -0.39181435 -0.077029936 0.021539064 0.0021797735 -0.16522019 0.016917123 0.12921654
-0.11224622 0.120901 0.20674266 -0.16567649 0.09798375 0.039527528 0.08984866 0.117309004
-0.026203398 -0.058538258 -0.0849579 -0.38278547 0.27782616 -0.128577 0.064055905 0.014939026
-0.21350794 0.18889521 0.1677768 -0.29191232 -0.0057203267 -0.25005886 0.06636702 -0.03554572
0.030817358 0.01535769 -0.04174287 0.119293265 -0.03431976 0.054692626 0.3017703 -0.34395742
0.016283441 -0.29999274 -0.07588416 -0.0045107924 0.003038087 -0.32096106 0.03738299 -0.19005825
0.17948298 -0.037982028 -0.03795412 -0.08392031 -0.088875815 0.17275257 0.20101047 -0.32335335
0.052466698 -0.108011685 -0.06284802 -0.11776358 0.1800634 -0.022131626 0.06270873 -0.037796736
0.050032545 0.05987986 0.06803698 -0.46627396 0.061082512 -0.23086935 0.0121853845 0.110891126
-0.039825536 0.15768686 0.12988043 -0.44525972 -0.15036295 -0.23061292 -0.04206853 0.111763716
-0.11283463 0.009674668 -0.016338078 -0.08059161 -0.16643907 0.08851544 -0.0069759167 -0.21916078
-0.25113502 0.16916542 -0.2596532 -0.48042014 -0.16544895 -0.0904635 0.30019885 -0.03707818
-0.0514278 0.113679424 0.06700231 0.16577671 -0.06612317 0.11461999 0.08926177 -0.010195468
0.16094677 -0.13826145 -0.29131135 -0.20886251 -0.079495825 -0.092173636 -0.08166065 -0.16704671
-0.48270476 -0.27568695 0.18616787 -0.109186046 0.21548876 0.20769621 0.019293249 0.072169326
-0.19386661 0.03669096 -0.38767484 -0.38538006 0.13667652 0.052242946 0.15681446 0.2765753
-0.37240547 0.22200283 0.12799141 0.05453942 -0.2628112 -0.04570692 -0.12989286 -0.057919335
-0.014344569 0.11393453 -0.21060139 -0.19645593 0.07046748 -0.41914296 0.028912114 0.026379654

fc2.bias f4 [128]
00000000: 8d6f 5439 c938 dfbd b259 b4bb 8a7d d53d
00000010: 653b f7bd ad11 42bd d030 1c3e eb6b 56bd
00000020: 1418 ae3d 9bbd 17bd 2482 27bd d411 b8bd
00000030: 0a3a a4bd 5318 b0bd 772c efbc 536b ec3d
00000040: 1016 f9bd df5e 94bd 835f 84bd b6e4 c93c
00000050: 38bb af3d 075b 5f3d f0be 26bd a0c0 e1bd
00000060: df8c ac3c 7036 04be aea3 e0bd 7dd6 4bbc
00000070: 37f7 bbbc 88bf 80bd 0609 963b bb28 bd3c
00000080: 832b b43c 608a 69bd bbe0 c7bb ea35 a7bc
00000090: 6972 46bd 1ddb bebd aec7 d4bd 4667 45bd
000000a0: 5994 adbd 8229 60bd 3980 6cbd ad1e 52bd
000000b0: 7e12 a0bd 2b3a 083d e24c 323e e21e d5bb
000000c0: 62ba aabd 5a01 9bbd 3026 153e 27f2 95bc
000000d0: 02fe 7dbe e2c0 03be 4e6b 033e c445 aebd
000000e0: 55fa a0bd cd95 5d37 704e f03c 1f7d a5bc
000000f0: 2f7c 453e e54e 29bd e9cc c2bd fb7b 88bd
00000100: 062c 003e b44a 95bd 9f04 bbbd 8e03 2abd
00000110: b628 06bd 8bfa d53d 1059 6abd e373 7fbb
00000120: edee e1bd 54c5 a8bd 2e1e f0bd 7319 d3bc
00000130: cfea 7d3c 8996 54bc 5cd7 313c 34d1 09bc
00000140: 2cc6 26be f95d 653d 1c1a 0f3d ac9c 2cbe
00000150: 05f4 b0bd 69ad 68bd e2a4 19bd e7fb 233e
00000160: 1b84 64bd 5ec0 8e3d 4da7 bf3d a4a2 36be
00000170: 0004 a03a 9771 3d3d 3bfe 35bb e45c c03d
00000180: ecfb 7d3d 2be0 9d3c 3290 223c 0e03 8cbd
00000190: dde5 c2bd 3fe1 93bd e563 58bd e67b 61bc
000001a0: 8d7e adbd 7eaa 9e3c a083 aebd 14e2 81bc
000001b0: 5d75 5c3e d3ca f33c c4b7 12be 0d3e d7bd
000001c0: 7ce2 36bd d083 63bc 49e6 28be 8e11 843d
000001d0: 1a63 bbbd bcf5 94bd 5162 80bd 7665 debd
000001e0: bd7f 2b3d 1b61 b5bd f89b 64bd 7523 d9bb
000001f0: 4a14 ee3d c664 eabd d78c 1b3d 751b b2bd
0.00020259451 -0.10899503 -0.0055038566 0.10424335 -0.120718755 -0.04738014 0.15252995 -0.052349012
0.08500686 -0.037046056 -0.040895596 -0.089877754 -0.080188826 -0.085983895 -0.029196007 0.11543908
-0.12162411 -0.07244658 -0.0646353 0.02464519 0.08580631 0.05453017 -0.040709436 -0.110230684
0.021063266 -0.12911391 -0.109687194 -0.012441275 -0.02294503 -0.06286532 0.0045787124 0.02309071
0.021993404 -0.05701673 -0.006099788 -0.02041145 -0.048448954 -0.09319136 -0.103896484 -0.048194192
-0.08475561 -0.054727085 -0.05773947 -0.051298786 -0.07816027 0.0332586 0.17412141 -0.0065039257
-0.08336331 -0.07568617 0.14565349 -0.018303944 -0.24803928 -0.12866548 0.12833902 -0.085094005
-0.07860247 1.3207505e-05 0.029334277 -0.020201264 0.19285654 -0.041335005 -0.0951174 -0.066642724
0.12516794 -0.07289639 -0.09131741 -0.041507296 -0.03275367 0.10448178 -0.057213843 -0.0038978986
-0.110318996 -0.08240762 -0.11724506 -0.025768971 0.015497877 -0.0129753435 0.010854568 -0.008411694
-0.16286534 0.055997822 0.03493701 -0.1685664 -0.08640293 -0.056806 -0.03751076 0.16014062
-0.055790048 0.06970285 0.09358082 -0.1783548 0.0012208223 0.046250906 -0.0027769941 0.093927175
0.06200783 0.01927193 0.009922074 -0.0683652 -0.09516499 -0.07220697 -0.05282964 -0.01376245
-0.08471403 0.019368406 -0.08521199 -0.015854873 0.21529146 0.0297598 -0.14327914 -0.10509882
-0.044649586 -0.013886407 -0.16494097 0.06448661 -0.091497615 -0.072734326 -0.06268752 -0.10859196
0.041869868 -0.08856412 -0.055812806 -0.0066265413 0.116249636 -0.11445002 0.037976112 -0.08696643

fc3.weight f4 [64, 128]
00000000: 27a8 26be 708f 5cbe 06d7 223e 82f1 2a3d
00000010: 7d64 fc3d 8e99 febc c83d 4c3e d020 613d
00000020: 3742 283e d983 283d bcc1 61be a85c 11bd
00000030: 3a7e 9e3d b923 553d f86c aa3d 24ce 0b3e
00000040: e90d 0f3b b1b1 6fbd 4060 0bbd a2b9 02be
00000050: 1ff7 f3bd d62f e03d 06de f5bd 6b90 e4bd
00000060: 077f bb3d f0b5 d7bd ed34 cb3d ec62 cfbb
00000070: a825 933c 1975 5cbd 09b3 633e c5d2 b43c
00000080: 7c5f c33b 45ab b0bd 4b1c 42bc 31d3 603c
00000090: 45e1 adbd 12da 273d 3bad c6bd 4533 d1ba
000000a0: 88a2 eebb 25ee 3b3d ba5e a23c d4de 9dbb
000000b0: 2a66 b73d 0571 e1bd 2925 34be 6a03 8e3d
000000c0: a9d2 433c adea db3c 0ab7 863d 9d97 d93c
000000d0: 5b72 6bbe 6c11 37bc 21f7 eabd d5ef c6bd
000000e0: 4008 c03c 4cfc 6c3d 0872 1ebe bc9a 84bc
000000f0: 3fdf 093e 63d0 543c 937d c3bd 7d64 04bb
00000100: 904e d13d 0b92 14bd 50bb 083d 5818 893d
00000110: 8896 31be 542b 29bd 7bc1 c83d 753d 0b3e
00000120: e05b d93d af7f 473d 8e7c cdbd 33c8 973b
00000130: 5a5a c53d f8da cabd 6816 06be b969 15be
00000140: c2f0 50be a2d5 4f3e 2b3b 50be 0af4 bb3c
00000150: 83bd d1bc b028 59bd d6e1 41be 913f 253e
00000160: 2369 46bc a0a5 073e 14f6 87bd 945d 5fbe
00000170: 7f30 5cbe 942a 703e 65a1 1b3b c5bc 41be
00000180: 85db ce3c c533 c8bc 4abf 25be e007 a73a
00000190: 8343 0a3e 3fdd 47be e7a7 13be 27d8 89be
000001a0: db0e a5bc 6a19 3f3d 342b a03d 7995 19be
000001b0: 173e 563e 73f4 01be 95c4 2b3c 5e97 19be
000001c0: b14f aabb a7fe 2abe e222 a13d 4d1d bdbd
000001d0: 954b c73c 592c c83c a5f3 a03d b9df ac3d
000001e0: 2b08 e3bd ea80 603d d76c 643e 9ac8 04be
000001f0: b617 ac3d 6143 80bc 0d62 0fbd 1108 c43c
00000200: 6565 5f3d c3d8 56be f5d2 acbd a795 d2bd
00000210: e820 70bd 5133 4dbd 0834 2cbe 03d9 3a3d
00000220: df54 1ebe ceb5 82bd eacd f43d 6856 cfbc
00000230: 7730 2ebd 1e02 1abd 9022 5ebe 6473 ef3d
00000240: b209 563d 8a9b bcbc 01ec e9bc b4d3 dabd
00000250: cd9c 9fbc 99fc e6bd f2f5 c1bd 22b6 733d
00000260: 5f6a 22be 4646 89be 386f 95bc 14a3 dd3c
00000270: 69d6 c03d 13e5 52be 5934 a43c 4d10 fabd
00000280: 9dc9 de3d 8d5a e73e 44ea fc3c 5a52 c2bd
00000290: f1bd 9cbd 1621 723d 9efe afbd a763 a13d
000002a0: 3676 52bb 50c0 95bd ce06 39be 7e41 903c
000002b0: 968d d2bd 05b4 bd3d 961b bdbd 7156 56be
000002c0: cd1e abbd c73f 76bd f856 fdbd 0e75 b83c
000002d0: c0be b13d c7ae 82be 3715 67bc 36e7 5abd
000002e0: 0ece ee3d c911 80bd 1434 c1bd 3758 cabd
000002f0: f4d4 62be 5594 1fbd d0b0 ea3c 2430 5ebd
00000300: 6e6c 513d b3bb 98bd 7fc9 a8bd dfd9 d2bc
00000310: 817e 193e eb73 133e 5381 54bd bee6 193e
00000320: cf90 193e 7f11 0cbe 7615 1fbd 9b8e 563d
00000330: 0f46 b83d 3469 abbd fe00 9e3d b596 cf3d
00000340: 8ec2 423e 4deb 10bd 3e15 f73b 50d0 d2bd
00000350: d640 7a3d d7f8 bf3d 48a8 713d 0cac 8fbe
00000360: df97 2abd 94f0 a6bd c0b5 83bd dd3d 4cbe
00000370: 65e6 213e 7207 00bd bdaf b83d eaee 433d
00000380: 8d13 89bd 80d1 babb 42bc ffbd 9261 f6bc
00000390: 1ef9 9dbb 90e2 773d f0e1 06bc e502 6e3c
000003a0: 1f2b be3c cf01 81bd 2f3a 4cbd 318c 84bd
000003b0: 57b3 8bbe 1f3b 40bd c2d6 d9bd ac5d c43d
000003c0: 0292 2d3d 543e 33bd b47b 1e3e 1406 113e
000003d0: 7d4e 0fbd 7abf d33c 09fe cfbd ba6b 03be
000003e0: 8791 7f3d 821a 413d e6c4 bfbd bbc7 fe3b
000003f0: baa2 40be a990 693d f6e8 b5bd 9655 59bd
-0.16275083 -0.21539092 0.15902337 0.041734226 0.12323854 -0.03107908 0.19945443 0.054962933
0.16431509 0.041141365 -0.2204656 -0.035488755 0.077389196 0.05203602 0.083215654 0.13652855
0.002182836 -0.05851907 -0.034027338 -0.12766126 -0.11912369 0.10946624 -0.12005238 -0.11160358
0.09155088 -0.10532749 0.09922204 -0.006328931 0.017962292 -0.05382261 0.22236265 0.022073159
0.0059623104 -0.08626417 -0.011847566 0.013722227 -0.084902324 0.040979452 -0.0970101 -0.0015960714
-0.007282559 0.04588141 0.01982056 -0.004817823 0.08955033 -0.11007885 -0.175923 0.06934245
0.011952081 0.0268453 0.06577881 0.026561553 -0.22992842 -0.011173587 -0.11472917 -0.09713713
0.023441434 0.057857797 -0.15473187 -0.016187064 0.13464068 0.012989136 -0.09545436 -0.0020201497
0.10220063 -0.03627209 0.03338176 0.06694096 -0.1734258 -0.041301087 0.098025285 0.13597663
0.10613227 0.048705753 -0.100335225 0.00463202 0.09636374 -0.09905046 -0.13094485 -0.14591111
-0.20404342 0.20296338 -0.20335071 0.022943515 -0.025603062 -0.05301732 -0.18933806 0.1613753
-0.0121100275 0.13246775 -0.066387326 -0.21813041 -0.21502875 0.23453742 0.0023747322 -0.18919666
0.02525116 -0.024438748 -0.16186252 0.0012743436 0.13502316 -0.19517992 -0.14419518 -0.26922724
-0.020148685 0.046655096 0.0782074 -0.14998426 0.20922123 -0.12690906 0.0104838805 -0.14999148
-0.0051974882 -0.16698705 0.078679815 -0.09234104 0.024328033 0.02443521 0.078589715 0.08441109
-0.11085542 0.054810442 0.22307144 -0.12967148 0.0840296 -0.015657129 -0.035005618 0.023929628
0.054540057 -0.20981126 -0.08438674 -0.1028245 -0.05862513 -0.050097767 -0.16816723 0.045617115
-0.15462063 -0.06382333 0.119533375 -0.025309756 -0.04252669 -0.037599675 -0.21692872 0.11691931
0.05225534 -0.023023386 -0.028554918 -0.106849104 -0.019483948 -0.11278648 -0.094707385 0.059499867
-0.1586089 -0.26811427 -0.01824151 0.0270553 0.094158955 -0.20595197 0.020044493 -0.122101404
0.108782984 0.45186272 0.030873425 -0.094883636 -0.07653416 0.059113584 -0.08593486 0.07880335
-0.0032113916 -0.07312071 -0.18069002 0.017609354 -0.102809116 0.092628516 -0.09233777 -0.20931412
-0.08355484 -0.060119417 -0.123701036 0.022516754 0.08678961 -0.2552397 -0.014104179 -0.053443156
0.116603956 -0.06253392 -0.09433761 -0.09880107 -0.22151548 -0.03895982 0.028648764 -0.05424513
0.051128797 -0.07457676 -0.08241557 -0.025738655 0.14989664 0.14399688 -0.051881146 0.15029427
0.14996646 -0.13678549 -0.038838826 0.052382093 0.089977376 -0.08369675 0.07715033 0.10136167
0.19019529 -0.03538065 0.007540374 -0.10293639 0.06109699 0.09373634 0.058998376 -0.2806095
-0.04164874 -0.081513554 -0.064311504 -0.19945474 0.15810545 -0.0312571 0.090178944 0.047835268
-0.06693182 -0.005701244 -0.12487079 -0.030075822 -0.004820957 0.0605188 -0.008232579 0.014527057
0.023213921 -0.06299173 -0.049860176 -0.06472052 -0.27285263 -0.046931382 -0.10636665 0.09588179
0.042375572 -0.043760613 0.15476876 0.14162475 -0.03498696 0.02584814 -0.10155875 -0.12834063
0.062394645 0.04714442 -0.09363727 0.0077752746 -0.18812075 0.057022724 -0.088823244 -0.053060137

fc3.bias f4 [64]
00000000: 5a52 a73e 8d7f 023e 3b23 56bd 71c0 733e
00000010: ad18 d2bc c865 883d 201f b6bd c309 a63e
00000020: a2b9 8f3e 0339 0c3e 47b5 2cbe c00e a73d
00000030: ba7c 8f3e 4ab7 b43c 3dda dabd 5b1e f9ba
00000040: 82ae 84bc f54e 0bbc fea3 623d 079a 0fbd
00000050: a019 b23e cfc9 8d3d 9429 d8be 7485 653d
00000060: 9780 283e cff0 c63e eb15 8d3e ee11 403e
00000070: 75f4 eebd 8aea a6bd b319 4d3c a01c 563e
00000080: d109 db3d 1126 eb3d 2d19 a23e e82e fa3d
00000090: 6443 903d fe8b 5cbe 242e 1e3d 9844 8fbe
000000a0: a1fe c43d f148 3c3e 28b2 b03d 9227 84be
000000b0: 9cc4 023e 84c1 cebb 80f1 673e 382a 213e
000000c0: 8770 543e 152a 803e 8d8d ff3d c605 d3bd
000000d0: 7b0a 1fbd 3e7a 8fbd 8a77 14be ee0f d23e
000000e0: 4afc 9cbd 18ee e73d a964 113e 811f 333c
000000f0: 5ada e33d df52 26bd 8228 963d cf03 25be
0.32680017 0.1274397 -0.052279692 0.2380388 -0.025646532 0.06660038 -0.088926554 0.32429323
0.28071314 0.13693623 -0.16866027 0.0815711 0.28024846 0.022060055 -0.10686157 -0.0019006239
-0.016196493 -0.008502712 0.055332176 -0.035059 0.34785175 0.069232576 -0.42219222 0.056035474
0.16455303 0.38855597 0.27555785 0.1875684 -0.1166772 -0.081502035 0.012518334 0.20909357
0.10695232 0.1148187 0.31659833 0.12215978 0.07044104 -0.21537778 0.038618222 -0.2798202
0.09618879 0.183872 0.086277306 -0.2581144 0.12770313 -0.00630969 0.22650719 0.15738761
0.20746051 0.25032106 0.124781705 -0.103038356 -0.038828354 -0.07005738 -0.14498726 0.41027778
-0.07665308 0.1132471 0.14198555 0.010932804 0.11125632 -0.040606376 0.07331945 -0.16114734

fc4.weight f4 [32, 64]
00000000: a197 37be f158 1d3a f992 00be b02d 8e3d
00000010: 4883 033e 475f 88be d307 febd a7ef b4bc
00000020: 987b 93bd 6f62 28bc 98fe f9bd 4bdb 4d3e
00000030: 188e 9fbd 742a 3f3d 2790 223e acd3 feba
00000040: fc4d 4cbd 141b bcbc 7557 013e 40b5 e8bc
00000050: 0161 f4bd 213b a63d 5999 4c3e 2979 f93d
00000060: 8f31 01be 401b 88be 28a9 78be 7533 46be
00000070: 90c5 8fbd 4c3a f93d ebb7 8c3d ca3d 3dbe
00000080: 5bd4 00bd 9329 52be 8126 dfbc dd85 033e
00000090: d6eb e73d ca5c 043e 837d 2a3c aba8 c93d
000000a0: 1775 78bd 8fd2 123e 5412 783d 7b1b c9bc
000000b0: dce2 48be 5d52 01bd 1698 a6be 555c 463d
000000c0: 50c9 273d 188d 3f3d 8f98 033e 5f01 4c3e
000000d0: 71a3 9b3e 500b 713d e6a5 413d de1b 353c
000000e0: af62 28bd e7d5 30bb bb59 c6bd 18e4 1fbc
000000f0: 1eb3 e93d b897 29bd 78f4 073e 8cba d9bc
00000100: c3e8 e2bd 66d7 e13d 0e9a 3abe f5d0 bebc
00000110: 232e 6e3e b0f4 41be f7d8 973d 1b13 8fbd
00000120: 5bb1 e4bd 5867 893e bece a9be 8c39 f13d
00000130: 862d 8bbd 6dc0 d03d 8d3b f03d 857a 373d
00000140: 507f 953c 4c97 b7bd a87d 263e 8f7e 143d
00000150: de5a 73be ef9e 6f3e f0e2 743c 6477 273e
00000160: 469b a43d e9a1 f9bd 1d73 7d3d 9f53 71be
00000170: 4f29 bf3d 8fae 57bd 07fa 903d 2329 8dbe
00000180: 689e a0bc 580b 5cbd cfa4 f9bc cabf b43d
00000190: 9a07 9b3d 106a 1e3d f24c 1b3e 7bbd 423d
000001a0: 6d14 05bb baa2 d33d 6080 4dbd 2479 28be
000001b0: e473 fabd 9c5e 023c 0627 f7bb 6fd8 c33d
000001c0: 1a8b 423e aebc 20bd 60e9 2e3e 563f 143e
000001d0: 2431 9e3d f762 c13d eb4f fd3d 8914 cbbb
000001e0: 6a71 7a3d 84be 41be 0e1b 82bd 2d63 96bc
000001f0: d8fb 11be d7ce 50be f14c 683d f8c1 27be
00000200: d8d1 bd3d 0a30 5dbd 791b 6c3e 4491 70be
00000210: 9452 09be 20ab 4b3d 7865 78be ee2b c2bd
00000220: 589c 0fbe e0d4 55be 80d1 8b3e e792 a9bd
00000230: 7b17 8e3d b3f1 8bbd da63 0bbe 4812 4a3b
00000240: 3ae0 5c3d 7d81 e83c ce18 93be ad26 babd
00000250: 36c9 de3d ac7e dcbd 30a9 f83d 85fa 723d
00000260: 1fc8 fa3b 175c 953c c367 8dbd 9faf 353d
00000270: 3db0 3c3e e165 e0bd af49 c2bd ee2f d03c
00000280: b8b3 cc3d e918 4d3c 393c 1cbe 19a3 45bd
00000290: 2901 98bc 4e38 563e 167b bcbd 8e5f 033e
000002a0: f875 b63d 3bc4 f0bd 7065 b0bd 018c 57bd
000002b0: 7040 c13c 3c12 cb3d 78dd ff3c 88a9 f83b
000002c0: c8a2 98bd 695e fb3c a879 cebd 3cf2 f2bc
000002d0: 0c8b 153d d78e 54be 107e bc3d 813c 1fbd
000002e0: 6626 b4bd 6364 513e db14 62bc faee 7e3d
000002f0: 90c7 553e 366f 133e 7cd6 aebd c9f4 d43d
00000300: 4c05 9b3d d417 0fbe e6a2 a03b d4bb 31be
00000310: 4cf0 f8bd 0e93 173d 1c97 d53c 50e5 96bd
00000320: 3984 493d b3c3 84be 1065 acbc cf58 fabd
00000330: 178a 0f3e 6c7d 33bd 1e74 d7bd 5f7d b83b
00000340: 1e0b 13bd e108 5c3e 5f36 1bbe bd55 5ebd
00000350: 455a 523d 3463 b2bd 28f3 f9bd 5d46 22be
00000360: c239 183e 99b9 5c3e b949 1a3e 5fd8 483e
00000370: 259f bc3d 9ce1 05bd ab4e 4f3d db7a 85bd
00000380: 0a4f ca3d ca92 d83d 9bc0 233d 754e 25bd
00000390: 739b e33c d51f a0bb 3269 2cbe f558 24bd
000003a0: 445c 99bc d5b1 d0bd 7d99 0dbc be3d 953c
000003b0: cb8c 1b3d 3dd9 8e3b 8550 c43d e4b8 033d
000003c0: 608f afbe 17dc ac3d f339 7cbe 639d a0bd
000003d0: 387a 8dbd e73e d3bd 5d09 3fbd 061f 093e
000003e0: cdb1 43be 70ca f23d a94d 873d 7f52 57be
000003f0: 697a b43d 2b32 1e3d 9a2c 51be c1b7 67bd
-0.17928936 0.0006002328 -0.12556066 0.06942308 0.12843049 -0.2663519 -0.12403836 -0.022086931
-0.07201308 -0.010277375 -0.12206763 0.20103185 -0.07790774 0.046671346 0.15875302 -0.0019441745
-0.04987906 -0.02296213 0.12631018 -0.02840674 -0.119325645 0.08116747 0.19980372 0.121813126
-0.12616561 -0.2658329 -0.24283278 -0.19355567 -0.07020104 0.12169322 0.06871017 -0.18480602
-0.031452518 -0.20523672 -0.02724004 0.12844034 0.11324279 0.12926021 0.010405901 0.09846624
-0.06065854 0.14338134 0.060564354 -0.024549237 -0.1961779 -0.03157269 -0.32537907 0.0484279
0.04096347 0.046765417 0.12851165 0.19922398 0.30398133 0.05884868 0.047277354 0.011054007
-0.041109737 -0.0026982964 -0.096850835 -0.009758972 0.11411117 -0.041404456 0.13276851 -0.02657821
-0.11079552 0.11027412 -0.1822283 -0.023292998 0.23259787 -0.18940997 0.0741443 -0.06986066
-0.1116664 0.26836658 -0.33165544 0.11778554 -0.06795792 0.10192952 0.117301084 0.044794578
0.018249184 -0.089644045 0.16258872 0.03625351 -0.23765132 0.23400472 0.014946684 0.16354138
0.080374286 -0.12189085 0.06187736 -0.23567055 0.09334051 -0.052656706 0.07078939 -0.27570447
-0.019606784 -0.053721756 -0.030474095 0.08825643 0.07569809 0.038675368 0.15166071 0.047543984
-0.0020306364 0.10333772 -0.050171256 -0.16452461 -0.12229136 0.007957127 -0.0075424938 0.09562766
0.18998376 -0.03924244 0.17081213 0.14477286 0.077242166 0.09442704 0.12368759 -0.0061975163
0.061143316 -0.18920332 -0.063528165 -0.018357838 -0.14256227 -0.20391403 0.056714002 -0.16382587
0.0926854 -0.05400089 0.23057355 -0.23492914 -0.13410407 0.049723744 -0.24257457 -0.09481035
-0.14024484 -0.20881987 0.27308273 -0.082799725 0.06938072 -0.0683321 -0.13612309 0.003083365
0.053924777 0.028382057 -0.28729862 -0.09089408 0.10878222 -0.10766348 0.12141645 0.059320945
0.007653251 0.018232388 -0.069045566 0.04435694 0.18426605 -0.10956932 -0.0948671 0.02541348
0.09995216 0.012518146 -0.15257348 -0.048251245 -0.01855524 0.20919916 -0.09203164 0.1282942
0.089092195 -0.11756178 -0.08613098 -0.052623753 0.023590297 0.09915587 0.031233534 0.007588569
-0.07452923 0.030684667 -0.10081798 -0.029656522 0.03650956 -0.20757614 0.09203732 -0.03887606
-0.087963864 0.2044845 -0.013798918 0.062239625 0.20876908 0.14397892 -0.085370034 0.103982516
0.0756937 -0.13973933 0.0049022315 -0.17356807 -0.12155208 0.037005477 0.026073031 -0.07367957
0.049198363 -0.25930557 -0.021044284 -0.1222397 0.14017521 -0.043820783 -0.105201945 0.00563018
-0.035899274 0.21487762 -0.1515746 -0.054280985 0.05135562 -0.08710328 -0.122045815 -0.15847154
0.14865783 0.21555175 0.15067185 0.19613789 0.09210042 -0.03268586 0.050612133 -0.065175734
0.09878357 0.10574873 0.039978605 -0.040358026 0.027784085 -0.004886607 -0.16837004 -0.0401239
-0.018720753 -0.10190169 -0.0086425515 0.018217918 0.037976068 0.004359393 0.095856704 0.032158747
-0.34289074 0.08440416 -0.24631481 -0.07842519 -0.06908077 -0.10314732 -0.04663979 0.13390741
-0.19110794 0.11855018 0.066066094 -0.21027564 0.088124104 0.038622063 -0.2042717 -0.056571726

fc4.bias f4 [32]
00000000: d27a cd3e 8d4a 663e dc04 ccbd 8c18 cf3e
00000010: a7cf ca3e 5e1c 803e c99a 823e 8f7d 0abe
00000020: b78c 943e e6fd 25be 3f90 983e a1af 57be
00000030: 53f4 6c3e b815 853e d120 843e 1a97 3e3e
00000040: 75fa d33e 1fa2 763e bb29 833e af00 c33e
00000050: f12f 973e 8b3e b13e 10e8 65be bed8 bf3e
00000060: 9444 a73e 4dc6 583e 9d7d 71bc ea15 cd3e
00000070: 5d27 243e 6f2e 85bd 84c5 2e3e d8f9 a43e
0.40132767 0.22489376 -0.09961864 0.40448415 0.3961155 0.25021642 0.25508717 -0.1352446
0.29013607 -0.16210136 0.2979755 -0.21063091 0.23140077 0.25993133 0.25806287 0.18612328
0.4140202 0.24085282 0.25617775 0.3808646 0.29528764 0.3461803 -0.22451806 0.3747005
0.32669508 0.21169396 -0.014739421 0.40055782 0.16030641 -0.06502997 0.17067534 0.32221866

fc5.weight f4 [1, 32]
00000000: 2c99 d03d 9899 a93d a484 e8bc 600d 0dbe
00000010: de19 203e 7c08 0fbe 21ff e33d a40b c63c
00000020: 8109 81bd fe17 0ebd 5e02 36be 57b0 dd3c
00000030: 148a b0bd 9471 04be 4efd 03be ea36 ddbd
00000040: 24c5 edbd c990 a73d 7f41 d7bd a2cb a7bd
00000050: 35b0 c53d 8e03 f63d a800 503d 0ea1 ed3d
00000060: 5901 b83d bdd6 903d 235a e13c 9fda 0ebe
00000070: 734c 003e 0a02 713d dee0 dd3c b9af db3d
0.10185465 0.08281249 -0.02838356 -0.13774633 0.15634868 -0.1396808 0.11132646 0.024175473
-0.06300641 -0.03469085 -0.1777434 0.027061624 -0.08620086 -0.12933952 -0.12889597 -0.1080149
-0.11609867 0.081819125 -0.10510539 -0.08193137 0.096527494 0.12012397 0.050781876 0.11602984
0.08984632 0.07072208 0.0275088 -0.13950585 0.12529163 0.058839835 0.027084764 0.10726876
