scripts/built_models/torch_ou.pth (torch, 693523 bytes, 9 tensors)

fc1.weight f4 [256, 504]
0	0x3a3155b2	0.0006764784
1	0x3d4390cc	0.04774551
2	0x3c9f4b3a	0.01944505
3	0x3ccacbb4	0.024755336
4	0xbe394e25	-0.18096216
5	0x3d96a5e8	0.07355863
6	0x3d9dade7	0.07699185
7	0xbd86b3cb	-0.065772615
8	0xbe339ce4	-0.17540318
9	0xbe2e8734	-0.17043763
10	0x3d27b723	0.040946137
11	0xbe87d943	-0.26532945
12	0x3e54d3cb	0.20783918
13	0x3d2ca3d4	0.042148426
14	0x3c7cc4be	0.015427766
15	0x3dba48fa	0.090959504
16	0x3e7d7921	0.24753238
17	0xbd932bbc	-0.07186076
18	0x3e4defe3	0.20111041
19	0xbdf57ffd	-0.119873025
20	0x3d2d0769	0.042243395
21	0x3dfe4224	0.12414959
22	0x3e3e66b5	0.18593867
23	0xbdf3c7f5	-0.11903373
24	0x3bbc76e8	0.0057514794
25	0xbe2b15e1	-0.16707565
26	0x3e4cf26b	0.2001435
27	0x3de3140f	0.1108781
28	0xbe0379e9	-0.12839474
29	0x3e8b12d7	0.2716281
30	0xbd9b5250	-0.07584059
31	0x3d522845	0.051307935
32	0xbd97bd4a	-0.07409151
33	0xbe31a477	-0.17347895
34	0xbb6ad90d	-0.0035834939
35	0xbe2a47cf	-0.16628955
36	0x3e066d4f	0.13127635
37	0xbd4baae8	-0.049723536
38	0xbe638be0	-0.22221327
39	0x3e5fa565	0.21840437
40	0xbd931a11	-0.07182706
41	0xbc9f924b	-0.019478938
42	0x3dd57e11	0.10424436
43	0xbe13383d	-0.14376922
44	0x3e2a0403	0.16603093
45	0x3e94cfab	0.29064688
46	0x3c42c0e9	0.011886814
47	0x3e59594a	0.21225467
48	0x3d2091f1	0.03920168
49	0x3d807a78	0.06273359
50	0xbd9653e9	-0.07340223
51	0xbd93e727	-0.07221823
52	0x3d9d495e	0.07680009
53	0x3d7b06b8	0.061285704
54	0xbd31855f	-0.043340083
55	0x3e09af21	0.13445713
56	0xbe2808f6	-0.16409668
57	0xbed15a41	-0.4088917
58	0xbe299459	-0.16560496
59	0x3ea3ebb5	0.32015768
60	0xbe12c89e	-0.14334342
61	0xbdfa1a07	-0.122119956
62	0xbe7181f4	-0.2358473
63	0x3dc0dc69	0.0941704
64	0x3d5fe68d	0.05466323
65	0xbd16f67c	-0.03685616
66	0x3ca04db3	0.0195683
67	0xbe0a61b2	-0.1351383
68	0x3dc2306c	0.09481892
69	0x3d9c94e6	0.076455876
70	0x3d9664df	0.073434584
71	0x3d8543dd	0.065070845
72	0x3abc1ff3	0.0014352783
73	0xbc4af0fd	-0.012386558
74	0x3cb3f478	0.021967158
75	0x3e60a323	0.21937232
76	0x3e5dc2b9	0.21656312
77	0x3ccbf1df	0.024895607
78	0x3e33bcb9	0.1755246
79	0x3d9ecb87	0.077536635
80	0x3d16bb8a	0.036799945
81	0xbe011ae5	-0.12607916
82	0xbe6c6641	-0.23085882
83	0x3e1d11fb	0.1533889
84	0x3e8a5822	0.27020365
85	0xbd1962b8	-0.03744766
86	0x3d880e15	0.06643311
87	0x3e2ce673	0.16884784
88	0x3c553a07	0.013014323
89	0x3ddadbdf	0.10686468
90	0x3dc96797	0.09834211
91	0x3d789168	0.060685545
92	0xbda459e9	-0.080249615
93	0xbe4145c6	-0.18874273
94	0xbe0103ad	-0.12599058
95	0x3e858fd8	0.26086307
96	0x3dd3e3e7	0.10346203
97	0x3ec2b466	0.38028258
98	0x3c6934b1	0.014233754
99	0x3d559b9f	0.052150365
100	0x3e1b3d51	0.15160109
101	0x3d869e42	0.06573154
102	0x3c69ebd2	0.014277415
103	0xbccb6153	-0.024826681
104	0xbd2117b0	-0.03932923
105	0x3b4f7fd5	0.0031661887
106	0x3d663e49	0.056211744
107	0x3dcd381e	0.10020469
108	0xbd6a29fc	-0.057168946
109	0x3c957d00	0.018248081
110	0xbe53ceb0	-0.20684314
111	0xbe717aee	-0.2358205
112	0xbdf2090e	-0.11818133
113	0xbe08a1da	-0.13342991
114	0x3d9586b2	0.07301082
115	0x3ceca9c4	0.028889544
116	0x3d1698cb	0.03676681
117	0x3d87850a	0.06617172
118	0xbdf0cb4d	-0.117575265
119	0xbeb3d232	-0.35121304
120	0xbe4c80d5	-0.1997102
121	0x3ea38070	0.31933928
122	0xbe1364c1	-0.14393903
123	0x3e746507	0.23866664
124	0x3d22938b	0.03969149
125	0x3d952dac	0.07284102
126	0x3d87c328	0.0662902
127	0x3c93dad8	0.018048689
128	0x3d54d3c8	0.051959783
129	0xbddfc111	-0.10925496
130	0x3cc67591	0.024225982
131	0x3cc4a1cb	0.02400293
132	0x3d9013bb	0.07035013
133	0x3d1ff9eb	0.0390567
134	0x3d64e063	0.055878054
135	0x3db4dbc2	0.08830978
136	0x3cf598f0	0.029980153
137	0x3e86fee8	0.26366353
138	0x3e32a10a	0.17444244
139	0xbd02905e	-0.03187596
140	0x3e456318	0.19276083
141	0x3da84ba6	0.08217554
142	0x3ccc1e12	0.024916682
143	0xbdbab79e	-0.091170534
144	0xbdb65ab8	-0.08904022
145	0x3e1a9baa	0.15098444
146	0x3d17c09e	0.03704893
147	0x3d489bf3	0.04897685
148	0xbc1f0ab1	-0.009707139
149	0x3e3f6089	0.18689169
150	0xbd18cc5f	-0.03730428
151	0x3e1352b6	0.1438702
152	0x3dd57f5f	0.10424685
153	0x3dcaf764	0.09910467
154	0xbc9111c7	-0.017708672
155	0xbd1f8c16	-0.038951956
156	0xbd8a753b	-0.06760641
157	0x3e47cc18	0.1951145
158	0x3da0a326	0.07843618
159	0x3e9bbf0a	0.3041919
160	0x3d227ac9	0.03966788
161	0x3df28485	0.11841682
162	0xbb8d20f9	-0.004306909
163	0x3e902840	0.28155708
164	0x3e6bc211	0.23023249
165	0x3d26e7a8	0.04074827
166	0xbd8ecdea	-0.06972869
167	0x3d24cf2a	0.04023663
168	0xbd82eb8a	-0.06392582
169	0x3d7f6195	0.06234892
170	0x3deafcf1	0.11474026
171	0xbd21e354	-0.039523438
172	0xbea311db	-0.3184956
173	0x3b4055f1	0.00293481
174	0x3d232548	0.039830476
175	0xbbdbb917	-0.006705414
176	0x3cfc15e0	0.03077215
177	0x3d8a38e8	0.06749135
178	0xbb212019	-0.0024585782
179	0x3b630b18	0.0034644064
180	0xbe2b0289	-0.16700186
181	0xbe8f1b38	-0.27950454
182	0xbe580bf4	-0.2109831
183	0x3e5d9182	0.21637538
184	0xbe7d2a32	-0.24723127
185	0x3e324a5c	0.17411178
186	0xbba16a39	-0.004925993
187	0x3ced079e	0.028934296
188	0x3d063827	0.032768395
189	0xbc0518a0	-0.008123547
190	0xbd9bf221	-0.07614542
191	0x3e0d4ee5	0.13799627
192	0xbda6d94a	-0.08146913
193	0xba1674d3	-0.0005739454
194	0xbda3bd4c	-0.0799509
195	0xbdc11076	-0.09426968
196	0x3d0f549b	0.034992795
197	0x3d25e76c	0.040503904
198	0xbc8b6738	-0.017016992
199	0x3da65505	0.08121685
200	0x3e05ebf8	0.13078296
201	0xbc8bb146	-0.017052304
202	0xbc6a008e	-0.014282359
203	0x3dfdf8be	0.124009594
204	0xbdfb395b	-0.12266799
205	0xbe4382fe	-0.19092938
206	0xbdaf26a3	-0.08552291
207	0x3dbd242c	0.09235415
208	0x3d985e4e	0.07439862
209	0xbcf23a29	-0.029568749
210	0xbcfb8b1f	-0.030705987
211	0x3e10c1e4	0.14136463
212	0xbd86d64e	-0.06583844
213	0xbc50e0ec	-0.012748938
214	0x3e21b092	0.15790012
215	0xbdcfb6ac	-0.10142264
216	0xbe21bf31	-0.1579559
217	0xbd891a4e	-0.0669447
218	0x3cc31eeb	0.023818454
219	0x3e44da24	0.19223839
220	0xbb9307fb	-0.0044870353
221	0x3e8dadf6	0.27671784
222	0xbc87eb53	-0.016591704
223	0xbd89a82b	-0.067215286
224	0x3dd45a60	0.103688
225	0x3da5c329	0.080938645
226	0xbc3b769c	-0.011441853
227	0xbd033aaf	-0.032038387
228	0xbdc56f37	-0.09640353
229	0xbd162835	-0.03665944
230	0x3c610f78	0.013736598
231	0xbd9032ac	-0.07040915
232	0x3df257bf	0.118331425
233	0xbe155af5	-0.14585479
234	0xbe3eb76a	-0.18624654
235	0xbd34ee80	-0.044172764
236	0x3cec4f7d	0.028846497
237	0x3cda7278	0.026665911
238	0x3d90e5d2	0.07075085
239	0xbc350724	-0.011049066
240	0x3d87b98d	0.06627188
241	0xbb618db0	-0.0034416728
242	0xbdc4bd4e	-0.096064195
243	0xbdcbe3e0	-0.09955573
244	0xbe557a16	-0.20847353
245	0x3d85df56	0.065367386
246	0xbe0ac2af	-0.13550828
247	0x3dd26940	0.10273981
248	0xbcd3f138	-0.025871858
249	0x3c831a5e	0.016003784
250	0x3cf20a39	0.02954589
251	0x3cfb6117	0.030685944
252	0x3cb939d4	0.022610582
253	0xbce2d740	-0.02769053
254	0xbc32cfe0	-0.010913819
255	0xbd34eaca	-0.044169225

fc1.bias f4 [256]
0	0xbf0d0b67	-0.55095524
1	0xbefb09e9	-0.49030998
2	0xbec1919f	-0.37806413
3	0xbeb7ff55	-0.3593699
4	0xbe8446d3	-0.25835285
5	0xbebd4516	-0.3696677
6	0xbe870db6	-0.26377648
7	0xbea2e0f6	-0.31812257
8	0xbecb0578	-0.3965261
9	0xbee6fc0f	-0.4511418
10	0xbec523b1	-0.38503793
11	0xbe631763	-0.2217689
12	0xbe52052f	-0.2050979
13	0xbe098718	-0.1343044
14	0xbebf18c3	-0.3732358
15	0xbf09d0f5	-0.5383447
16	0xbebdf8b1	-0.371038
17	0xbe8e7099	-0.2782028
18	0xbea099e3	-0.31367406
19	0xbece4bdb	-0.40292248
20	0xbe8d701a	-0.2762459
21	0xbf09148a	-0.53546965
22	0xbeb63770	-0.3558917
23	0xbedffbc0	-0.43746758
24	0xbea13251	-0.314837
25	0xbe10c0bf	-0.14136027
26	0xbe982a51	-0.29719785
27	0xbeddc717	-0.43315956
28	0xbf045e5e	-0.5170649
29	0xbf14969b	-0.58042306
30	0xbe7e8fda	-0.24859563
31	0xbe85d52a	-0.26139194
32	0xbe25f3fc	-0.16206354
33	0xbebf8272	-0.3740421
34	0xbe9c92e7	-0.30580828
35	0xbeb53ba8	-0.35397077
36	0xbf142c11	-0.5787974
37	0xbeb24a2c	-0.34822214
38	0xbe902989	-0.2815669
39	0xbee0d546	-0.43912715
40	0xbee603ff	-0.44924924
41	0xbeea7821	-0.45794776
42	0xbf00d97f	-0.5033187
43	0xbf0bc278	-0.5459361
44	0xbe8459b3	-0.25849685
45	0xbf02871a	-0.509874
46	0xbebb89b4	-0.36628497
47	0xbea8cf3a	-0.329706
48	0xbe95833a	-0.2920168
49	0xbeafad9d	-0.34312144
50	0xbebbcce4	-0.36679757
51	0xbe378b58	-0.17924249
52	0xbf186b37	-0.59538597
53	0xbe9a5c61	-0.30148605
54	0xbebd3a7d	-0.36958686
55	0xbeac2e4d	-0.33629075
56	0xbeb64671	-0.35600618
57	0xbea5868c	-0.32329214
58	0xbe81de81	-0.2536507
59	0xbec389c4	-0.38191044
60	0xbf103544	-0.56331277
61	0xbeeccb9d	-0.46249095
62	0xbec46ff7	-0.38366672
63	0xbefc6397	-0.4929473
64	0xbedc3915	-0.430123
65	0xbf121367	-0.57060856
66	0xbdeb329d	-0.11484263
67	0xbec03c97	-0.37546226
68	0xbe902b0a	-0.28157836
69	0xbeb262bb	-0.3484095
70	0xbe3d93d2	-0.1851342
71	0xbed73bab	-0.4203771
72	0xbe6fd651	-0.23421599
73	0xbe2f8bd2	-0.17143181
74	0xbece4f70	-0.4029498
75	0xbed33f33	-0.41259155
76	0xbeefd565	-0.46842495
77	0xbeb39ad4	-0.35079062
78	0xbeb38897	-0.35065147
79	0xbe8c4b0b	-0.27401003
80	0xbeee8a1b	-0.4658974
81	0xbead55de	-0.33854574
82	0xbe771fa3	-0.24133162
83	0xbeea52ef	-0.45766398
84	0xbea68056	-0.32519788
85	0xbe8789f1	-0.26472428
86	0xbf01c309	-0.50688225
87	0xbf01600b	-0.50537175
88	0xbe9bdbb9	-0.30441073
89	0xbea20b0f	-0.31649062
90	0xbe747f68	-0.23876727
91	0xbea2355e	-0.3168134
92	0xbe8bf41d	-0.2733468
93	0xbe884898	-0.26617885
94	0xbf04dd38	-0.51900053
95	0xbef5d61a	-0.4801491
96	0xbf0a3ef0	-0.54002285
97	0xbea678f8	-0.32514167
98	0xbea4df0a	-0.32201415
99	0xbe98366f	-0.2972903
100	0xbe82fdd5	-0.25584283
101	0xbec08c35	-0.3760697
102	0xbe5191f6	-0.20465836
103	0xbedb8f65	-0.4288284
104	0xbec3818c	-0.38184774
105	0xbe8ac013	-0.27099666
106	0xbeb88146	-0.36036128
107	0xbd9b1f4f	-0.07574331
108	0xbeb97830	-0.36224508
109	0xbf02af41	-0.51048666
110	0xbe7d1486	-0.2471486
111	0xbece75e2	-0.40324312
112	0xbf250d46	-0.6447338
113	0xbf04c892	-0.51868546
114	0xbe81d881	-0.25360492
115	0xbefdbc7d	-0.49557868
116	0xbe61e907	-0.22061549
117	0xbee9cf8b	-0.45666155
118	0xbecca1c0	-0.39967155
119	0xbf12da89	-0.5736471
120	0xbe83b4a3	-0.25723752
121	0xbf244226	-0.64163435
122	0xbec5cb6f	-0.3863177
123	0xbecd4139	-0.40088823
124	0xbeb22608	-0.3479464
125	0xbef890f0	-0.4854808
126	0xbdb75741	-0.08952189
127	0xbedc0c70	-0.4297824
128	0xbec64e20	-0.3873148
129	0xbe9cec2c	-0.30648935
130	0xbeaa0c0f	-0.33212325
131	0xbef037c5	-0.4691755
132	0xbf1276d7	-0.57212585
133	0xbf257505	-0.6463168
134	0xbe4ffce0	-0.20311308
135	0xbed5239f	-0.4162874
136	0xbf28b489	-0.65900475
137	0xbef6ab3b	-0.48177513
138	0xbeb397d4	-0.35076773
139	0xbec0b4b1	-0.37637857
140	0xbec994a0	-0.39371204
141	0xbf207ef5	-0.6269372
142	0xbf09e2d0	-0.53861713
143	0xbeb1e3e0	-0.34744167
144	0xbef758b5	-0.48309866
145	0xbf1cba7f	-0.6122207
146	0xbe41dfb4	-0.18932992
147	0xbee55859	-0.44793966
148	0xbedd109c	-0.43176734
149	0xbf0d4dd9	-0.5519691
150	0xbe883b29	-0.26607636
151	0xbeb237d3	-0.34808215
152	0xbf08a1d8	-0.53371954
153	0xbed3d12e	-0.4137053
154	0xbedcd9c5	-0.43134895
155	0xbec0b871	-0.37640718
156	0xbf07eb38	-0.5309329
157	0xbe9db837	-0.30804607
158	0xbe9e4a78	-0.3091619
159	0xbf208882	-0.62708294
160	0xbea71f47	-0.3264105
161	0xbea7936f	-0.3272967
162	0xbf02b110	-0.51051426
163	0xbed2aaef	-0.41146037
164	0xbf14fa9f	-0.5819492
165	0xbee72e4c	-0.4515251
166	0xbed18b2e	-0.40926498
167	0xbe6c66ee	-0.2308614
168	0xbf1ade7d	-0.6049574
169	0xbf05660c	-0.52108836
170	0xbe403a9f	-0.18772362
171	0xbede7625	-0.43449512
172	0xbeb34d95	-0.35020128
173	0xbef75093	-0.4830366
174	0xbea8c966	-0.32966155
175	0xbf021552	-0.5081378
176	0xbe2b077b	-0.16702072
177	0xbeac497b	-0.3364981
178	0xbeb0043f	-0.3437824
179	0xbf195500	-0.59895325
180	0xbe9b7b52	-0.30367523
181	0xbde8e370	-0.11371505
182	0xbe870777	-0.26372883
183	0xbee7693c	-0.45197475
184	0xbe51147d	-0.20417972
185	0xbed30342	-0.41213423
186	0xbe3c5c9f	-0.18394707
187	0xbea02fbd	-0.3128642
188	0xbec922e8	-0.39284444
189	0xbef15dd4	-0.47141898
190	0xbea927da	-0.33038217
191	0xbebd3136	-0.36951607
192	0xbe958baf	-0.29208133
193	0xbe928933	-0.286203
194	0xbec522f4	-0.3850323
195	0xbe502f06	-0.20330438
196	0xbe943671	-0.28947785
197	0xbe5b5fdf	-0.2142329
198	0xbe7f0319	-0.24903525
199	0xbeb1221a	-0.3459633
200	0xbf07bb43	-0.53020114
201	0xbeac5471	-0.33658174
202	0xbf034c1a	-0.51287997
203	0xbee1c4e7	-0.44095537
204	0xbf000b66	-0.5001739
205	0xbeb67b1c	-0.356408
206	0xbd97f7d6	-0.07420318
207	0xbf01223b	-0.50442857
208	0xbe5e5b58	-0.21714532
209	0xbefa5ef4	-0.48900568
210	0xbeacdf28	-0.33764005
211	0xbf0b6bb6	-0.5446123
212	0xbe50ede9	-0.20403256
213	0xbeb5c987	-0.35505316
214	0xbf22cc2f	-0.6359281
215	0xbeccb794	-0.3998381
216	0xbec7e724	-0.39043534
217	0xbeaf4b61	-0.34237197
218	0xbed15813	-0.40887508
219	0xbeca605c	-0.3952664
220	0xbeaf4c75	-0.3423802
221	0xbe907872	-0.28216892
222	0xbed57201	-0.4168854
223	0xbecc135b	-0.39858517
224	0xbee23f24	-0.44188797
225	0xbefaa691	-0.48955205
226	0xbebbbc8e	-0.36667293
227	0xbe652831	-0.22378613
228	0xbe8229c4	-0.2542249
229	0xbeb534c1	-0.3539181
230	0xbed3e2b0	-0.41383886
231	0xbf03fe8e	-0.51560295
232	0xbee2ba08	-0.44282556
233	0xbed92214	-0.42408812
234	0xbef2a221	-0.4738932
235	0xbe5944e1	-0.21217681
236	0xbea02e98	-0.31285548
237	0xbec08b04	-0.3760606
238	0xbeb47e82	-0.35252768
239	0xbf24245f	-0.64118
240	0xbeaad92a	-0.33368808
241	0xbf0d6f90	-0.55248356
242	0xbe3501e3	-0.17676501
243	0xbe912df2	-0.28355366
244	0xbf12cd96	-0.5734495
245	0xbed85245	-0.42250267
246	0xbee004c5	-0.4375364
247	0xbf08fa82	-0.53507245
248	0xbec32245	-0.38112083
249	0xbecb4087	-0.39697668
250	0xbeca9d74	-0.39573252
251	0xbe22b958	-0.15891016
252	0xbe7a12b2	-0.24421194
253	0xbe99d261	-0.3004332
254	0xbeb51fd9	-0.3537586
255	0xbe9bc447	-0.30423185

fc2.weight f4 [128, 256]
0	0xbe562a27	-0.20914517
1	0xbe4893db	-0.19587652
2	0x3dd05c22	0.10173823
3	0xbe554d7a	-0.20830336
4	0x3dde3063	0.10849073
5	0xbe9fda86	-0.31221408
6	0x3e073288	0.1320287
7	0x3c04e9d1	0.008112387
8	0x3d3dbfd3	0.046325516
9	0xbe3aeead	-0.1825511
10	0xbe4372d8	-0.19086778
11	0xbd480e25	-0.048841614
12	0xbdf9623f	-0.12176942
13	0xbe6068d8	-0.21914995
14	0xbd34526a	-0.04402391
15	0x3e500854	0.20315677
16	0xbdb39186	-0.08767991
17	0x3d95046d	0.07276235
18	0x3e41350d	0.18867894
19	0xbe37fd0b	-0.17967622
20	0x3e117985	0.14206512
21	0xbe54177b	-0.20712082
22	0xbe2a431a	-0.1662716
23	0x3d9a66b9	0.07539124
24	0xbda267b1	-0.07929934
25	0xbd45e6f1	-0.048315946
26	0x3ce30f8f	0.02771738
27	0x3de368d6	0.1110398
28	0x3dfae6ce	0.12251054
29	0xbe4d2621	-0.20034076
30	0xbea3922b	-0.31947455
31	0xbe6387d7	-0.22219788
32	0xbd35d3ea	-0.04439155
33	0xbcbc589e	-0.022991475
34	0xbddfb3df	-0.109229796
35	0x3e2f764e	0.17134973
36	0x3d233fb6	0.03985568
37	0x3e052cf0	0.13005424
38	0xbe00d069	-0.12579502
39	0xbca194e0	-0.01972431
40	0x3ca53e35	0.020171264
41	0xbe20a0d3	-0.1568635
42	0xbeadc5b0	-0.33939886
43	0x3d833e44	0.064083606
44	0x3e3dc773	0.18533115
45	0xbe1135d3	-0.14180689
46	0xbcc607f0	-0.024173707
47	0xbc82f5c0	-0.015986323
48	0x3c239320	0.009983808
49	0xbc2fcdde	-0.010730235
50	0xbe244665	-0.16042478
51	0x3d81079f	0.06300282
52	0xbe2d7770	-0.16940093
53	0x3e0a51d8	0.13507783
54	0xbea998ea	-0.33124477
55	0xbe025ae0	-0.12729979
56	0xbd695e19	-0.056974504
57	0xbd499a43	-0.04921938
58	0xbe39f304	-0.1815911
59	0xbe423be4	-0.18968159
60	0xbd89f19f	-0.06735539
61	0xbba764db	-0.0051084585
62	0xbe073d06	-0.13206872
63	0x3d1e50c6	0.03865125
64	0xbe03dfdc	-0.12878364
65	0xbe1d3f5d	-0.15356202
66	0xbe50247f	-0.20326422
67	0xbe265d60	-0.16246557
68	0x3c7a4ee9	0.015277603
69	0x3d17387a	0.036919095
70	0x3e726d57	0.23674522
71	0xbb9b704d	-0.004743612
72	0x3e0790a1	0.13238765
73	0xbc75130d	-0.014958155
74	0xbd983e38	-0.07433742
75	0x3db861e8	0.09003049
76	0x3d1d7e98	0.038450807
77	0xbd934b0b	-0.07192048
78	0x3e6b9b49	0.23008455
79	0xbe09c826	-0.13455257
80	0xbe1c3b02	-0.15256885
81	0xbdf5d335	-0.12003175
82	0x3d9b62da	0.07587214
83	0xbe2d3f4c	-0.16918677
84	0xbe202f2a	-0.15642992
85	0x3e87fa05	0.26557937
86	0xbcf6fd7e	-0.030150171
87	0xbe26695d	-0.1625113
88	0xbca0de42	-0.01963723
89	0x3d2048ca	0.039131917
90	0x3db56855	0.088577904
91	0x3c1d508e	0.009601725
92	0x3e024f3d	0.1272554
93	0xbdf37aae	-0.11888634
94	0x3d5d4e59	0.054029796
95	0xbe8b9092	-0.27258736
96	0xbe22240f	-0.15834068
97	0xbded8828	-0.11598235
98	0xbd8de8ab	-0.069291435
99	0xbe0c3d9e	-0.1369538
100	0xbcf52674	-0.029925562
101	0xbe93ff71	-0.28905824
102	0x3e5962ed	0.21229143
103	0xbe935008	-0.28771996
104	0x3c23e713	0.010003823
105	0x3a60d8b9	0.0008577216
106	0xbd4ff65c	-0.050772056
107	0xbcececb7	-0.028921468
108	0xbc479895	-0.0121823745
109	0xbe29be08	-0.16576397
110	0xbe2fc19b	-0.17163698
111	0x3cb97e5f	0.022643266
112	0xbcb740c1	-0.022369744
113	0xbdb810b5	-0.089875616
114	0x3e273c2f	0.16331552
115	0x3e198ad7	0.1499437
116	0x3e845c6f	0.2585177
117	0x3c224651	0.00990446
118	0xbdbe7b69	-0.09300882
119	0xbc752879	-0.014963263
120	0xbd641a1b	-0.05568896
121	0xbdc41a94	-0.09575382
122	0xbca46219	-0.020066308
123	0x3e172ad2	0.14762428
124	0xbe054ee1	-0.13018371
125	0xbe08cbbe	-0.13358971
126	0x3c9b8510	0.018984348
127	0xbe465164	-0.19366986
128	0x3df7608e	0.12078963
129	0xbd1fea34	-0.039041713
130	0xbdd24f85	-0.102690734
131	0x3da48358	0.08032864
132	0xbdbdd941	-0.092699535
133	0xbe452cae	-0.19255325
134	0x3e241177	0.16022287
135	0xbe2c46da	-0.16823903
136	0xbe0a2444	-0.13490397
137	0xbe42598d	-0.18979473
138	0x3e28a469	0.16468967
139	0xbb9a6d4f	-0.0047127376
140	0x3bcdfe33	0.0062864064
141	0x3d560b27	0.05225673
142	0x3e5cbce1	0.21556427
143	0x3d6edb05	0.058314342
144	0x3c236116	0.009971878
145	0x3dc1987c	0.09452912
146	0x3d2f3f3b	0.04278491
147	0xbcdd8a44	-0.02704347
148	0xbd7a612d	-0.06112783
149	0xbda985dd	-0.082774855
150	0xbe6e123d	-0.23249145
151	0xbc961671	-0.018321248
152	0xbd89ba97	-0.06725042
153	0xbe6c7ded	-0.23094912
154	0xbde3aac5	-0.11116556
155	0x3c57db20	0.013174802
156	0x3da6f011	0.08151258
157	0x3d586ed1	0.052840058
158	0xbe427bff	-0.18992613
159	0x3d9dced8	0.07705468
160	0xbcf0b994	-0.029385366
161	0x3dc803e3	0.09766366
162	0x3e096d69	0.13420643
163	0xbe1b744b	-0.15181081
164	0x3dcd11e1	0.10013176
165	0xbdac9f9f	-0.08428883
166	0x3d3ca34c	0.04605417
167	0xbdb42fb5	-0.08798162
168	0x3e22905d	0.15875383
169	0x3e281888	0.16415608
170	0x3d9ce3ef	0.076606624
171	0xbe505716	-0.2034572
172	0x3d9e78de	0.07737897
173	0x3c3cf3c3	0.011532727
174	0xbd204262	-0.039125808
175	0x3de9a430	0.114082694
176	0xbe51a5c4	-0.20473391
177	0xbe3744fa	-0.17897406
178	0x3d242b74	0.040080503
179	0xbe79332a	-0.24335924
180	0xbe41e950	-0.18936658
181	0x3db3906b	0.0876778
182	0xbd01fe3d	-0.0317366
183	0x3e3384fc	0.17531198
184	0xbddd6d54	-0.10811868
185	0xbd08f016	-0.03343209
186	0xbe9082f6	-0.28224915
187	0xbd3df9cf	-0.046380814
188	0xbe3761ca	-0.17908397
189	0xbe530503	-0.2060738
190	0xbe31af06	-0.17351922
191	0xbd9fb248	-0.07797676
192	0x3d99cb53	0.07509484
193	0xbdb4d9b3	-0.08830585
194	0x3d820b97	0.06349867
195	0xbd104a51	-0.035227124
196	0xbe149d3a	-0.14513102
197	0xbe014c9d	-0.12626882
198	0x3dc2d4ab	0.095132194
199	0xbd992bdc	-0.07479069
200	0xbb554352	-0.0032541347
201	0xbe2cd2c9	-0.16877283
202	0xbdff3a95	-0.124623455
203	0x3d94096f	0.07228362
204	0x3e37d1cd	0.17951126
205	0x3e20fbef	0.15721105
206	0x3e1e86c3	0.15481095
207	0x3deebfcd	0.11657677
208	0x3b71ae87	0.0036877708
209	0x3dd0f569	0.10203058
210	0xbdf2f539	-0.11863179
211	0x3e1f7305	0.1557122
212	0xbe308bf4	-0.17240888
213	0xbe84dc00	-0.25949097
214	0xbd9c3225	-0.07626752
215	0xbe6033a0	-0.21894693
216	0x3e702ea3	0.2345529
217	0xbdd42377	-0.10358327
218	0xbdad35be	-0.08457516
219	0x3e5d1de2	0.2159343
220	0xbda0df3d	-0.07855079
221	0xbd0439c3	-0.03228165
222	0x3e1086c2	0.14113906
223	0xbdd0e091	-0.10199083
224	0x3d8ef1ab	0.06979688
225	0xbd1d2a71	-0.038370553
226	0xbd85037c	-0.06494805
227	0xbe45d428	-0.19319212
228	0x3e4bf6ab	0.19918315
229	0x3dee4a09	0.11635215
230	0xbe3fb7b9	-0.18722428
231	0xbe905f84	-0.28197873
232	0x3dc47b61	0.09593845
233	0xbe5d35e0	-0.21602583
234	0xbd858921	-0.06520296
235	0xbd3a68b8	-0.045510024
236	0xbe5a24a4	-0.2130304
237	0x3cbabc45	0.022794852
238	0xbb42fb2f	-0.0029751768
239	0xbd685e8b	-0.05673079
240	0xbdcc3e5e	-0.09972833
241	0x3e3ce74b	0.18447606
242	0xbe07a4c8	-0.13246453
243	0x3d606f70	0.054793775
244	0xbe7e5e8e	-0.24840757
245	0xbd20981b	-0.03920756
246	0xbdeb9e30	-0.11504781
247	0xbe0a8cb6	-0.1353024
248	0x3d94f948	0.07274109
249	0x3cd787da	0.026309896
250	0x3d541617	0.05177888
251	0xbd6a40c2	-0.057190664
252	0xbe57afc2	-0.2106314
253	0xbee5860e	-0.44828838
254	0xbe582022	-0.21106008
255	0xbebc93fb	-0.3683165

fc2.bias f4 [128]
0	0x3d019dc1	0.031644586
1	0xbde9c9b4	-0.11415425
2	0xbd1e34d8	-0.038624614
3	0xbc84974f	-0.01618543
4	0xbd5fbc9d	-0.054623235
5	0xbca3fb73	-0.020017361
6	0xbdccefc9	-0.10006673
7	0xbd89af2e	-0.06722866
8	0xbd4a2c2d	-0.049358536
9	0xbda2e2c6	-0.0795341
10	0x3b38a6d3	0.0028175607
11	0xbd1b6375	-0.037936646
12	0xbe31c2fa	-0.17359534
13	0xbe34e6fb	-0.17666237
14	0xbd2c73d9	-0.04210267
15	0xbdb631e6	-0.08896236
16	0xbde54f4f	-0.111967675
17	0xbc57e35c	-0.013176765
18	0x3cf9ea0f	0.030507116
19	0xbe143c82	-0.14476207
20	0xbd9a34fb	-0.075296365
21	0xbd12daa4	-0.035853043
22	0xbc606d42	-0.013697924
23	0xbd577e76	-0.052610837
24	0xbddede1e	-0.10882209
25	0x3cdcde09	0.026961343
26	0xbd96a3ce	-0.07355462
27	0xbd83f777	-0.064436845
28	0xbc4d1783	-0.012517813
29	0x3ba1c8a4	0.0049372483
30	0x3c7d869f	0.015473991
31	0xbd0e2729	-0.034705315
32	0xbddea839	-0.1087193
33	0xbd77fbcb	-0.060542863
34	0xbdb1017a	-0.0864286
35	0xbd20dbd4	-0.039272144
36	0xbc8c20ef	-0.017105548
37	0xbdc7fe94	-0.09765354
38	0x3cf6485f	0.030063806
39	0xbce404cd	-0.02783432
40	0xbd70c608	-0.058782607
41	0xbce6aefa	-0.028159607
42	0x3c66e271	0.014092074
43	0xbd292126	-0.04129138
44	0xbc6aa73c	-0.014322098
45	0x3bde00a9	0.006774981
46	0xbdc08fad	-0.09402404
47	0xbcabeba1	-0.02098638
48	0xbce99693	-0.028514182
49	0xbd008fd3	-0.03138716
50	0xbdaa2bc4	-0.08309129
51	0xbdc91b0a	-0.098196104
52	0xbe0f7000	-0.14007568
53	0xbcf8a3a2	-0.030351464
54	0xbc8b0d9d	-0.016974265
55	0x3dedcc1e	0.11611198
56	0x3d844b28	0.064596474
57	0x3cb583b4	0.022157528
58	0xbd94e366	-0.07269935
59	0xbd3cff21	-0.046141747
60	0x3b99c8cf	0.0046931277
61	0xbd9a56d6	-0.07536094
62	0xbd79a63b	-0.060949545
63	0x3e0d6a48	0.13810074
64	0xbd1b8038	-0.037964076
65	0xbcd74f7c	-0.026283018
66	0xbda02999	-0.07820434
67	0xbcc63002	-0.024192814
68	0xbd2011ed	-0.039079595
69	0xbd8bb88a	-0.068223074
70	0x3a4aad5a	0.000773152
71	0xbc717515	-0.014737387
72	0xbe00cb7c	-0.12577623
73	0xbd86ae07	-0.06576162
74	0xbe516921	-0.2045026
75	0xbd9ec3a1	-0.07752157
76	0x3cc1befb	0.023650637
77	0xbde72bce	-0.11287652
78	0xbc2a83c3	-0.010407391
79	0x3c889490	0.016672403
80	0x3c9c6f7e	0.019096132
81	0xbc7d223e	-0.0154500585
82	0xbd745a2e	-0.059656315
83	0x3c6b684a	0.014368126
84	0xbce9c25e	-0.028535064
85	0x3c5038ba	0.012708837
86	0xbd1fe382	-0.039035328
87	0x3b88e4af	0.004177652
88	0xbda05a3c	-0.07829711
89	0x3bf87277	0.0075820046
90	0xbc8010b7	-0.01563297
91	0xbdcce680	-0.10004902
92	0xbd6e1bc3	-0.058131944
93	0xbc2ffd6c	-0.010741573
94	0xbda40610	-0.08008969
95	0xbd71bce2	-0.059018023
96	0xbb87d659	-0.0041454253
97	0xbe2819fa	-0.1641616
98	0xbe166cb2	-0.14689901
99	0xbc51ccc7	-0.01280517
100	0x3d37975e	0.04482209
101	0xbdc0fc3c	-0.0942311
102	0xbc45cc4d	-0.012072635
103	0xbbe53dae	-0.006995878
104	0x3d857a77	0.06517499
105	0xbdc1e7f2	-0.09468068
106	0xbcbf93b1	-0.023385854
107	0xbd11b4a1	-0.03557265
108	0x3c4ad713	0.012380379
109	0xbd8e5ebe	-0.069516644
110	0xbdcc4a13	-0.09975066
111	0x3c362457	0.0111170625
112	0xbb49a269	-0.003076697
113	0x3b8c76b0	0.0042866096
114	0xbc86528a	-0.01639678
115	0x3d19f5db	0.03758798
116	0xbdcf3790	-0.101180196
117	0xbdc35dd5	-0.095393814
118	0xbc643903	-0.013929608
119	0xbd0aeaa9	-0.033915196
120	0x3b41db63	0.0029580228
121	0xbdb11e31	-0.08648337
122	0x3d49c11e	0.049256437
123	0xbda16272	-0.07880105
124	0xbd8da50d	-0.069162466
125	0xbd980d91	-0.074244626
126	0xbd7a654c	-0.06113176
127	0xbd5ce62b	-0.053930443

fc3.weight f4 [64, 128]
0	0xbdd35295	-0.10318486
1	0x3da80450	0.082039475
2	0x3d8ef1d3	0.06979718
3	0x3d4143dc	0.047183856
4	0x3d17fc8f	0.037106093
5	0xbd2e072f	-0.04248732
6	0xbc4fee20	-0.012691051
7	0x3a906679	0.0011016867
8	0x3c8cd914	0.017193355
9	0xbd9a9794	-0.075484425
10	0x3d1e83ab	0.038699787
11	0xbcb7a34f	-0.022416739
12	0xbdde64e3	-0.10859086
13	0xbe160b07	-0.14652644
14	0x3d39f455	0.04539903
15	0x3d73ba8a	0.05950407
16	0xbb812a16	-0.0039417846
17	0x3cbe1e18	0.02320771
18	0xbd00836b	-0.03137533
19	0xbd03d451	-0.032184903
20	0x3c834e5d	0.016028577
21	0xbd61362f	-0.054983314
22	0xbd94c657	-0.07264393
23	0xbd789955	-0.060693104
24	0xbddd6f0c	-0.10812196
25	0xbc4cc08a	-0.012497077
26	0x3d11889c	0.03553067
27	0xbd33d8d0	-0.04390794
28	0xbd279e02	-0.040922172
29	0x3e0534be	0.13008401
30	0xbda44666	-0.0802124
31	0x3c372da1	0.011180312
32	0xbd691364	-0.056903258
33	0xbd6c990b	-0.05776314
34	0x3c87b7d9	0.016567158
35	0x3cc54ca1	0.024084391
36	0x3a6adf9b	0.00089597114
37	0xbd871b85	-0.06597046
38	0xbcaceb00	-0.02110815
39	0x3c75c4be	0.01500052
40	0xbd34ffee	-0.044189386
41	0x3d1518c7	0.036400583
42	0xbc9e21d6	-0.019303244
43	0xbd04e5ec	-0.032445833
44	0xbda319bf	-0.07963895
45	0xbc1fb2e4	-0.009747241
46	0x3c0bc190	0.008530036
47	0x3ceaa5ce	0.028643515
48	0xbbdf068f	-0.006806202
49	0xbc249393	-0.01004495
50	0xbd6a69b4	-0.057229713
51	0xbdd84f92	-0.10562052
52	0x3cbb438e	0.022859361
53	0xbd96d34a	-0.07364519
54	0x3d901e49	0.070370264
55	0xbe24a31f	-0.16077851
56	0xbe31ee74	-0.17376119
57	0xbd835a89	-0.064137526
58	0xbd3ebd62	-0.04656733
59	0xbd5456b6	-0.051840506
60	0xbd7d0c2b	-0.061779182
61	0xbce19868	-0.027538493
62	0xbd2634d7	-0.040577736
63	0xbe3576ae	-0.17721054
64	0x3d38fc17	0.045162287
65	0xbd41dd79	-0.047330353
66	0xbd81fe43	-0.06347325
67	0x3d8b98e6	0.068162724
68	0x3d13ddaf	0.036100086
69	0x3cca1120	0.024666369
70	0x3cbb496b	0.022862157
71	0xbaa320e4	-0.0012445715
72	0xbe2cbad6	-0.16868147
73	0x3d2a76b2	0.041617103
74	0xbe5788a9	-0.21048225
75	0xbdc1ec0f	-0.09468853
76	0xbd29a503	-0.041417133
77	0xbda824f2	-0.08210172
78	0x39e51a8f	0.0004369807
79	0x3d46e3ec	0.048557207
80	0x3d1460fd	0.036225308
81	0xbcb72870	-0.02235815
82	0xbc1aabc0	-0.009440362
83	0xbccddcd4	-0.025129713
84	0xbdb31dcb	-0.08745917
85	0xbce9dc54	-0.028547443
86	0xbb8a578d	-0.0042218626
87	0xbc72ba42	-0.014814915
88	0xbd84f564	-0.06492117
89	0x3d72cb5b	0.059275966
90	0xbc116d13	-0.008876103
91	0xbce6d77f	-0.028178928
92	0x3d210e01	0.039319996
93	0x3d196506	0.03744986
94	0xbe70dfe6	-0.2352291
95	0xbd23ae78	-0.03996131
96	0x3d24d7a3	0.04024471
97	0x3dca59be	0.09880398
98	0x3e10cb81	0.1414013
99	0x3d0e6a0d	0.034769107
100	0xbcf4791c	-0.029842906
101	0xbdfa78e2	-0.12230088
102	0xbb9e7da5	-0.0048367553
103	0x3b61269f	0.0034355295
104	0xbe171a9c	-0.14756244
105	0xbcdb6665	-0.026782224
106	0x3cc385a5	0.023867438
107	0xbe818b94	-0.25301802
108	0x3d0dd81d	0.03462993
109	0x3b0dc952	0.0021634889
110	0xbd400e8e	-0.04688888
111	0x3d892be1	0.06697822
112	0xbaf0834f	-0.001834968
113	0x3d9fb83d	0.077988125
114	0x3a9a8f41	0.001179196
115	0xbdd68ac0	-0.10475683
116	0xbc328921	-0.010896952
117	0xbc99acc2	-0.018759135
118	0x3cc8a2ff	0.024491785
119	0x3cea2449	0.028581755
120	0x3d1ba494	0.03799875
121	0x3d4d6f8a	0.0501552
122	0xbda2f88a	-0.07957561
123	0x3d860bab	0.06545194
124	0xbdd7572b	-0.10514673
125	0x3db12e4e	0.0865141
126	0x3d62f9c2	0.05541397
127	0x3cc6519d	0.024208838
128	0xbdc67498	-0.09690207
129	0x3dc37606	0.095439956
130	0xbbce4a73	-0.006295496
131	0xbda3c879	-0.079972215
132	0x3ce94e7c	0.028479807
133	0xbd85489f	-0.06507992
134	0xbcc8fc5d	-0.024534399
135	0xbdbd4ce8	-0.09243184
136	0x3dcc5a4c	0.0997816
137	0xbca860df	-0.020554004
138	0xbd26b89b	-0.040703397
139	0x3d770cb9	0.060314868
140	0xbd97c784	-0.074111015
141	0xbe8a7f59	-0.27050284
142	0xbcbe282b	-0.023212513
143	0xbe0937f4	-0.1340025
144	0xbd794c87	-0.060863998
145	0xbdc0d85b	-0.094162665
146	0xbdb5c2fe	-0.088750824
147	0xbdba58a8	-0.09098941
148	0xbd9fa275	-0.07794658
149	0xbdd490fe	-0.103792176
150	0x3cfd9b19	0.030957745
151	0xbd864506	-0.06556134
152	0xbdc9f186	-0.0986052
153	0x3c863f53	0.016387617
154	0x3d2a0548	0.041508943
155	0x3c929e8f	0.017897872
156	0xbda5151b	-0.08060666
157	0x3c36efd1	0.011165575
158	0x3b53bec3	0.0032309748
159	0x3aad741c	0.0013233456
160	0xbcd65455	-0.02616326
161	0x3a903b87	0.0011004069
162	0x3d58d89c	0.05294095
163	0xbd78f76a	-0.060782827
164	0xbcdc379e	-0.02688199
165	0xbdaf4a79	-0.085591264
166	0x3d531e69	0.051542673
167	0xbda9adff	-0.0828514
168	0x3d53dfa4	0.051726952
169	0xbd5a6e54	-0.053327873
170	0x3d417321	0.047228936
171	0x3c84400d	0.016143823
172	0x3c0078c3	0.007841292
173	0x3cee2f48	0.02907528
174	0xbc8b1f31	-0.016982647
175	0xbdb8b9cd	-0.09019814
176	0x3be77b55	0.007064263
177	0x3e37235b	0.17884581
178	0x3d533c9d	0.051571477
179	0xbe01b426	-0.12666377
180	0x3d489b3a	0.04897616
181	0xbca9473d	-0.020663852
182	0x3ddcb7ce	0.107772455
183	0xbe1a4771	-0.15066315
184	0x3d889f53	0.06671014
185	0x3c3c935c	0.011509743
186	0xbdc4b5dd	-0.09605
187	0x39b139da	0.00033803174
188	0xbe1424a0	-0.14467096
189	0x3d0cc023	0.034362923
190	0xbcc08786	-0.023502123
191	0xbdfd2f8d	-0.12362585
192	0xbc8f6059	-0.017501997
193	0xbd2c0ade	-0.04200255
194	0xbd8419f4	-0.06450263
195	0xbda16f77	-0.07882588
196	0x3d909ab1	0.07060755
197	0xbd8d258a	-0.06891926
198	0xbd7d8a92	-0.06189973
199	0xbde26e58	-0.11056203
200	0x3d2847e6	0.041084193
201	0xbc9c09d4	-0.019047655
202	0xbc5bccf7	-0.013415567
203	0xbd3e2cba	-0.046429373
204	0xbda5b494	-0.08091083
205	0xbccf93ce	-0.025339033
206	0xbc46cab1	-0.012133286
207	0xbd3c1b06	-0.04592421
208	0xbd6f23c9	-0.058383737
209	0xbc226166	-0.009910917
210	0xbdcf08b8	-0.10109085
211	0xbd001ed1	-0.03127939
212	0x3c64bbb2	0.013960766
213	0xbe141f97	-0.14465176
214	0xbc5b6ba4	-0.013392363
215	0xbdce3cec	-0.10070214
216	0xbd9d921c	-0.07693884
217	0x3c459dac	0.012061518
218	0x3d7207ad	0.05908935
219	0x3cddc75e	0.027072605
220	0xbc7b5326	-0.015339648
221	0x3cb117bb	0.02161776
222	0xbdc2853f	-0.09498071
223	0x3d7d48da	0.061837055
224	0xbdd397a0	-0.103316545
225	0xbe30a351	-0.172498
226	0x3c99b396	0.018762391
227	0xbe4aac58	-0.19792306
228	0xbd7e3e45	-0.062071104
229	0xbbe8ad51	-0.007100739
230	0xbcfa6826	-0.03056724
231	0xbd09ee35	-0.033674438
232	0xbe3fdbce	-0.18736193
233	0xbd5f9455	-0.05458482
234	0x3ba385ae	0.004990301
235	0xbd9c2062	-0.07623364
236	0xbdbc7043	-0.092011
237	0xbd353b9e	-0.04424631
238	0x3c1a216d	0.009407383
239	0xbd28c278	-0.041201085
240	0x3d80ad19	0.06283016
241	0xbd79c42c	-0.0609781
242	0xbd1c8694	-0.03821428
243	0xbdf87957	-0.12132519
244	0xbd4d6598	-0.050145715
245	0xbd3e62ee	-0.046481065
246	0xbdc8cf7d	-0.098052
247	0x3da4999c	0.08037111
248	0xbd51970f	-0.05116945
249	0xbd7af8c3	-0.061272394
250	0xbd96cb41	-0.07362986
251	0xbceed037	-0.029152019
252	0xbc814822	-0.015781466
253	0xbd305d7e	-0.04305791
254	0xbce54896	-0.027988713
255	0x3b3d22e9	0.002885992

fc3.bias f4 [64]
0	0xbd81d8ec	-0.06340203
1	0xbe172d4d	-0.14763375
2	0xbe3dad86	-0.18523225
3	0xbe20114e	-0.15631601
4	0x3bb3af72	0.005483561
5	0x3e8cf79f	0.2753267
6	0xbe00f279	-0.12592496
7	0xbe8588f3	-0.26081046
8	0xbddf2192	-0.10895075
9	0xbe616e53	-0.22014742
10	0xbe64fedb	-0.22362845
11	0x3d19d047	0.037552144
12	0xbe65d1c4	-0.224433
13	0x3def573d	0.11686561
14	0x3d95c668	0.073132336
15	0x3dc79cbc	0.097466916
16	0xbe0fee77	-0.14055811
17	0xbdd9f10c	-0.10641679
18	0xbd6323cd	-0.055454064
19	0xbd138bee	-0.03602212
20	0xbe2c6fd7	-0.16839539
21	0x3de25425	0.110512055
22	0x3e3db64a	0.18526569
23	0xbda5d23b	-0.08096739
24	0xbe70d8f2	-0.23520258
25	0xbe68e114	-0.2274211
26	0xbd70082c	-0.058601543
27	0x3d0e14c6	0.03468778
28	0xbde93bcd	-0.11388359
29	0xbe637bb8	-0.22215164
30	0xbdf45492	-0.11930193
31	0x3da6f101	0.081514366
32	0xbdaf1692	-0.08549227
33	0xbe85831d	-0.26076594
34	0xbe35435f	-0.17701481
35	0xbe378cf4	-0.17924863
36	0xbe50cced	-0.20390673
37	0xbde633d7	-0.112403564
38	0xbaada759	-0.0013248726
39	0xbe686201	-0.22693636
40	0xbd691555	-0.05690511
41	0xbe49324b	-0.19648091
42	0xbe9e85d2	-0.30961472
43	0xbe5b76f2	-0.21432093
44	0x3bc5af06	0.0060328273
45	0xbd12a3c0	-0.035800695
46	0xbd9ba1d7	-0.07599228
47	0xbdbd3ba2	-0.0923989
48	0xbe09a759	-0.13442744
49	0xbe60c21f	-0.21949051
50	0x3d919b24	0.07109669
51	0xbe0f5e1d	-0.14000745
52	0x3d9d6851	0.076859124
53	0xbe934d30	-0.28769827
54	0xbe63ebd6	-0.22257933
55	0xbe4169e9	-0.18888058
56	0xbd9a3ebf	-0.07531499
57	0xbb42586f	-0.0029654761
58	0xbd991798	-0.07475203
59	0xbea71076	-0.32629746
60	0xbe4d861b	-0.20070688
61	0xbe04aba6	-0.12956104
62	0xbe81db20	-0.25362492
63	0xbe1f7419	-0.15571631

fc4.weight f4 [32, 64]
0	0xbda93976	-0.08262913
1	0x3dc068db	0.093949996
2	0xbc9bfb95	-0.019040862
3	0xbc7dcede	-0.0154912155
4	0xbd6e55cd	-0.058187295
5	0x3b911dab	0.0044285855
6	0x3c829f6f	0.015945164
7	0xbdf8e6cd	-0.12153397
8	0xbc016b54	-0.007899124
9	0xbdac0288	-0.0839892
10	0xbcfa5bd3	-0.030561363
11	0x3d021503	0.03175832
12	0x3d06e952	0.032937355
13	0x3e9e9d7c	0.30979526
14	0x3d612d98	0.054975122
15	0xbdbd961a	-0.09257145
16	0x3e1ab796	0.15109095
17	0x3d94d8e5	0.07267932
18	0xbdd70a01	-0.10499955
19	0x3db8f263	0.090306066
20	0x3e183fb0	0.14868045
21	0x3e07d536	0.13264927
22	0xbe28de30	-0.16491008
23	0xbd99a766	-0.07502632
24	0xbd0eeaee	-0.034892015
25	0x3dfe27e1	0.1240995
26	0xbe04dee4	-0.12975651
27	0xbd1f2872	-0.03885693
28	0x3bcf336e	0.0063232696
29	0xbdf4754a	-0.119364336
30	0xbda8cb68	-0.08241922
31	0xbd4ddebe	-0.05026125
32	0x3db55a3a	0.088551
33	0xbcced7bd	-0.025249356
34	0x3e46e07d	0.19421573
35	0xbd5d9f89	-0.054107223
36	0x3cd6c018	0.026214644
37	0x3de3a6ba	0.11115785
38	0x3dbc71df	0.09201407
39	0xbd38354d	-0.044972707
40	0x3cf51fc4	0.029922374
41	0x3b8636db	0.0040958948
42	0x3ce412b6	0.027840953
43	0x3d1d79a9	0.038446102
44	0x3d2101d0	0.03930837
45	0x3ba162d2	0.0049251104
46	0x3dfc8f83	0.1233206
47	0xbe2e872a	-0.17043748
48	0x3d70f773	0.058829736
49	0xbe2e03c8	-0.1699363
50	0xbd71cb3a	-0.059031703
51	0xbb873be6	-0.0041270135
52	0xbd8fab34	-0.07015076
53	0xbdb24316	-0.08704202
54	0x3e134028	0.14379942
55	0xbe0bf9bb	-0.13669483
56	0xbe1ce49c	-0.15321583
57	0x3c8ff23d	0.017571563
58	0x3dc4863f	0.09595918
59	0xbe1c2a88	-0.152506
60	0x3da9e614	0.08295837
61	0xbd500e4e	-0.050794892
62	0xbb8386f1	-0.004013889
63	0x3d4ffaa5	0.050776143
64	0xbe00fc57	-0.1259626
65	0xbd632963	-0.05545939
66	0xbca55c3e	-0.020185586
67	0x3d75c208	0.059999496
68	0xbda4decd	-0.080503084
69	0xbe749011	-0.23883082
70	0x3c12ab7a	0.008952016
71	0xbe1fd0c2	-0.15606979
72	0xbd499a58	-0.04921946
73	0xbd5f6fd2	-0.05455
74	0xbe3f402d	-0.18676825
75	0xbbf9c8d0	-0.0076228157
76	0xbde7da2e	-0.11320911
77	0xbe33acdc	-0.1754641
78	0xbdbe9c00	-0.093070984
79	0xbd02eb11	-0.031962458
80	0x3b839a43	0.004016192
81	0xbd2eca90	-0.042673647
82	0xbd7d73a1	-0.06187785
83	0xbd5238dc	-0.051323757
84	0xbd00e116	-0.03146466
85	0xbd6405b3	-0.055669498
86	0xbda88afc	-0.08229634
87	0xbc8a40e8	-0.016876653
88	0x3e04c7ae	0.12966797
89	0xbdd70e24	-0.10500744
90	0xbd92c50f	-0.07166492
91	0xbc7c213c	-0.015388783
92	0xbd06dfef	-0.032928403
93	0xbb1899f9	-0.0023285134
94	0x3d91f407	0.07126623
95	0xbe4443a0	-0.19166422
96	0xbd4a105f	-0.04933202
97	0xbe02ae71	-0.12761857
98	0xbdb2c7a6	-0.08729486
99	0xbe1604a3	-0.14650206
100	0x3c93dd8c	0.018049978
101	0x3ceea9e5	0.029133746
102	0xbdb1923f	-0.08670472
103	0xbe15ce9c	-0.14629596
104	0x3d948140	0.07251215
105	0xbd9bd479	-0.07608885
106	0x3d608c7b	0.054821473
107	0x3d1c9493	0.03822763
108	0x3d006916	0.031350218
109	0x3cc2092d	0.023686016
110	0x3d39fe17	0.045408335
111	0xbe0cf047	-0.13763534
112	0x3dd5b25f	0.10434412
113	0xbe3fe803	-0.18740849
114	0xbdc9e136	-0.09857409
115	0xbdc4a5c8	-0.09601933
116	0xbda29001	-0.07937623
117	0xbdbd6b7f	-0.09249019
118	0xbdeca1fc	-0.115543336
119	0xbdc7d280	-0.097569466
120	0xbd8d8d24	-0.06911686
121	0x3dc1ba1e	0.09459327
122	0xbdf6d367	-0.120520405
123	0xbde02b96	-0.10945813
124	0xbcf18bd7	-0.029485626
125	0xbe46531e	-0.19367644
126	0xbd5e20a6	-0.054230355
127	0xbcbc0785	-0.022952804
128	0x3d322318	0.0434905
129	0xbd38ba72	-0.045099683
130	0xbe5c2b47	-0.21500884
131	0xbcd95777	-0.026530964
132	0x3dacd5b4	0.08439198
133	0x3dae547d	0.085122086
134	0x3dcee182	0.10101606
135	0xbd111ad9	-0.035425995
136	0xbd988a09	-0.07448203
137	0x3d003416	0.031299673
138	0x3d70507c	0.058670506
139	0x3e29ecc2	0.16594222
140	0x3e2e3d02	0.1701546
141	0xbdf3e0b4	-0.11908093
142	0xbdfac63e	-0.12244843
143	0xbe17b90f	-0.14816688
144	0xbec900b4	-0.3925835
145	0x3ea0b6a5	0.31389347
146	0xbd71e631	-0.05905742
147	0xbda64274	-0.08118144
148	0xbd21bd77	-0.03948733
149	0xbcf0556a	-0.029337604
150	0x3d0afa87	0.033930328
151	0xbd1b2fad	-0.037887264
152	0xbd98ce71	-0.074612506
153	0xbe1c88c3	-0.15286545
154	0x3c0fd1e1	0.008778066
155	0xbde20f58	-0.11038083
156	0x3d5ac3ba	0.053409316
157	0xbdabd7c5	-0.08390764
158	0x3d7e1f94	0.062041834
159	0x3c82cee7	0.0159678
160	0xbe3135e2	-0.17305711
161	0xbe2c9ccb	-0.16856687
162	0x3d90c55a	0.07068892
163	0x3e5258d5	0.20541699
164	0x3d1aaac1	0.0377605
165	0xbd89bd34	-0.06725541
166	0xbd6a4125	-0.057191033
167	0xbe3b955f	-0.183187
168	0xbd9dbfa8	-0.07702571
169	0xbe4fd376	-0.2029551
170	0xbe2e080a	-0.16995254
171	0x3e0f9fd1	0.14025809
172	0x3e60fde7	0.21971856
173	0xbda018a7	-0.07817202
174	0xbdcd8efb	-0.10037037
175	0xbdcdc9aa	-0.1004823
176	0x3a8b8161	0.0010643416
177	0x3d9abe25	0.075557984
178	0xbc2295d9	-0.009923422
179	0xbc874ad6	-0.016515177
180	0x3d71533c	0.05891727
181	0xbe34da0e	-0.17661306
182	0xbd3772fa	-0.044787385
183	0xbde6d599	-0.11271209
184	0xbdbe946c	-0.09305653
185	0xbcdc90b1	-0.026924463
186	0x3e1ad1af	0.1511905
187	0xbcbce858	-0.023060009
188	0xbd3edaca	-0.046595372
189	0xbe61cc9c	-0.22050709
190	0xbd5386e7	-0.051642325
191	0x3caa595c	0.020794563
192	0x3ca042f4	0.019563176
193	0x3cf7aaaa	0.030232746
194	0xbd5dc134	-0.05413933
195	0xbd38a026	-0.045074604
196	0xbe73a1d2	-0.23792198
197	0xbe5238c5	-0.20529468
198	0xbd939aef	-0.072072856
199	0x3e16f36d	0.14741297
200	0x3b8906d9	0.0041817245
201	0xbe117300	-0.14204025
202	0xbcca26bb	-0.024676671
203	0x3e157673	0.14595966
204	0xbd94668e	-0.07246123
205	0xbe253663	-0.16134028
206	0xbe32f566	-0.17476425
207	0x3e03cc09	0.12870802
208	0x3d539c58	0.051662773
209	0xbd25f364	-0.04051532
210	0xbd301b9a	-0.042995073
211	0x3e083cbc	0.13304418
212	0xbe6de34d	-0.2323124
213	0x3dff90b9	0.124787755
214	0xbe812217	-0.2522132
215	0xbde6b3c3	-0.112647556
216	0xbca6f4fc	-0.02038049
217	0x3cda91bf	0.026680825
218	0xbde15ad2	-0.11003651
219	0x3d67c72c	0.05658643
220	0x3c9ae2a7	0.018906904
221	0xba8a47e5	-0.0010549991
222	0x3cc6fa87	0.024289383
223	0xbe782261	-0.24231865
224	0x3e634ef2	0.22198084
225	0xbd4b538b	-0.04964022
226	0xbdd1991a	-0.1023428
227	0x3d0f3f30	0.03497237
228	0xbd8e9865	-0.06962661
229	0x3d4ff028	0.05076614
230	0x3ce9f77d	0.028560394
231	0x3d85df46	0.06536727
232	0xbe715669	-0.23568119
233	0x3e32a7c7	0.17446814
234	0xbe34ee1e	-0.1766896
235	0xbd1437bc	-0.036185965
236	0x3d603443	0.05473734
237	0x3cc909ca	0.0245408
238	0xbd3d2a70	-0.04618305
239	0x3c6d2e63	0.0144763915
240	0xbd4b903a	-0.049698092
241	0x3cda7776	0.026668292
242	0xbe169fdc	-0.14709419
243	0x3e3eee2c	0.18645543
244	0xbc04e4ab	-0.008111159
245	0x3da8461a	0.08216496
246	0xbda0ab32	-0.07845153
247	0x3b1138e5	0.0022159156
248	0xbd15024a	-0.036379136
249	0xbcbfe894	-0.023426332
250	0xbb1dd25c	-0.0024081683
251	0xbc8fec67	-0.01756878
252	0xbdc7ee32	-0.09762229
253	0xbd40e838	-0.04709646
254	0x3c14e749	0.009088346
255	0xbcb0d071	-0.021583768

fc4.bias f4 [32]
0	0x3ce98f35	0.02851067
1	0xbe4a655f	-0.19765233
2	0xbea05303	-0.31313333
3	0xbce839db	-0.0283479
4	0xbe3ebfa3	-0.18627791
5	0xbe8b1c48	-0.27170014
6	0x3ef80c28	0.48446774
7	0x3edcada8	0.4310124
8	0xbe13cd6b	-0.1443383
9	0xbe02c8ea	-0.12771955
10	0x3b835ba4	0.004008727
11	0x3d8fa158	0.07013196
12	0x3ed4b362	0.41543108
13	0x3ec45bc0	0.3835125
14	0xbe192f2d	-0.14959402
15	0xbe22258e	-0.15834638
16	0xbe768b63	-0.2407661
17	0xbdd4d7a5	-0.103926934
18	0x3ec9eb8b	0.39437518
19	0xbe328c79	-0.17436399
20	0xbd9f8dea	-0.0779074
21	0xbc51339f	-0.012768655
22	0xbe672c79	-0.22575559
23	0xbd85621b	-0.06512853
24	0xbd94044f	-0.07227384
25	0x3ec2004c	0.37890851
26	0xbe16c20d	-0.14722462
27	0xbda62c92	-0.0811397
28	0xbe5705b1	-0.20998265
29	0xbe4135ea	-0.18868223
30	0xbda356ee	-0.07975565
31	0xbe603d5e	-0.2189841

fc5.weight f4 [1, 32]
0	0xbd406f6d	-0.046981264
1	0x3d1a565c	0.037680015
2	0x3b6da672	0.003626254
3	0xbd3f78f4	-0.04674621
4	0xbdeea716	-0.11652963
5	0x3d064383	0.032779228
6	0x3e6f36bc	0.23360723
7	0x3e25312a	0.16132036
8	0xbd42938e	-0.047504
9	0xbc25b1a9	-0.010113158
10	0x3d1e26bf	0.03861117
11	0x3d93fe0e	0.072261915
12	0x3e66d9fc	0.22544092
13	0x3e0e8456	0.1391767
14	0xbce3e86d	-0.02782079
15	0xbe098e75	-0.1343325
16	0xbd43b165	-0.0477766
17	0x3ca42b48	0.02004017
18	0x3e49fcb1	0.197253
19	0xbd87bd81	-0.06627942
20	0xbc2e1a11	-0.010626332
21	0xbc58780a	-0.013212213
22	0xbbf209b9	-0.007386413
23	0xbcfde2ab	-0.030991873
24	0xbbb0141d	-0.0053734914
25	0x3e4a0383	0.19727902
26	0xbdc85479	-0.09781737
27	0x3cc587ed	0.024112666
28	0xbe0848cf	-0.13309024
29	0xbc459e28	-0.012061633
30	0xbd85a636	-0.06525843
31	0xbe03fa39	-0.12888421
