scripts/built_models/torch_pl.pth (torch, 692499 bytes, 9 tensors)

fc1.weight f4 [256, 503]
0	0xbe559fa3	-0.20861678
1	0x3b31eebe	0.0027150358
2	0xbd861666	-0.06547241
3	0x3c7edfd0	0.015556291
4	0x3e0723b4	0.13197213
5	0xbdef8d68	-0.11696893
6	0xbdcd9f33	-0.100401305
7	0x3c8bd2e8	0.017068341
8	0x3e3d2d40	0.18474293
9	0x3df1eec8	0.11813122
10	0xbdebddda	-0.11516924
11	0xbe5b6415	-0.21424897
12	0x3dcbfc94	0.09960285
13	0x3d77a9b8	0.06046459
14	0xbcbfb056	-0.023399513
15	0x3d2bbd7f	0.041928764
16	0x3cea1bd4	0.028577723
17	0xbc8a97f7	-0.016918166
18	0x3bff83ad	0.0077976794
19	0x3dd2b974	0.102892786
20	0xbddb3783	-0.107039474
21	0x3daa4b84	0.08315185
22	0xbd13e462	-0.036106475
23	0x3d929281	0.0715685
24	0x3b108cb6	0.0022056527
25	0xbdb5ad20	-0.088709116
26	0x3e2e1c15	0.170029
27	0x3e52b93a	0.20578471
28	0x3d9e9749	0.07743699
29	0x3dda35cb	0.106547914
30	0x3ec78a97	0.38972923
31	0xbe6b3de1	-0.22972824
32	0x3e4d9864	0.20077664
33	0x3e87244e	0.26394886
34	0xba49b2df	-0.00076941954
35	0xbe1bfdfe	-0.15233609
36	0x3e0e6972	0.13907412
37	0x3df275f2	0.118389025
38	0x3cbdc670	0.023165911
39	0x3e4dffc1	0.20117094
40	0x3e8d59ce	0.27607578
41	0xbd9da5f8	-0.07697672
42	0x3d749d1f	0.059720155
43	0xbcba0d8f	-0.022711543
44	0x3d046f36	0.03233262
45	0x3e81542b	0.25259528
46	0x3e02ff0c	0.12792605
47	0x3d7eb4f6	0.062184297
48	0x3e803a07	0.2504427
49	0xbe49a834	-0.1969307
50	0xbe42d44e	-0.190263
51	0xbdce05bd	-0.10059688
52	0xbdebbb79	-0.11510367
53	0xbe2c60f6	-0.16833863
54	0xbda3ebe7	-0.08003979
55	0xbe27e11d	-0.16394468
56	0xbea92b2a	-0.33040744
57	0x3e1f6700	0.15566635
58	0xbe64825f	-0.22315358
59	0xbdf06a3c	-0.117390126
60	0x3d465979	0.04842517
61	0x3d92b1c0	0.07162809
62	0x3dd8a886	0.10579018
63	0xbb2204de	-0.002472214
64	0xba00d962	-0.0004915205
65	0x3ab9c800	0.0014173985
66	0x3e093863	0.13400416
67	0x3d498470	0.049198568
68	0xbe9e3c1b	-0.30905232
69	0xbc1598c2	-0.009130659
70	0x3dac77c1	0.08421279
71	0x3d0a8983	0.033822548
72	0xbdc1ea9b	-0.094685756
73	0xbe518a63	-0.20462947
74	0x3cbcde6f	0.023055283
75	0xbe0447fa	-0.12918082
76	0xbc194cce	-0.009356691
77	0xbd486e82	-0.048933513
78	0xbd77b5bb	-0.060476046
79	0xbe181616	-0.14852175
80	0x3d9c20a8	0.07623416
81	0x3c856ad3	0.01628629
82	0xbde0c536	-0.10975115
83	0xbd2717d4	-0.04079421
84	0xbdccfbfb	-0.10008999
85	0xbc9d120e	-0.019173648
86	0xbddde202	-0.10834123
87	0xbdcb9862	-0.09941174
88	0xbcbe329d	-0.023217494
89	0xbdfa353c	-0.12217185
90	0xbe2025d2	-0.15639427
91	0xbce6755c	-0.028132133
92	0x3df5d542	0.12003566
93	0xbe372785	-0.17886169
94	0x3d86748f	0.065652005
95	0x3e125c31	0.1429298
96	0xbe445a76	-0.19175133
97	0xbddf3eee	-0.10900675
98	0xbe3f0ff1	-0.18658425
99	0xbe5f35af	-0.21797822
100	0xbe25966c	-0.16170663
101	0xbcf6eb8e	-0.030141618
102	0xbd25134b	-0.040301602
103	0xbe842e69	-0.25816658
104	0x3cbd680c	0.023120902
105	0xbde9f398	-0.11423415
106	0x3e2116fe	0.15731427
107	0x3d57a261	0.05264509
108	0xbd6466b3	-0.055762004
109	0x3d5babe0	0.05363071
110	0x3e279517	0.16365467
111	0x3cae55a7	0.021281077
112	0xbdcf9c4d	-0.10137234
113	0xbe7380b7	-0.2377957
114	0x3d860c0b	0.06545266
115	0xbc40a0e4	-0.011757109
116	0xbe03a75e	-0.12856814
117	0x3dae96f3	0.08524885
118	0x3d6919cd	0.05690937
119	0xbc7e67e2	-0.015527697
120	0x3dceb522	0.10093142
121	0xbccc1455	-0.024912039
122	0x3d3c6263	0.045992266
123	0x3d7bc4d5	0.06146701
124	0x3cb07302	0.021539215
125	0xbd919ddd	-0.07110188
126	0xbd43c3b1	-0.047794048
127	0x3c2db8ec	0.010603171
128	0x3ada676b	0.0016662901
129	0xbd2c541b	-0.042072397
130	0x3d9e9699	0.07743568
131	0xbe647e09	-0.22313704
132	0xbcdd4e6c	-0.027014934
133	0x3d0ac79c	0.03388177
134	0xbcba4635	-0.022738555
135	0xbd0526d5	-0.032507736
136	0xbcd85293	-0.026406562
137	0x3dc4d102	0.096101776
138	0x3e19d90f	0.15024208
139	0xbd693509	-0.056935344
140	0xbd4479a3	-0.047967564
141	0x3dd9701b	0.106170855
142	0xbd8a8e65	-0.06765441
143	0xbe307b71	-0.17234589
144	0xbd24e51e	-0.040257566
145	0xbe0f89cb	-0.14017408
146	0xbdd36e73	-0.10323801
147	0xbcb0078a	-0.02148797
148	0xbd594538	-0.053044528
149	0xbc9e7684	-0.019343622
150	0xbd88947e	-0.06668948
151	0xbdf72551	-0.120676644
152	0x3bb27ac1	0.0054467623
153	0xbe139155	-0.14410909
154	0xbe0744f5	-0.13209899
155	0x3c9439d3	0.018093979
156	0xbd82c3bf	-0.06384992
157	0x3c653dd3	0.013991791
158	0xbe331aea	-0.17490736
159	0xbc4660e9	-0.012108066
160	0xbe05f050	-0.13079953
161	0xbe19295c	-0.14957184
162	0xbb54617c	-0.0032406738
163	0xbd557fcc	-0.05212383
164	0xbe14d7ff	-0.14535521
165	0xbd090505	-0.033452053
166	0x3dace53b	0.0844216
167	0xbb832ba4	-0.004003005
168	0x3d907934	0.07054368
169	0xba78b5b6	-0.0009487526
170	0x3d07ddd4	0.033170536
171	0xbdc9079d	-0.09815905
172	0x3c6620ee	0.014045937
173	0x3c9fd640	0.019511342
174	0xbd33a3ee	-0.043857507
175	0xbdc9349b	-0.09824487
176	0x3cbf24f8	0.023333058
177	0xbcfcf02d	-0.030876243
178	0x3d3a3751	0.04546291
179	0xbc3f122f	-0.01166205
180	0xbe4174bd	-0.18892188
181	0xbdfd2370	-0.12360275
182	0xbdcc3a8a	-0.09972103
183	0x3e47137c	0.19441026
184	0xbe6b09b6	-0.22952923
185	0x3d8c4108	0.06848341
186	0xbdf17b2d	-0.11791072
187	0xbda07729	-0.07835228
188	0xbceabe50	-0.028655201
189	0x3cbe783e	0.023250695
190	0x3cd66f5e	0.02617615
191	0xbde2d353	-0.11075463
192	0xbcd9b006	-0.026573192
193	0xbdf45a6a	-0.119313076
194	0x3d58c756	0.052924477
195	0x3d69961a	0.057027914
196	0x3d6ad5d1	0.057332817
197	0x3e38f80a	0.1806337
198	0xbd867dac	-0.06566939
199	0x3d861b18	0.065481365
200	0x3e394091	0.18091036
201	0xbcc8e20a	-0.024521846
202	0x3d2fe45d	0.042942394
203	0x3dfb51af	0.12271439
204	0xbd997362	-0.07492711
205	0xbda1298d	-0.07869253
206	0xbd0ec1a4	-0.03485264
207	0x3e52b608	0.20577252
208	0x3e3d01c3	0.18457703
209	0x3c396457	0.011315427
210	0x3e08c625	0.13356836
211	0x3e2de72e	0.1698272
212	0x3d803374	0.06259814
213	0x3e21d024	0.15802056
214	0x3dc427c4	0.09577897
215	0x3d62694e	0.055276208
216	0x3d4e39af	0.05034798
217	0xbde360a1	-0.11102415
218	0xbda93062	-0.082611814
219	0x3e2ac8e4	0.16678196
220	0x3e839575	0.25699964
221	0x3e863eea	0.26219875
222	0xbcf5be50	-0.029997975
223	0x3e95fcf0	0.29294538
224	0x3e3f0f00	0.18658066
225	0x3d29ca4a	0.041452684
226	0x3e1eb50a	0.15498748
227	0xbddb73fa	-0.1071548
228	0x3bb620e4	0.00555812
229	0x3bb30071	0.005462699
230	0x3e068eb2	0.13140371
231	0xbd7e719a	-0.062120058
232	0xbd6108e0	-0.054940104
233	0xbc15941f	-0.009129553
234	0xbd82006a	-0.06347735
235	0xbc7c2858	-0.015390478
236	0xbe0d8621	-0.13820697
237	0x3dab6942	0.08369686
238	0xbd8ed6d6	-0.069745705
239	0xbc85a21b	-0.01631265
240	0x3d74dea1	0.059782628
241	0xbc7aa56c	-0.015298229
242	0xbe54ac1b	-0.20768778
243	0xbe1daa29	-0.15396942
244	0xbdc667ae	-0.09687744
245	0x3e2bbcc3	0.16771226
246	0xbd091109	-0.03346351
247	0x3d9ce7a7	0.07661372
248	0x3c7fe2fe	0.015618084
249	0xbe5ccdc9	-0.21562876
250	0xbe8ded97	-0.2772033
251	0xbd5ff2a2	-0.054674752
252	0xbda5adb0	-0.08089769
253	0xbcfefa6c	-0.03112527
254	0x3df7d062	0.12100293
255	0xbe129484	-0.14314467

fc1.bias f4 [256]
0	0xbee568c0	-0.4480648
1	0xbf0482bc	-0.51761985
2	0xbe7fe189	-0.24988379
3	0xbe7ecc6b	-0.24882667
4	0xbee2b13f	-0.44275853
5	0xbee972a0	-0.45595264
6	0xbebce1ca	-0.36891013
7	0xbe9cd3d1	-0.30630353
8	0xbeaed32e	-0.34145492
9	0xbefdf070	-0.49597502
10	0xbef08d8b	-0.4698299
11	0xbeed96f6	-0.46404237
12	0xbebd50e2	-0.3697577
13	0xbeee3007	-0.46521017
14	0xbebfc048	-0.37451386
15	0xbee35a35	-0.4440476
16	0xbea631fa	-0.32460004
17	0xbe8997d1	-0.2687364
18	0xbec5d6ba	-0.38640386
19	0xbf051583	-0.5198595
20	0xbed8752d	-0.42276898
21	0xbe665159	-0.22491969
22	0xbebf283a	-0.37335378
23	0xbe81110c	-0.25208318
24	0xbecab349	-0.3958991
25	0xbef05c8b	-0.46945605
26	0xbeaf9502	-0.3429337
27	0xbe94771d	-0.28997126
28	0xbec89970	-0.39179564
29	0xbe8bbde3	-0.2729331
30	0xbe9f46c5	-0.3110868
31	0xbea00224	-0.31251633
32	0xbe5de938	-0.21670997
33	0xbe6d58b2	-0.23178366
34	0xbefa14e8	-0.48844075
35	0xbeadc819	-0.33941725
36	0xbee04f8f	-0.43810698
37	0xbe9a6054	-0.30151618
38	0xbe9b310e	-0.30310863
39	0xbeb00ac2	-0.34383208
40	0xbe9ca418	-0.30593944
41	0xbeafc03d	-0.34326354
42	0xbeef65a0	-0.4675722
43	0xbebbf190	-0.36707735
44	0xbe99cdba	-0.3003977
45	0xbe7672ac	-0.24067181
46	0xbe50be31	-0.20385052
47	0xbe8ae474	-0.2712742
48	0xbf0e79ba	-0.5565449
49	0xbf002341	-0.50053793
50	0xbe62284a	-0.22085682
51	0xbed438db	-0.41449627
52	0xbec41a46	-0.38301295
53	0xbee4394b	-0.4457496
54	0xbea403e5	-0.3203422
55	0xbeb86be3	-0.3601981
56	0xbebcfd87	-0.36912176
57	0xbee3f2b0	-0.44521093
58	0xbec09dd4	-0.37620413
59	0xbe903443	-0.28164873
60	0xbec05d98	-0.37571406
61	0xbeae126b	-0.33998427
62	0xbec84b28	-0.3911984
63	0xbed5ac26	-0.417329
64	0xbe6043bc	-0.21900839
65	0xbea6bdf8	-0.3256681
66	0xbee090e1	-0.43860534
67	0xbec1243c	-0.37722957
68	0xbedd93fe	-0.43276972
69	0xbeb829e2	-0.35969454
70	0xbee153aa	-0.44009143
71	0xbe85bf36	-0.26122445
72	0xbeac5a9f	-0.33662888
73	0xbef7d2db	-0.48403057
74	0xbef8b0f9	-0.4857252
75	0xbe00e44f	-0.12587093
76	0xbf1d6fef	-0.6149892
77	0xbeedc345	-0.4643804
78	0xbeae047c	-0.33987796
79	0xbeaf7905	-0.34272018
80	0xbecba660	-0.39775372
81	0xbebf730a	-0.37392455
82	0xbebe09c5	-0.3711683
83	0xbea95e5e	-0.3307981
84	0xbe9ea4f4	-0.30985224
85	0xbee7fb18	-0.45308757
86	0xbef87bd4	-0.48531973
87	0xbebe7b92	-0.37203652
88	0xbeb978e5	-0.36225048
89	0xbea3c4b0	-0.31985998
90	0xbe97ba19	-0.2963417
91	0xbef2ac56	-0.47397107
92	0xbeae2fb3	-0.34020767
93	0xbef7ccff	-0.48398587
94	0xbe6ed83d	-0.23324676
95	0xbed43aac	-0.41451013
96	0xbed9df03	-0.42552957
97	0xbf07ee61	-0.5309811
98	0xbedda583	-0.43290338
99	0xbecc2de9	-0.39878777
100	0xbe9dd101	-0.3082352
101	0xbf0ac91e	-0.5421313
102	0xbf00c537	-0.50300926
103	0xbf064e9c	-0.524637
104	0xbf06875b	-0.52550286
105	0xbef83999	-0.48481444
106	0xbe79ffef	-0.24414037
107	0xbea66c9b	-0.32504734
108	0xbeae997a	-0.34101468
109	0xbee9b1f0	-0.45643568
110	0xbe71aaeb	-0.23600356
111	0xbe92f625	-0.28703418
112	0xbef0ae3e	-0.47007936
113	0xbf0a07d3	-0.5391819
114	0xbea3186f	-0.3185458
115	0xbeb5e1bb	-0.3552378
116	0xbeadd503	-0.33951578
117	0xbee15bf7	-0.44015476
118	0xbf03f927	-0.5155205
119	0xbe4d209f	-0.20031975
120	0xbed8bd99	-0.42332152
121	0xbeb73f8a	-0.35790664
122	0xbf0474a2	-0.5174047
123	0xbe75c909	-0.2400247
124	0xbec630c2	-0.38709074
125	0xbe4e0f20	-0.20122957
126	0xbe73609c	-0.23767322
127	0xbecc01fa	-0.39845258
128	0xbf0a1538	-0.5393863
129	0xbe923da9	-0.28562668
130	0xbe9b246f	-0.30301234
131	0xbeeb6392	-0.45974404
132	0xbea861c9	-0.32887104
133	0xbeca8b95	-0.39559618
134	0xbecba36c	-0.39773118
135	0xbeda6bb3	-0.42660293
136	0xbed6b0ec	-0.41931856
137	0xbea86b45	-0.3289434
138	0xbe69f4f7	-0.22847353
139	0xbeba7939	-0.3642061
140	0xbe5c7e17	-0.21532474
141	0xbebad442	-0.36490065
142	0xbec57455	-0.38565317
143	0xbec545d4	-0.38529837
144	0xbe6b87d9	-0.2300104
145	0xbebe685b	-0.37188992
146	0xbf0a5986	-0.5404285
147	0xbec8a954	-0.39191687
148	0xbebdce27	-0.37071344
149	0xbee2612a	-0.44214755
150	0xbed00f0c	-0.4063648
151	0xbedca82c	-0.43097055
152	0xbed08aa2	-0.40730768
153	0xbec74ae7	-0.38924333
154	0xbe622cda	-0.22087422
155	0xbe67f5b3	-0.2265232
156	0xbef42875	-0.47687116
157	0xbeb18415	-0.34671083
158	0xbeeb4849	-0.45953587
159	0xbef23997	-0.47309563
160	0xbea53470	-0.3226657
161	0xbf0854db	-0.5325448
162	0xbec3a819	-0.38214186
163	0xbf229670	-0.635108
164	0xbebd201b	-0.36938557
165	0xbeae2e4b	-0.34019694
166	0xbe9b6e15	-0.30357423
167	0xbef823c7	-0.48464796
168	0xbebfbec7	-0.3745024
169	0xbe0915e9	-0.13387264
170	0xbe9c4f63	-0.30529317
171	0xbe703a75	-0.234598
172	0xbeee43e5	-0.46536174
173	0xbeaad286	-0.33363742
174	0xbe25de5c	-0.16198105
175	0xbf06cfe8	-0.5266099
176	0xbee6152a	-0.44938022
177	0xbecb9307	-0.3976061
178	0xbececf3f	-0.4039249
179	0xbf055b6b	-0.5209262
180	0xbec3c0d2	-0.38233048
181	0xbe9d7655	-0.30754343
182	0xbe9c03eb	-0.3047174
183	0xbeb4245a	-0.35183984
184	0xbebe1e9d	-0.3713273
185	0xbef24c05	-0.47323623
186	0xbee1bd84	-0.440899
187	0xbed455d6	-0.41471738
188	0xbe7ff879	-0.24997129
189	0xbf080680	-0.5313492
190	0xbf09f078	-0.5388255
191	0xbed5bdd8	-0.41746402
192	0xbec77320	-0.3895502
193	0xbee8e7d3	-0.45489368
194	0xbe84e4e6	-0.25955886
195	0xbecdbec1	-0.40184596
196	0xbe560ac9	-0.20902552
197	0xbeb686bd	-0.35649672
198	0xbeb7d621	-0.35905555
199	0xbf0d2d33	-0.55147094
200	0xbec42c05	-0.38314834
201	0xbe245272	-0.16047075
202	0xbed9f2bc	-0.42568004
203	0xbec208a6	-0.37897223
204	0xbe9e5cc8	-0.3093016
205	0xbf0abab3	-0.5419113
206	0xbed6af2c	-0.4193052
207	0xbeb2163f	-0.34782597
208	0xbf0e9669	-0.5569826
209	0xbeb7d3f7	-0.35903904
210	0xbe807f27	-0.2509701
211	0xbe7804e8	-0.24220622
212	0xbe94b5d6	-0.2904498
213	0xbece29da	-0.40266305
214	0xbebe22cb	-0.3713592
215	0xbf116e48	-0.568089
216	0xbeb39f13	-0.35082301
217	0xbe998c84	-0.29990017
218	0xbf0770b2	-0.52906334
219	0xbec1af5c	-0.378291
220	0xbeec16e1	-0.46111205
221	0xbed75bba	-0.4206217
222	0xbec61d05	-0.38694015
223	0xbebcce27	-0.36876032
224	0xbedc3a1a	-0.43013078
225	0xbed29e50	-0.41136408
226	0xbe96d559	-0.29459646
227	0xbead5a1a	-0.33857805
228	0xbebdd407	-0.37075827
229	0xbf054ab7	-0.5206713
230	0xbe83dc3a	-0.25753957
231	0xbec8d33c	-0.3922366
232	0xbeca0001	-0.39453128
233	0xbf098768	-0.5372224
234	0xbe57bb01	-0.2106743
235	0xbebc65f3	-0.3679653
236	0xbee25944	-0.4420873
237	0xbe8942d5	-0.268088
238	0xbea88ee5	-0.3292152
239	0xbe87bda9	-0.26511887
240	0xbe284683	-0.16433148
241	0xbec50699	-0.38481596
242	0xbeda1d85	-0.42600647
243	0xbef41730	-0.4767394
244	0xbe942bf9	-0.28939798
245	0xbeccfe6b	-0.40037856
246	0xbef0a725	-0.4700252
247	0xbed30bee	-0.4122004
248	0xbe642a3d	-0.22281738
249	0xbe864304	-0.26223004
250	0xbe95f927	-0.2929165
251	0xbeea5de0	-0.45774746
252	0xbea66bcc	-0.32504117
253	0xbeb2a1e6	-0.34889144
254	0xbedea6db	-0.43486676
255	0xbeebde95	-0.46068254

fc2.weight f4 [128, 256]
0	0xbc8d9a13	-0.017285382
1	0xbd07edb2	-0.03318567
2	0xbd96cd42	-0.073633686
3	0x3d99f339	0.07517094
4	0x3c7d5169	0.015461304
5	0xbaf70188	-0.0018845061
6	0xbe1bcbe2	-0.15214494
7	0x3d150482	0.036381252
8	0xbddb622b	-0.107120834
9	0xbb4d7021	-0.0031347352
10	0x3c9774b4	0.018488266
11	0x3bba419d	0.0056840912
12	0xbe103100	-0.14081192
13	0xbcc6e2fb	-0.024278155
14	0xbca855ba	-0.02054869
15	0x3a96171a	0.0011450977
16	0xbd17e135	-0.03708001
17	0xbd4e47a5	-0.050361294
18	0x3d380242	0.04492403
19	0xbcb41a83	-0.021985298
20	0xbdadc71e	-0.08485244
21	0xbd2c6e7a	-0.042097546
22	0x3d2a67e5	0.041602988
23	0xbd2da7d3	-0.042396378
24	0x3dc05b8b	0.093924604
25	0xbc80d4be	-0.015726443
26	0xbd57a05f	-0.052643176
27	0x3d1a00ac	0.037598297
28	0xbd853e7a	-0.06506057
29	0xbe1db334	-0.15400392
30	0x3ca92c87	0.020651115
31	0xbe2ef1fe	-0.170845
32	0xbd8a2265	-0.067448415
33	0xbe074e0b	-0.13213365
34	0x3c4e2c92	0.012583869
35	0xbdf91fb1	-0.12164248
36	0x3ccfc067	0.0253603
37	0xbded2d1f	-0.11580872
38	0xbd795221	-0.06086934
39	0xbdb6410b	-0.08899125
40	0xbe0d350b	-0.13789766
41	0xbda69f49	-0.0813585
42	0xbdf1a95e	-0.11799882
43	0xbd5a6707	-0.05332091
44	0xbd6029fb	-0.054727536
45	0x3d304ff4	0.043045
46	0xbdc42033	-0.09576454
47	0xbd5c8cad	-0.053845096
48	0xbca59d1a	-0.020216513
49	0xb92d765a	-0.00016542655
50	0xbd8c6226	-0.06854658
51	0x3da0662a	0.07831986
52	0xbc8ef203	-0.017449385
53	0x3dafd578	0.08585638
54	0x3e02841e	0.12745711
55	0x3d8b1779	0.067915864
56	0x3d38a550	0.04507953
57	0xbd3ec845	-0.04657771
58	0xbd2d0bda	-0.04224763
59	0xbcfa7a6d	-0.030575955
60	0x3d3deded	0.04636948
61	0xbc02de1d	-0.007987526
62	0xbdb9f1d5	-0.09079329
63	0xbd02c816	-0.031929098
64	0xbd8243d9	-0.06360597
65	0xbdb79747	-0.08964401
66	0xbcc970ad	-0.02458986
67	0x3d8bf5f1	0.06834019
68	0x3da4f15b	0.080538474
69	0x3d00b52a	0.03142277
70	0xbb95c95e	-0.004571124
71	0xbd047266	-0.03233566
72	0xbd71566a	-0.0589203
73	0xbdcfaea5	-0.10140733
74	0xbdbc8879	-0.092057176
75	0xbd2204ef	-0.039555486
76	0xbd0a4caa	-0.03376452
77	0xbd5aa091	-0.053375784
78	0xbe091970	-0.1338861
79	0xbc940175	-0.018067101
80	0x3dc47c59	0.0959403
81	0xbd106812	-0.0352555
82	0x3d55a898	0.052162737
83	0xbd5889ec	-0.052865908
84	0x3bdcaf76	0.0067347838
85	0x3d23707c	0.039902195
86	0xbcecd07a	-0.028908003
87	0xbc5e96f9	-0.013585799
88	0x3bae1865	0.0053129666
89	0xbd2c60ae	-0.04208439
90	0xbd422a2d	-0.047403503
91	0x3d45caf0	0.04828924
92	0xbda8b8ec	-0.08238396
93	0xbdd71b0b	-0.10503205
94	0xbdccda0b	-0.10002526
95	0xbe12b8e0	-0.14328337
96	0x3dfa8688	0.12232691
97	0x3d64998f	0.055810507
98	0x3d553e86	0.05206158
99	0xbd93063c	-0.071789235
100	0xbd84ed2e	-0.06490551
101	0x3d6272a4	0.05528511
102	0xbc6f27cb	-0.01459689
103	0x3d2f5a6a	0.042810835
104	0xbcfe7c03	-0.031064993
105	0x3c2119ea	0.009832839
106	0xbd97fd5a	-0.0742137
107	0xbc7f1272	-0.015568363
108	0xbc2a7e70	-0.010406122
109	0xbe0f9f97	-0.14025722
110	0xbbfaf25d	-0.0076582865
111	0x3d3620d4	0.0444649
112	0xbcb68fdb	-0.022285393
113	0xbd093b57	-0.033503857
114	0xbc3f20d9	-0.011665546
115	0xbdbd028c	-0.092290014
116	0xbb901648	-0.0043971874
117	0x3d81576b	0.06315502
118	0xbc8c5b45	-0.017133364
119	0xbca20af8	-0.019780621
120	0xbd4e5d92	-0.050382204
121	0x3d042b15	0.03226765
122	0xbd80b53b	-0.06284567
123	0xbddb9e49	-0.1072355
124	0xbbb02722	-0.0053757587
125	0xbde5279c	-0.111891955
126	0xbda50eaa	-0.080594376
127	0x3c20126d	0.009770018
128	0xbdc84111	-0.097780354
129	0xbdd89a17	-0.10576265
130	0xbdcb51b3	-0.09927692
131	0x3d82169f	0.06351971
132	0xbd935f5b	-0.07195922
133	0xbccece8f	-0.02524498
134	0xbdc0c5d6	-0.09412734
135	0xbda2f6ff	-0.07957267
136	0xbdc666c1	-0.096875675
137	0xbdf0e847	-0.117630534
138	0xbda408f4	-0.0800952
139	0xbd3d8a67	-0.04627457
140	0x3dca10fc	0.09866521
141	0xbc3779ff	-0.01119852
142	0x3dda558f	0.1066085
143	0xbd887534	-0.0666298
144	0x3d2535af	0.0403344
145	0xbd70093d	-0.05860256
146	0xbdcdfa37	-0.1005749
147	0xbdb4e452	-0.08832611
148	0xbde6d896	-0.11271779
149	0x3d622422	0.05521024
150	0x3cc83369	0.024438577
151	0x3cd4e7c0	0.025989413
152	0xbc2820e9	-0.010261753
153	0x3cb8892e	0.02252635
154	0xbda9f969	-0.08299524
155	0xbd69aff1	-0.057052556
156	0xbc70c2ad	-0.014694852
157	0xbdd6f358	-0.10495633
158	0xbd81806d	-0.063233234
159	0xbdd6e071	-0.104920276
160	0xbc8afa21	-0.016964974
161	0xbd275637	-0.040853705
162	0xbd50884f	-0.050911244
163	0xbdcf39f7	-0.10118478
164	0xbe127a15	-0.14304383
165	0x3d485879	0.0489125
166	0xbcdee5ff	-0.02720928
167	0x3cbae6d1	0.02281514
168	0x3db6fb74	0.089346796
169	0xbcea37fa	-0.028591145
170	0x3d733db6	0.059385024
171	0xbd373c53	-0.044735264
172	0x3df759b3	0.12077656
173	0xbd461616	-0.048360907
174	0xbe419e12	-0.18907955
175	0x3d272d61	0.04081476
176	0x3d067a70	0.03283161
177	0xbd614e7d	-0.055006493
178	0xbcd08319	-0.025453137
179	0xbc12f3ca	-0.008969257
180	0xbd1531d9	-0.03642449
181	0xbd49def9	-0.04928491
182	0xbd442d25	-0.047894616
183	0xbd260ecc	-0.040541455
184	0xbdada73b	-0.08479162
185	0x3d96eb23	0.073690675
186	0x3d0c29a7	0.03421941
187	0xbb6f259e	-0.0036490927
188	0xbdeaf648	-0.11472756
189	0xbbfcc8eb	-0.007714381
190	0x3abbfbce	0.0014342011
191	0xbbbbc2ca	-0.005730008
192	0xbd057db2	-0.032590576
193	0xbbdc992c	-0.0067321267
194	0x3d9c141d	0.07621024
195	0xbdf9173f	-0.12162637
196	0xbd96f827	-0.0737155
197	0x3d89eb92	0.067343846
198	0xbd447b9d	-0.04796945
199	0x3d6914ce	0.056904607
200	0xbb9344ac	-0.0044942703
201	0xbd870a67	-0.06593781
202	0x3c92cae8	0.017919019
203	0xbdcbc9bc	-0.09950587
204	0xbd8ca311	-0.0686704
205	0x3d0f1d8f	0.0349403
206	0x3d9159e2	0.07097222
207	0xbdaa9e9d	-0.08331034
208	0xbdd4e637	-0.103954725
209	0xbd880bed	-0.066429
210	0xbe2b662f	-0.16738199
211	0x3c9412ef	0.018075434
212	0xbdbd7216	-0.09250276
213	0xbc1d476a	-0.009599546
214	0xbc4356bd	-0.0119225355
215	0xbd377c34	-0.044796184
216	0xbc32dc3f	-0.010916769
217	0xbd78c2bf	-0.0607326
218	0x3de3b316	0.11118142
219	0x3d811913	0.06303611
220	0xbdeb67b1	-0.11494387
221	0xbe24626a	-0.16053167
222	0xbd599208	-0.053117782
223	0xbcc55cdf	-0.024092136
224	0x3b8b32ec	0.0042480137
225	0xbd58743c	-0.052845225
226	0xbdc098a0	-0.09404111
227	0xbd780c5a	-0.060558654
228	0xbd67737c	-0.05650662
229	0xbc0bfe2f	-0.008544489
230	0xbd91f493	-0.07126727
231	0xbdcb77f9	-0.09934992
232	0xbd9b4aa9	-0.075826
233	0xbdc47a30	-0.09593618
234	0xbd8487f1	-0.06471241
235	0xbd38ef1a	-0.0451499
236	0xbc7541d1	-0.014969305
237	0xbde688d6	-0.11256568
238	0xbd88a7e1	-0.06672645
239	0xbcc8813e	-0.02447569
240	0xbd25d76c	-0.040488645
241	0xbe1dce84	-0.1541081
242	0xbd0bb2a4	-0.03410591
243	0x3d816c69	0.06319506
244	0x3dbd2b7c	0.092368096
245	0x3d06403b	0.0327761
246	0x3d06cd5e	0.032910697
247	0x3d575899	0.052574728
248	0xbae59e05	-0.0017518407
249	0xbd9be602	-0.0761223
250	0xbe089284	-0.13337141
251	0xbe160f69	-0.14654316
252	0xbcd55dc9	-0.026045697
253	0xbc19ab6f	-0.009379252
254	0xbddbd59a	-0.10734101
255	0x3cdc2809	0.026874559

fc2.bias f4 [128]
0	0xbcc5251a	-0.024065543
1	0xbd25625d	-0.04037701
2	0xbbbc8fef	-0.005754463
3	0x3d7290b9	0.05922005
4	0xbce900eb	-0.02844282
5	0xbcd990f5	-0.026558379
6	0x3dc923f2	0.09821309
7	0xbc256e31	-0.010097072
8	0xbcbb8ebb	-0.022895208
9	0xbca9e226	-0.020737719
10	0xbc978c0c	-0.018499397
11	0xbd3a58a5	-0.045494694
12	0x3d79e438	0.061008662
13	0xbdc79262	-0.09744717
14	0x3c95e327	0.018296791
15	0xbdf57749	-0.119856425
16	0xbc16c1a9	-0.009201446
17	0x3d11c85c	0.03559147
18	0xbabb238e	-0.0014277564
19	0xbc050036	-0.008117726
20	0x3d3496ac	0.044089004
21	0x3d8512f9	0.06497759
22	0x3d520e96	0.05128344
23	0xbdb98608	-0.090587676
24	0x3d441178	0.047868222
25	0x3d2467d5	0.040138084
26	0x3ce82036	0.028335672
27	0x3d84b017	0.06478899
28	0x3d2b02b0	0.04175061
29	0x3d2b56f6	0.04183098
30	0x3ca21622	0.019785944
31	0xbd9fa9a1	-0.07796026
32	0x3dcd0687	0.100110106
33	0xbd17ab5a	-0.037028648
34	0x3dfa26cf	0.122144334
35	0xbbfb27e1	-0.007664666
36	0x3d63f80b	0.055656474
37	0xbd9b1321	-0.07572008
38	0xbd14c22e	-0.036317997
39	0x3bfcf184	0.0077192206
40	0xbb0b0fc0	-0.0021219105
41	0x3dd00e61	0.101589926
42	0xbd48c4bb	-0.04901574
43	0x3c76a13b	0.015053089
44	0x3c99fbe4	0.018796869
45	0x3b81a5d8	0.0039565377
46	0x3d5fe35c	0.054660186
47	0xbd92cb15	-0.07167641
48	0x3c9a471c	0.018832736
49	0xbba7a6fb	-0.005116341
50	0x3cfda3fa	0.03096198
51	0xbd4e4d1a	-0.0503665
52	0x3dc72c3a	0.097252324
53	0xbd6f2c43	-0.05839182
54	0xbc556f4d	-0.013027024
55	0x3d1c2f5c	0.038131103
56	0x3ca86896	0.020557683
57	0xbdaecd92	-0.08535303
58	0x3d8877df	0.066634886
59	0x3c6ce151	0.0144580165
60	0xbcc719d7	-0.024304314
61	0x3d5f73f3	0.054553937
62	0xbab308be	-0.0013659222
63	0xbd9c4de3	-0.07632043
64	0xbd459ec0	-0.0482471
65	0xbd7502bc	-0.05981706
66	0xbd79d87c	-0.06099747
67	0x3d9a949c	0.07547876
68	0xbd34961b	-0.044088464
69	0x3c2170ea	0.009853581
70	0x3de09ad4	0.10967031
71	0xbd3cebd8	-0.046123356
72	0xbd3f78aa	-0.046745934
73	0x3c2306f6	0.00995039
74	0xbb4bc144	-0.0031090537
75	0x3c6be5b4	0.014398027
76	0x3c42b09a	0.011882925
77	0xbe088c8b	-0.13334863
78	0x3b4eb132	0.0031538722
79	0xbd3238d9	-0.043511245
80	0xbd98b6ef	-0.07456767
81	0xbcb75a5f	-0.02238196
82	0xbe1f27a0	-0.1554246
83	0xbd488590	-0.0489555
84	0xbd714683	-0.058905136
85	0xbd8550a1	-0.06509519
86	0x3d814e7a	0.06313796
87	0xbd85f481	-0.06540776
88	0x3dfb7425	0.12278012
89	0xbc3acd8b	-0.011401544
90	0xbd94ac91	-0.07259477
91	0x3ca0f22e	0.01964673
92	0xbcb8ffcc	-0.022582911
93	0xbdacf14b	-0.084444605
94	0xbde02136	-0.109438345
95	0x3cc8774b	0.024470946
96	0xbdb97a80	-0.09056568
97	0xbdb73ce0	-0.08947158
98	0x3d0374d6	0.032093845
99	0x3c876095	0.016525546
100	0xbcaddda6	-0.021223854
101	0x3c3a2cea	0.011363247
102	0xbd611daa	-0.05495993
103	0xbdb406c8	-0.08790356
104	0x3dd2b8e5	0.10289172
105	0xbcdb1c2b	-0.02674683
106	0xbd9aa463	-0.075508855
107	0x3c34173f	0.01099187
108	0x3cf979ee	0.030453648
109	0xbd45e3a7	-0.04831281
110	0xbcdec32f	-0.02719268
111	0x3ce79933	0.028271293
112	0xbd2bb246	-0.04191806
113	0xbd4eba4b	-0.05047063
114	0x3dfe2fc5	0.12411455
115	0x3dd724ec	0.10505089
116	0xbdda12c1	-0.10648108
117	0xbd5aa6fd	-0.05338191
118	0x3caff423	0.021478718
119	0x3d61f387	0.055163886
120	0x3e047cfc	0.12938303
121	0x3cbeb14b	0.0232779
122	0x3c11c07c	0.0088959895
123	0xbd057080	-0.03257799
124	0x3ddd30e4	0.10800341
125	0xbd1878ce	-0.037224583
126	0xbd806a92	-0.06270327
127	0x3cd132d5	0.025536934

fc3.weight f4 [64, 128]
0	0xbd4e74c8	-0.05040434
1	0xbd6b0525	-0.057377953
2	0xbcc834d7	-0.024439259
3	0xbd949959	-0.07255811
4	0x3c7911ea	0.015202025
5	0x3d58283f	0.052772757
6	0xbdb0a82a	-0.08625825
7	0x3cfb3762	0.030666057
8	0xbe5d8d7c	-0.21636003
9	0xbe3679e1	-0.1781993
10	0xbd8e235b	-0.06940337
11	0xbdc62b11	-0.09676183
12	0xbd581086	-0.052750133
13	0xbda126f8	-0.07868761
14	0xbc53b366	-0.01292119
15	0xbccbab75	-0.02486203
16	0xbd1e4afd	-0.038645733
17	0x3cab091f	0.020878373
18	0xbdc9dbe5	-0.09856395
19	0xbd3caeb6	-0.046065055
20	0xbe100034	-0.14062577
21	0xbd70ef0b	-0.05882172
22	0xbda928e9	-0.08259756
23	0xbb871cea	-0.00412332
24	0xbd432c35	-0.04764958
25	0x3dfaded3	0.122495316
26	0xbd086787	-0.033301856
27	0x3c37d88c	0.011221062
28	0xbdd7bd74	-0.10534182
29	0x3cbe0787	0.023196949
30	0xbdc35e8a	-0.09539516
31	0xbdb39e4f	-0.08770429
32	0xbe34e2e0	-0.17664671
33	0x3d35fca6	0.044430397
34	0xbe81db54	-0.25362647
35	0xbcca1ba4	-0.024671383
36	0xbe0289b4	-0.12747842
37	0x3d33f3e9	0.043933783
38	0x3d9ac781	0.075575836
39	0xbe88e874	-0.26739848
40	0xbde845b3	-0.11341419
41	0xbe4263a2	-0.1898332
42	0x3dc9a18a	0.09845264
43	0xbdbd0cd7	-0.09230965
44	0x3de76f9e	0.11300586
45	0xba0457c4	-0.00050484785
46	0xbdca7800	-0.098861694
47	0x3de9e1d6	0.11420028
48	0xbe419674	-0.1890505
49	0x3d67cc8d	0.05659156
50	0xbe285f74	-0.16442662
51	0xbccf0771	-0.025272103
52	0x3c5eda4c	0.013601851
53	0x3d85348b	0.065041624
54	0x3cdf5606	0.027262699
55	0xbcca5271	-0.024697514
56	0xbdecce8a	-0.11562832
57	0x3d6ac197	0.057313528
58	0xbd0a8057	-0.0338138
59	0xbc8d7829	-0.01726921
60	0xbd00bf27	-0.031432297
61	0xbd318178	-0.04333636
62	0x3c9e7cbc	0.019346587
63	0xbd398b8f	-0.04529911
64	0xbd895da6	-0.06707315
65	0x3c01522f	0.007893129
66	0x3d2eb6a9	0.042654667
67	0x3d900e66	0.07033996
68	0xbcbc8ae9	-0.023015456
69	0xbd803e9c	-0.06261942
70	0xbdc80f92	-0.09768595
71	0xbd278886	-0.040901683
72	0xbd9657c7	-0.07340961
73	0xbd5d956a	-0.05409757
74	0xbd31fa87	-0.043451812
75	0xbc4b1669	-0.01239548
76	0xbd6a30f4	-0.05717559
77	0xbe5efd98	-0.21776426
78	0x3d160fc2	0.03663612
79	0x3c747992	0.014921563
80	0xbd99db39	-0.075125165
81	0x3d894728	0.06703025
82	0xbe48531c	-0.19562954
83	0x3d2543f2	0.040348
84	0xbe08e7c5	-0.13369663
85	0xbe37f814	-0.17965728
86	0xbe2ccc22	-0.16874745
87	0xbc346d24	-0.011012349
88	0xbc57a58a	-0.013162026
89	0x3cfe2f11	0.031028302
90	0xbe579699	-0.21053542
91	0xbd77f8f5	-0.06054016
92	0x3d569ce9	0.052395735
93	0xbd9a4c85	-0.07534126
94	0x3e13bce7	0.1442753
95	0xbda6aebd	-0.081387974
96	0xbdb5a1dc	-0.08868763
97	0x3ca576c0	0.020198226
98	0x3d0bef71	0.034163896
99	0xbcbbb827	-0.02291496
100	0xbdd325fc	-0.10309979
101	0x3db4cab2	0.088277236
102	0xbdfb5824	-0.12272671
103	0xbc3baaa7	-0.011454261
104	0x3ce6fbe3	0.02819628
105	0xbe068d69	-0.13139881
106	0x3b1fbd33	0.0024374246
107	0xbd8ee279	-0.0697679
108	0xbd2b189a	-0.04177151
109	0xbd941a4f	-0.072315805
110	0x3e48b1ac	0.19599026
111	0xbc3fca1f	-0.011705904
112	0x3d3c5247	0.045976903
113	0x3d2d6403	0.042331707
114	0xbe6b9fc9	-0.23010172
115	0xbd7493ae	-0.05971115
116	0xbc64b542	-0.013959231
117	0x3d5447fd	0.051826466
118	0xbdd0d619	-0.10197086
119	0xbd789505	-0.06068899
120	0xbde58dae	-0.11208664
121	0xbcaa2670	-0.020770282
122	0xbe88bcbc	-0.26706493
123	0xbdaef47a	-0.08542724
124	0xbc789104	-0.015171293
125	0xbe283979	-0.16428174
126	0xbbe5b1b0	-0.0070097074
127	0x3d8994b1	0.06717814
128	0x3dbddf26	0.09271078
129	0xbd94c6ea	-0.07264502
130	0xbaf40c2a	-0.0018619348
131	0x3e44df2a	0.19225755
132	0xbdaee888	-0.085404456
133	0xbdb74229	-0.08948166
134	0xbdd813bf	-0.10550641
135	0x3cb3646d	0.021898473
136	0xbe03234d	-0.12806435
137	0x3dc1c229	0.09460861
138	0x3c9533c0	0.018213153
139	0x3b96f1e8	0.004606474
140	0xbdc96e4d	-0.09835491
141	0x3bacc854	0.0052729044
142	0xbdaea8d8	-0.08528298
143	0x3db279ac	0.08714613
144	0x3dcd9126	0.100374505
145	0xbc8cd340	-0.017190576
146	0x3d739a98	0.059473604
147	0x3e18b9b4	0.1491459
148	0x3db735f9	0.08945841
149	0x3b5a53cb	0.0033314105
150	0xbdc1ae43	-0.09457066
151	0xbe0d8bc2	-0.13822845
152	0xbd4ef6cb	-0.05052833
153	0xbe23814d	-0.15967293
154	0xbce2ba6b	-0.027676782
155	0x3d5734c8	0.05254057
156	0x3cc2347e	0.02370667
157	0x3d52b9a4	0.051446572
158	0x3e2d8ef2	0.1694906
159	0x3d845732	0.06461944
160	0xbe3e6f2c	-0.18597096
161	0x3cd7b014	0.026329078
162	0xbe08c556	-0.13356528
163	0xbd703f11	-0.058653895
164	0xbe4448af	-0.19168352
165	0xbd25e9ce	-0.040506177
166	0xbb5b8c5b	-0.0033500406
167	0x3d597850	0.053093255
168	0xbcdcb118	-0.026939914
169	0xbe1a0d64	-0.1504417
170	0xbd855edc	-0.065122336
171	0x3d6c0d0e	0.057629637
172	0xbd9aa9b7	-0.07551902
173	0xbc4809a7	-0.012209333
174	0xbc72baed	-0.014815074
175	0xbd891cdd	-0.06694958
176	0xbe257e5b	-0.16161482
177	0x3dc7c55b	0.097544394
178	0x3e34ce10	0.17656732
179	0xbe3a387d	-0.18185611
180	0x3e226304	0.15858084
181	0x3d966763	0.07343938
182	0xbe37c8cf	-0.17947696
183	0x3de98156	0.11401622
184	0xbd68a3e3	-0.05679692
185	0xbc71f063	-0.014766785
186	0x3e329ada	0.17441884
187	0x3e23c772	0.15994051
188	0xbde83873	-0.11338892
189	0xbe51e372	-0.2049692
190	0xbe1b5646	-0.1516963
191	0x3e0be6e1	0.13662292
192	0x3c6ec189	0.01457251
193	0xbc797eb8	-0.015227966
194	0x3c4b75aa	0.01241819
195	0xbdae8d9e	-0.08523105
196	0xbd326fa8	-0.043563515
197	0xbc88c26f	-0.016694276
198	0x3e2b1da6	0.16710529
199	0xbc1ef4c6	-0.009701913
200	0xbc98d76c	-0.018657409
201	0xbd83a574	-0.06428042
202	0xbd5921d8	-0.05301079
203	0x3d7ecbaa	0.062205948
204	0x3e17c75c	0.14822143
205	0x3dafee66	0.08590393
206	0xbadcf3c7	-0.0016857319
207	0xbd3da713	-0.046301913
208	0xbdd3265b	-0.1031005
209	0xbde99a28	-0.11406356
210	0x3d9946da	0.07484217
211	0xbdc37ef7	-0.09545701
212	0xbc6d9472	-0.014500724
213	0x3b16a350	0.0022985525
214	0xbe29e58e	-0.16591474
215	0x3d6b3c52	0.057430573
216	0xbd25ab59	-0.040446613
217	0x3cd350aa	0.0257953
218	0xbc79a927	-0.015238083
219	0x3ce06601	0.02739239
220	0x3d6621df	0.056184646
221	0xbda20e6f	-0.07912909
222	0x3d3ee88c	0.046608493
223	0xbd5ab6c9	-0.053396974
224	0xbde4ad97	-0.11165922
225	0xbb8fac7e	-0.0043845763
226	0x3cd7936c	0.026315413
227	0x3e15a005	0.14611824
228	0x3d47e917	0.048806276
229	0xbd576a6c	-0.052591726
230	0x3d840429	0.06446106
231	0xbd81f468	-0.06345445
232	0x3da638bb	0.08116289
233	0xbe524f81	-0.20538141
234	0xbc054397	-0.00813379
235	0xbe5c69d8	-0.21524751
236	0xbd5ca940	-0.053872347
237	0x3da08160	0.07837176
238	0xbd5314d6	-0.051533543
239	0xbdbc38ce	-0.09190522
240	0xbd99919b	-0.07498475
241	0xbd8f6aa4	-0.07002762
242	0xbe0026c3	-0.12514786
243	0xbe10e70b	-0.14150636
244	0xbd07c9ef	-0.033151563
245	0xbd900a5d	-0.07033227
246	0xbd22970d	-0.039694835
247	0x3c5e70c1	0.013576687
248	0xbe83fab2	-0.25777203
249	0x3b7a9477	0.0038235465
250	0xbe754f03	-0.23955922
251	0xbe3336ba	-0.17501345
252	0x3e06585e	0.13119647
253	0x3c003988	0.0078262165
254	0xbc689e3c	-0.014197882
255	0x3dacf972	0.084460154

fc3.bias f4 [64]
0	0xbe39b231	-0.18134381
1	0x3e615bf0	0.22007728
2	0xbd97ffbb	-0.074218236
3	0x3d67cf86	0.056594394
4	0x3d35f2df	0.044421073
5	0xbe2c3f4f	-0.16821025
6	0xbc5d737a	-0.013516301
7	0xbaa4185e	-0.0012519469
8	0x3d94ab51	0.072592385
9	0xbdcfa441	-0.10138751
10	0xbcd2cf0a	-0.02573349
11	0x3d4b7667	0.049673464
12	0xbc4a42bd	-0.012345013
13	0x3e34c9de	0.17655131
14	0xbda234c2	-0.07920219
15	0x3d6fa7a6	0.05850949
16	0xbaa0ef87	-0.0012278416
17	0x3da64a43	0.08119633
18	0x3c82c01e	0.01596075
19	0xbd468e13	-0.048475336
20	0x3ce95df2	0.02848718
21	0xbde5f839	-0.11228985
22	0x3d1dae2a	0.038496174
23	0xb9da0354	-0.0004158268
24	0x3c4ca65f	0.012490838
25	0x3e0fa2f9	0.14027013
26	0x3c8ac03e	0.016937371
27	0x3e299a24	0.16562706
28	0xb88e2951	-6.7787834e-05
29	0xbdb5a220	-0.088688135
30	0x3cd6eea9	0.026236849
31	0x3b99290a	0.0046740817
32	0xbda2162e	-0.07914387
33	0xbd8ba0b5	-0.06817762
34	0xbd3f7f66	-0.046752356
35	0x3e1bd391	0.15217425
36	0x3c4f3f35	0.012649347
37	0x3e0dc058	0.13842905
38	0xbc34eaa0	-0.011042267
39	0xbe4eafcc	-0.20184249
40	0x3d5ebb6e	0.054377966
41	0xbe084d28	-0.13310683
42	0x3d5dcadf	0.05414855
43	0x3e0bb763	0.13644175
44	0x3d524c00	0.05134201
45	0x3c820aa0	0.015874207
46	0xbd8799dc	-0.06621143
47	0xbe120509	-0.14259733
48	0x3e5bba80	0.21457863
49	0x3ddbee36	0.107387945
50	0xbe31d5aa	-0.17366663
51	0xbe0e3c7e	-0.13890263
52	0xbe40b6c9	-0.18819727
53	0xbd8974ce	-0.06711732
54	0x3d5d182c	0.05397813
55	0x3e349640	0.17635441
56	0xbe6c53f9	-0.23078908
57	0x3e6fda5b	0.2342314
58	0x3e31d452	0.1736615
59	0x3d3fa3df	0.04678714
60	0xba10f2f7	-0.00055293686
61	0x3c19fa6a	0.009398082
62	0xbe4cba84	-0.19993025
63	0xbe1ee4a8	-0.15516913

fc4.weight f4 [32, 64]
0	0x3e075a64	0.13218075
1	0x3bd69c8b	0.006549423
2	0xbd21d8fd	-0.039513577
3	0xbdc2efab	-0.09518369
4	0x3d3a50b9	0.04548714
5	0x3ac74406	0.0015202768
6	0x3d3d09a4	0.046151772
7	0xbd9369da	-0.07197924
8	0x38f8d3bf	0.00011865002
9	0xbde3a55f	-0.111155264
10	0xbe2a98ed	-0.16659899
11	0xbe150c64	-0.14555508
12	0xbc94d7be	-0.01816928
13	0xbdc184ea	-0.094491795
14	0x3d3f1795	0.04665335
15	0xbde6f9ec	-0.112781376
16	0x3bd6c44f	0.0065541635
17	0x3d110977	0.035409417
18	0x3db6259f	0.088938944
19	0xbdb1e0eb	-0.08685478
20	0x3d85dadf	0.06535887
21	0xbdc99bc2	-0.098441616
22	0x3d82c1ed	0.06384645
23	0xbe0a3282	-0.1349583
24	0xbd884685	-0.066540755
25	0xbc18fae0	-0.009337157
26	0x3d2ca40c	0.042148635
27	0x3d393b7e	0.04522275
28	0xbdb6137d	-0.08890436
29	0xbd5bf492	-0.053700037
30	0xbe1a270e	-0.1505396
31	0x3b524345	0.0032083553
32	0x3d1f5511	0.038899485
33	0xbdd84f75	-0.1056203
34	0xbd295610	-0.04134184
35	0xbe09f8a6	-0.13473758
36	0xbd2a1254	-0.041521385
37	0xbdb19734	-0.08671418
38	0x3dbdfc94	0.09276691
39	0xbe297b74	-0.16551
40	0xbe030847	-0.12796126
41	0x3d9fb889	0.07798869
42	0xbc90fc97	-0.01769857
43	0xbdd3db6e	-0.10344587
44	0xbdcb75b5	-0.0993456
45	0xbde9d478	-0.11417478
46	0xbd3772e7	-0.044787314
47	0xbe05a2cb	-0.13050382
48	0xbd7df959	-0.062005375
49	0x3b52ff86	0.003219576
50	0xbe31d98d	-0.17368145
51	0x3d8a7905	0.06761364
52	0x3dfe163b	0.12406584
53	0x3d56206e	0.05227702
54	0x3d252c2a	0.04032532
55	0xbda58e0c	-0.08083734
56	0x3e199c2d	0.15000983
57	0xbcf25be8	-0.02958484
58	0x3cd58d70	0.02606842
59	0x3b7f8faf	0.0038995554
60	0x39aa88a9	0.00032526747
61	0x3d690732	0.056891628
62	0x3d8c3bcd	0.068473436
63	0x3db3b198	0.08774108
64	0xbe2a18e1	-0.16611053
65	0x3d12e2d8	0.035860866
66	0xbd8924f1	-0.06696499
67	0x3ddf8548	0.10914093
68	0xbe813a6b	-0.25239882
69	0xbc884056	-0.01663224
70	0xbcbb2a10	-0.022847205
71	0x3c75c3fd	0.0150003405
72	0x3d97793e	0.07396172
73	0x3d8fabfb	0.070152245
74	0x3d47af19	0.04875097
75	0xbe3a0123	-0.18164496
76	0xbe56f8a7	-0.20993291
77	0x3dee53e6	0.11637096
78	0xbddfe2b4	-0.10931912
79	0x3de5eac9	0.11226422
80	0x3da1dbf2	0.07903279
81	0xbd694f24	-0.05696024
82	0xbe02ad6d	-0.12761469
83	0xbdd55d8d	-0.10418234
84	0x3d248787	0.04016831
85	0xbcccce7a	-0.0250008
86	0x3d6e8a7f	0.05823755
87	0xbe377574	-0.17915899
88	0x3dbd779b	0.092513286
89	0x3e094dd8	0.13408601
90	0xbaad794b	-0.0013235001
91	0x3dda87f7	0.106704645
92	0xbe72150f	-0.23640846
93	0xbdee96b6	-0.116498396
94	0xbe9d82ba	-0.307638
95	0xbe0c90d7	-0.13727127
96	0xbe1fe1cf	-0.15613483
97	0xbe97cf6e	-0.29650444
98	0xbdb348dc	-0.08754131
99	0x3e24fcec	0.16112107
100	0xbde455b8	-0.11149162
101	0xbddc9672	-0.10770883
102	0x3c58b5b5	0.013226916
103	0xbde7a4cc	-0.113107294
104	0xbdef1de2	-0.116756216
105	0xbd2a6f5e	-0.041610114
106	0x3c43f3a9	0.011959949
107	0xbd56ee92	-0.052473612
108	0x3d9ce660	0.07661128
109	0xbd6df9ff	-0.058099743
110	0xbe16fa00	-0.14743805
111	0xbe0708b2	-0.13186911
112	0x3e0ea5a8	0.1393038
113	0xbd4e12b4	-0.050310805
114	0xbe185c6e	-0.14879009
115	0xbdd67a71	-0.104725726
116	0xbe257cee	-0.16160938
117	0xbe29cb7b	-0.16581528
118	0xbd34f68d	-0.04418044
119	0x3ce58bb2	0.028020713
120	0xbd2c90f2	-0.042130418
121	0x3d521e1d	0.05129825
122	0x3e0e0d7d	0.13872333
123	0xbd553a11	-0.05205733
124	0xbb3205bb	-0.002716406
125	0xbd80c148	-0.062868655
126	0xbe0cdf84	-0.1375714
127	0xbd1d7574	-0.03844209
128	0xbdbd10a7	-0.09231692
129	0x3d277c28	0.04088989
130	0xbda96572	-0.08271302
131	0xbd2a7b12	-0.041621275
132	0xbddb390a	-0.10704239
133	0xbda134bf	-0.07871389
134	0xbcaa4490	-0.020784646
135	0xbe1bb0e4	-0.15204197
136	0xbdc7b310	-0.0975095
137	0xbe165dc0	-0.146842
138	0xbd7a0320	-0.061038136
139	0x3ca4ca03	0.020115858
140	0xbc46ff4d	-0.012145829
141	0xbdf1fc85	-0.118157424
142	0xbc8137c3	-0.01577366
143	0xbe3361d3	-0.17517786
144	0xbd26ae70	-0.0406937
145	0xbdd2da15	-0.10295502
146	0xbe4f439f	-0.20240639
147	0x3cbc07ee	0.022953
148	0x3cc0e154	0.023544945
149	0x3d9573b5	0.0729746
150	0xbd9978c7	-0.074937396
151	0xbd93f851	-0.07225097
152	0xbd776237	-0.0603964
153	0xbe5c0e3a	-0.21489802
154	0xbd8d5d75	-0.06902591
155	0xbc57c04a	-0.013168404
156	0x3d114bc4	0.035472646
157	0xbde564ed	-0.11200891
158	0xbc033066	-0.008007145
159	0xbc82347e	-0.01589417
160	0xbc3e0398	-0.0115975365
161	0xbe4e04f1	-0.20119072
162	0x3be7b1ed	0.007070771
163	0x3d79dcb3	0.06100149
164	0xbda94884	-0.082657844
165	0xbe0a40b2	-0.13501242
166	0x3d909c18	0.070610225
167	0x3df9f4a1	0.122048624
168	0xbd523530	-0.051320255
169	0xbd7e918a	-0.062150516
170	0x3d06b0ce	0.032883458
171	0xbdeda322	-0.11603381
172	0xbbcb3ea4	-0.0062025357
173	0xbd9d8d36	-0.076929495
174	0xbdb40a8d	-0.08791075
175	0xbdb33e01	-0.08752061
176	0x3c4aad37	0.012370399
177	0xbda43d1d	-0.08019469
178	0x3dd885a3	0.10572364
179	0xbb8c0529	-0.004273076
180	0xbd245120	-0.04011643
181	0x3dc49df8	0.09600443
182	0xbdecf5c9	-0.11570317
183	0x3a72fe85	0.0009269494
184	0xbe2cd9b7	-0.16879927
185	0xbdd241a5	-0.10266427
186	0xbc038826	-0.008028066
187	0x3de4160a	0.11137016
188	0xbe0641dc	-0.13111061
189	0x3cd20511	0.025637181
190	0xbdcb9eaa	-0.09942372
191	0xbdfd843e	-0.12378739
192	0xbcb3bd41	-0.02194083
193	0xbd3904ac	-0.04517047
194	0xbd0c0b3f	-0.034190413
195	0xbe7c6431	-0.24647595
196	0x3dfd2628	0.12360793
197	0xbb4a1bde	-0.0030839364
198	0x3d221195	0.03956755
199	0xbcf871eb	-0.030327758
200	0xbd06290b	-0.032753985
201	0xbd24de10	-0.040250838
202	0x3df1e118	0.11810511
203	0x3df5bc6d	0.1199883
204	0x3e130a76	0.1435946
205	0x3d39a3c4	0.045322195
206	0x3cbef6fd	0.023311133
207	0xbcfed85d	-0.03110903
208	0xbd0f9553	-0.035054516
209	0xbd8441e0	-0.06457877
210	0x3e4058d2	0.18783882
211	0x3e04e502	0.12977985
212	0xbe97535f	-0.29555795
213	0xbe2704e7	-0.16310464
214	0x3e13aa35	0.14420398
215	0x3dbd5c03	0.092460655
216	0xbca89008	-0.020576492
217	0xbe3fed43	-0.18742852
218	0x3d128687	0.035772827
219	0xbdd710fe	-0.10501288
220	0x3d157388	0.036487132
221	0x3de44285	0.111455
222	0x3df692d0	0.12039721
223	0x3d0659f5	0.032800633
224	0x3e174934	0.14774019
225	0x3d7112db	0.058855873
226	0xbd9df9e0	-0.077136755
227	0xbd8eaf68	-0.0696705
228	0x3d8e3b16	0.069448635
229	0x3dd61fd3	0.10455289
230	0x3d0ba877	0.034096207
231	0x3e05dd54	0.13072711
232	0x3e366b7e	0.17814443
233	0x3e054b5f	0.13017033
234	0x3a1d1f5f	0.00059937494
235	0xbe34f2ea	-0.1767079
236	0xbe0ec22d	-0.1394126
237	0x3dfb363c	0.12266204
238	0x3e25850b	0.16164033
239	0x3d54126d	0.051775385
240	0xbebb008e	-0.3652386
241	0xbe52142b	-0.20515506
242	0x3d74d312	0.059771605
243	0xbdff9974	-0.12480441
244	0xbdc7bc3d	-0.097527005
245	0x3dbd183c	0.09233138
246	0xbd84ad57	-0.064783745
247	0xbd2e12f2	-0.042498536
248	0x3de83af7	0.11339372
249	0xbe2f3f47	-0.17113982
250	0xbe1b6776	-0.15176186
251	0xbe8c273a	-0.27373677
252	0x3e614523	0.2199903
253	0xbe699f11	-0.22814585
254	0xbc62d436	-0.01384454
255	0x3da490a1	0.08035398

fc4.bias f4 [32]
0	0x3ce146a8	0.027499512
1	0x3e70c4e7	0.23512612
2	0xbe5210c0	-0.20514202
3	0x3dfa33c1	0.122169025
4	0x3e9f8da3	0.31162748
5	0x3e67b19d	0.22626348
6	0x3d4a6fac	0.049422905
7	0x3e5377cb	0.20651166
8	0x3eb31034	0.349733
9	0x3d5d2720	0.05399239
10	0xbe51ed2a	-0.20500627
11	0xbe7a45ae	-0.24440643
12	0x3d16b3ea	0.036792673
13	0x3d3f939d	0.046771634
14	0x3d1dbb80	0.038508892
15	0x3def34ff	0.1168003
16	0x3e5860a8	0.21130621
17	0xbe1f5b6c	-0.15562218
18	0x3cc11908	0.023571506
19	0xbd9e65c0	-0.07734251
20	0x3e4e39ad	0.20139189
21	0x3e759671	0.2398317
22	0x3eaa4aad	0.33260098
23	0x3e6ad486	0.22932634
24	0x3eabea2f	0.33577105
25	0xbe560cab	-0.2090327
26	0x3e29dda8	0.16588461
27	0x3d4c5b5b	0.04989181
28	0xbbb57569	-0.005537678
29	0x3e6a196c	0.2286126
30	0x3d2136f1	0.039359037
31	0x3dfbd6b1	0.122968085

fc5.weight f4 [1, 32]
0	0x3c5e57e6	0.013570761
1	0xbe450b34	-0.19242555
2	0x3b72405c	0.003696463
3	0x3e29c95e	0.16580722
4	0xbdfc4901	-0.12318612
5	0xbd9a8a48	-0.07545906
6	0x3de8e927	0.11372595
7	0x3e0fda04	0.1404801
8	0xbe113ea8	-0.14184058
9	0x3e34413e	0.17603013
10	0x3d32dcfc	0.04366778
11	0x3c679813	0.014135378
12	0x3dff6e5c	0.12472221
13	0xbdc3dc3c	-0.09563491
14	0x3e22206e	0.15832683
15	0xbdc468e2	-0.09590317
16	0xbe0a84b3	-0.13527183
17	0x3dc6d3d6	0.09708373
18	0x3e0d366e	0.13790295
19	0x3d02b273	0.031908464
20	0x3e288623	0.16457419
21	0xbe2a3f29	-0.16625656
22	0xbe08672a	-0.13320604
23	0xbdffc247	-0.12488227
24	0xbe16c74c	-0.14724463
25	0x3c8add2b	0.016951164
26	0x3e0a96d9	0.13534106
27	0x3dc177c5	0.09446672
28	0xbd49539a	-0.049151994
29	0xbdcc2e23	-0.099697374
30	0x3de12108	0.10992628
31	0xbe200503	-0.15626912
