scripts/built_models/torch_ml.pth (torch, 691475 bytes, 9 tensors)

fc1.weight f4 [256, 502]
0	0x3cdd2e95	0.026999751
1	0xbd1fef56	-0.039046608
2	0xbd8f0e63	-0.06985166
3	0xbd01df52	-0.031707115
4	0xbe20b4b9	-0.1569394
5	0xbda8d7fd	-0.082443215
6	0x3ebbc53c	0.36673915
7	0xbda4e0f9	-0.08050723
8	0xbdc695a7	-0.09696513
9	0xbdef81e8	-0.116946995
10	0x3e2c86ca	0.16848293
11	0x3d0984d7	0.03357395
12	0x3d176260	0.036959052
13	0x3d97c652	0.074108735
14	0x3e2a656c	0.16640252
15	0xbd425cce	-0.047451787
16	0x3db73d9c	0.08947298
17	0x3e2282af	0.15870164
18	0xbe10ff00	-0.14159775
19	0xbc895dac	-0.016768299
20	0x3e8c2700	0.27373505
21	0xb8284c5b	-4.0125433e-05
22	0xbda2cfa7	-0.07949763
23	0x3ddcdbef	0.107841365
24	0x3d887681	0.06663228
25	0xbdf493c8	-0.119422495
26	0x3dc0d29e	0.09415172
27	0xbcf8e15f	-0.030380903
28	0x3e311532	0.17293242
29	0xbda7dc11	-0.08196271
30	0x3dcba630	0.09943807
31	0x3e1a0fed	0.15045138
32	0x3e3ce3ca	0.1844627
33	0x3d9c9bb5	0.07646886
34	0x3cd12eac	0.02553495
35	0xbda9d5c3	-0.08292725
36	0x3e17b025	0.14813288
37	0xbdf43ab1	-0.11925257
38	0x3e3dfc6a	0.1855332
39	0xbd8470e3	-0.06466844
40	0xbdca7f8f	-0.09887611
41	0x3e8b8283	0.2724801
42	0x3cf84a8e	0.030308988
43	0xbdea1276	-0.114293024
44	0x3d47cc54	0.048778847
45	0x3d55ca18	0.052194685
46	0x3db3c498	0.08777732
47	0xbd8884fc	-0.0666599
48	0x3e46accc	0.19401854
49	0xbe69c4d4	-0.2282899
50	0x3e974417	0.29544136
51	0x3e670581	0.22560693
52	0x3d5543dd	0.052066673
53	0x3e0695a5	0.13143022
54	0x3cac5abc	0.02103936
55	0x3c8af563	0.016962713
56	0xbc8707c3	-0.016483193
57	0x3dffd7fd	0.12492368
58	0xbda907c1	-0.08253432
59	0xbe41cde7	-0.18926202
60	0x3bc17193	0.0059034317
61	0xbddf70e7	-0.10910206
62	0xbdc5dec8	-0.09661633
63	0xbcc7a0ff	-0.024368761
64	0xbdae69d9	-0.085162826
65	0xbcc65557	-0.024210615
66	0x3e6fad08	0.2340585
67	0xbd5fa2ae	-0.054598503
68	0xbe8bc40c	-0.2729801
69	0x3df5db0c	0.120046705
70	0x3dba99e3	0.09111383
71	0x3e121a37	0.14267813
72	0xbd61f177	-0.05516192
73	0xbc47ee3a	-0.012202794
74	0xbd14fbab	-0.03637282
75	0xbd7efdcf	-0.06225377
76	0x3d45aa62	0.048258193
77	0xbd787ca9	-0.06066576
78	0xbddd34e8	-0.10801107
79	0x3d88a4aa	0.06672032
80	0xbdd05273	-0.10171976
81	0xbe0977fb	-0.13424675
82	0x3d3a228c	0.045443103
83	0xbe99cf90	-0.3004117
84	0xbd9c46da	-0.07630701
85	0xbdf93f58	-0.12170285
86	0xbc3ccf7a	-0.011524076
87	0xbdbba955	-0.09163157
88	0x3dcb0c77	0.09914487
89	0x3adf0e9e	0.0017017906
90	0xbe00ff89	-0.12597479
91	0x3dfba44e	0.12287198
92	0xbe00853c	-0.12550825
93	0x3d24e048	0.040252954
94	0xbe21a265	-0.15784605
95	0x3e1da459	0.15394725
96	0xbd311fff	-0.043243404
97	0xbe43ac15	-0.19108613
98	0x3e3252ee	0.17414448
99	0x3c1c00fb	0.009521718
100	0xbe30697d	-0.1722774
101	0x3df693bb	0.12039896
102	0x3c9a1763	0.01880998
103	0x3e2f3ed8	0.17113817
104	0xbc88548a	-0.016641874
105	0x3d3ff2d2	0.04686243
106	0x3c4c2f91	0.012462513
107	0xbced4b9e	-0.028966721
108	0xbd930ee1	-0.07180572
109	0x3be3816d	0.006942919
110	0xbe584dde	-0.21123454
111	0xbe40b32c	-0.18818349
112	0x3d623f6e	0.055236273
113	0x3e65a443	0.22425942
114	0xbd85d8fa	-0.065355256
115	0xbe3212b4	-0.17389947
116	0x3e4ce2a1	0.20008327
117	0xbe8464ec	-0.25858247
118	0x3dae2205	0.085025825
119	0x3db0f63b	0.08640715
120	0x3ba1e741	0.0049408977
121	0xbe14d621	-0.14534809
122	0xbdf346b8	-0.11878723
123	0x3dd12eb2	0.102139845
124	0x39441408	0.00018699479
125	0xbd8c05d8	-0.06837052
126	0xbd970c71	-0.0737542
127	0x3c886e56	0.016654175
128	0x3de065df	0.1095693
129	0xbe01106e	-0.12603924
130	0x3b54ade7	0.0032452287
131	0x3da36f4b	0.07980212
132	0x3dfc3a22	0.123157755
133	0x3d34da22	0.04415334
134	0x3d23f4f5	0.04002853
135	0xbd81b372	-0.063330546
136	0x3d606b8d	0.05479007
137	0xbdb2fbef	-0.08739459
138	0xbdcb0e90	-0.09914887
139	0x3d2cf222	0.042223103
140	0xbe196dc0	-0.14983273
141	0xbe4ef0be	-0.20209023
142	0xbbac856f	-0.00526493
143	0xbdce48b2	-0.10072459
144	0xbdbab666	-0.09116821
145	0xbcabcdb2	-0.020972107
146	0x3cf86174	0.030319907
147	0x3acbafa2	0.0015540014
148	0xbcae6c3d	-0.021291846
149	0x3cadd08f	0.021217613
150	0x3de2fbc3	0.11083176
151	0xbe922356	-0.28542584
152	0xbe07c6d2	-0.13259438
153	0x3bbe48a1	0.005806998
154	0xbd017ef1	-0.0316152
155	0xbd1856fa	-0.037192322
156	0xbd324e95	-0.043531973
157	0x3d623b91	0.05523259
158	0xbccbed4c	-0.024893425
159	0xbdb33512	-0.08750357
160	0x3e5a0648	0.21291459
161	0xbe011522	-0.12605718
162	0xbdc1eb84	-0.09468749
163	0x3daba375	0.08380786
164	0xbd88b431	-0.06674994
165	0x3cafd456	0.021463554
166	0x3b4af26f	0.0030967256
167	0x3cc672f2	0.024224732
168	0xbbc23d1a	-0.005927694
169	0xbe73f894	-0.23825294
170	0xbe07b696	-0.13253245
171	0x3c8e5d80	0.017378569
172	0xbd065117	-0.032792177
173	0xbc3ab9ca	-0.011396835
174	0x3e5d76a0	0.21627283
175	0x3e6d411c	0.23169369
176	0xbcfdefc5	-0.03099812
177	0x3d975c3c	0.07390639
178	0x3d39e80b	0.04538731
179	0x3bfe4e34	0.0077607874
180	0x3dfce14e	0.12347661
181	0xbd1c3476	-0.03813597
182	0x3d9fb199	0.07797546
183	0xbd24248a	-0.04007391
184	0xbd5f51b1	-0.054521266
185	0x3d8971ef	0.06711184
186	0x3cef55a0	0.029215634
187	0xbc4bd32f	-0.012440487
188	0xbd222c43	-0.039592993
189	0xbca6f94e	-0.02038255
190	0xbc80643e	-0.0156728
191	0xbccb398b	-0.024807712
192	0x3d7f17be	0.0622785
193	0x3d888b2a	0.066671684
194	0x3d03814c	0.03210573
195	0x3d83c014	0.0643312
196	0x3d6b6d17	0.057477083
197	0xbdf76e48	-0.12081581
198	0x3c7e1086	0.015506869
199	0xbdab2b46	-0.08357863
200	0xbd235d09	-0.039883647
201	0x3c712a8e	0.0147196185
202	0xbe129c79	-0.14317502
203	0xbd63df3d	-0.05563282
204	0xbe035904	-0.12826926
205	0xbd04609a	-0.03231869
206	0xbd7d19d1	-0.0617922
207	0x3df02f04	0.117277175
208	0x3c857cf9	0.016294943
209	0xbd28a900	-0.041176796
210	0x3d4cddf8	0.050016373
211	0x3e01d145	0.12677486
212	0xbbf4a620	-0.0074660927
213	0xbe1a6e4a	-0.15081134
214	0xbd16cc59	-0.036815975
215	0xbcf444a9	-0.029817896
216	0xbc5e01d6	-0.013550242
217	0x3d0eb0d8	0.03483662
218	0x3e0f081d	0.13967939
219	0x3cc96536	0.024584394
220	0x3e09bb92	0.13450459
221	0xbdc5c241	-0.096561916
222	0x3e587bf4	0.21141034
223	0xbccc01c3	-0.024903184
224	0xbd549160	-0.051896453
225	0x3e61520d	0.22003956
226	0xbdfb01d9	-0.12256212
227	0x3da35196	0.07974546
228	0xbcdcd881	-0.026958706
229	0x3e24f49f	0.1610894
230	0xbe2341b9	-0.1594304
231	0xbe34ef49	-0.17669405
232	0x3ca476e6	0.020076226
233	0xbe094145	-0.13403805
234	0x3e37832a	0.17921129
235	0xbdd71f11	-0.10503972
236	0x3da6eba0	0.08150411
237	0xbc6f972c	-0.0146234445
238	0x3e40789a	0.18796006
239	0xbe02fdde	-0.12792155
240	0x3cdc7b57	0.026914282
241	0x3aae5afe	0.0013302264
242	0xbd80fc11	-0.06298078
243	0x3dc9d2e0	0.09854674
244	0xbd2f7479	-0.042835686
245	0xbd809c89	-0.06279857
246	0x3d049e90	0.03237778
247	0x3c97b426	0.018518519
248	0x3cca4d33	0.024695015
249	0x3e1b6e3b	0.15178768
250	0x3d0ff5c3	0.035146486
251	0xbbdd4acc	-0.0067533012
252	0xbd91fba5	-0.071280755
253	0x3d2f2dd5	0.04276832
254	0xbbcaeb81	-0.006192625
255	0x3e953965	0.2914535

fc1.bias f4 [256]
0	0xbf0dfa33	-0.554599
1	0xbecc7f7b	-0.3994101
2	0xbf069427	-0.5256981
3	0xbf1c075d	-0.60948735
4	0xbf331d6d	-0.69966775
5	0xbf45f9cf	-0.773343
6	0xbf44d0f6	-0.7688135
7	0xbf5c67a9	-0.8609567
8	0xbf051b78	-0.5199504
9	0xbf15cf57	-0.585195
10	0xbf36426c	-0.711951
11	0xbf21aed9	-0.6315742
12	0xbf3f9d18	-0.7484908
13	0xbf1a6a31	-0.60318285
14	0xbf4c9baf	-0.79925054
15	0xbf2f028e	-0.68363273
16	0xbf2615fa	-0.64877284
17	0xbeadcca5	-0.33945194
18	0xbf1d3863	-0.61414164
19	0xbf0983d8	-0.537168
20	0xbf29ee75	-0.6637948
21	0xbf107f25	-0.5644401
22	0xbee51dd2	-0.44749314
23	0xbf06dc89	-0.5268026
24	0xbf15dc40	-0.585392
25	0xbf08df61	-0.5346585
26	0xbf243149	-0.64137703
27	0xbf105608	-0.56381273
28	0xbecd9a56	-0.4015681
29	0xbede544c	-0.43423688
30	0xbedec9e8	-0.43513417
31	0xbf300eae	-0.687724
32	0xbef84f31	-0.48497918
33	0xbf33ed50	-0.70283985
34	0xbf1d18a5	-0.6136573
35	0xbf49a086	-0.78760564
36	0xbf20cfb9	-0.6281696
37	0xbf083762	-0.5320951
38	0xbf06d04b	-0.5266158
39	0xbf27d0c0	-0.655529
40	0xbf09a2c7	-0.53764004
41	0xbf0357a8	-0.5130563
42	0xbf144f74	-0.57933736
43	0xbf253d95	-0.6454709
44	0xbede69d2	-0.4344011
45	0xbf118407	-0.5684208
46	0xbf12fa15	-0.57412845
47	0xbf1c4fb5	-0.61059123
48	0xbf0e123e	-0.55496585
49	0xbf0ef3b3	-0.55840605
50	0xbec71b2d	-0.3888792
51	0xbed47052	-0.41491944
52	0xbf3858dd	-0.72010595
53	0xbf03b334	-0.5144532
54	0xbf23ae4f	-0.6393785
55	0xbef753bb	-0.4830607
56	0xbf092cd8	-0.5358405
57	0xbf5b4741	-0.856556
58	0xbef858d6	-0.48505276
59	0xbf0077ad	-0.5018261
60	0xbf2a45c8	-0.6651273
61	0xbf08d54d	-0.5345047
62	0xbedae249	-0.42750767
63	0xbf0c16e6	-0.5472244
64	0xbf307818	-0.6893325
65	0xbf045e94	-0.51706815
66	0xbf09177d	-0.53551465
67	0xbf1d5640	-0.6145973
68	0xbeee096a	-0.46491557
69	0xbf0142ee	-0.5049275
70	0xbf096a03	-0.53677386
71	0xbf02c056	-0.5107473
72	0xbf37bb22	-0.71769917
73	0xbefc11c1	-0.49232295
74	0xbf05ce33	-0.5226776
75	0xbf1c033c	-0.60942435
76	0xbf0da628	-0.5533166
77	0xbf11b8db	-0.5692269
78	0xbf051e60	-0.51999474
79	0xbf0e75e7	-0.55648655
80	0xbf096231	-0.53665453
81	0xbeea7821	-0.45794776
82	0xbe989ba0	-0.29806232
83	0xbec03f05	-0.3754808
84	0xbf09f8b0	-0.5389509
85	0xbf00da85	-0.50333434
86	0xbf00d425	-0.50323707
87	0xbf2e7bc5	-0.6815761
88	0xbf2797de	-0.65466106
89	0xbf406393	-0.7515194
90	0xbf095382	-0.5364305
91	0xbececf46	-0.40392512
92	0xbf3fff93	-0.7499935
93	0xbf46f195	-0.77712375
94	0xbf258e31	-0.6467009
95	0xbeed27b0	-0.46319342
96	0xbf03e8b1	-0.51526934
97	0xbedcfe08	-0.4316256
98	0xbef66c20	-0.48129368
99	0xbeed5605	-0.4635469
100	0xbeb42900	-0.3518753
101	0xbf4871e3	-0.7829878
102	0xbf39ba0a	-0.725495
103	0xbeb9c0bc	-0.36279857
104	0xbee2dd03	-0.44309244
105	0xbefd51da	-0.4947651
106	0xbecbec59	-0.39828756
107	0xbf071492	-0.5276576
108	0xbf2c029d	-0.6719149
109	0xbf1a0513	-0.6016399
110	0xbf0944a1	-0.53620344
111	0xbf344d32	-0.7043029
112	0xbf4104b1	-0.75397784
113	0xbf14d31c	-0.5813463
114	0xbf23815f	-0.6386928
115	0xbf015cc5	-0.5053218
116	0xbef4db51	-0.47823575
117	0xbf0fdb6c	-0.56194186
118	0xbebd75a6	-0.3700382
119	0xbf37c4bf	-0.71784586
120	0xbf20d6d8	-0.62827826
121	0xbef81e66	-0.48460692
122	0xbf37fe32	-0.71872246
123	0xbf14f1ea	-0.5818163
124	0xbf3e57e1	-0.7435284
125	0xbf10437e	-0.56352985
126	0xbf19fafa	-0.60148585
127	0xbee4324f	-0.44569632
128	0xbf0f45ad	-0.5596569
129	0xbf370754	-0.71495557
130	0xbedf3854	-0.43597662
131	0xbf193f01	-0.5986176
132	0xbf051384	-0.51982903
133	0xbf4a4f79	-0.79027516
134	0xbe93b455	-0.2884852
135	0xbf330d0d	-0.6994179
136	0xbf0bee53	-0.5466053
137	0xbef93857	-0.48675796
138	0xbead7551	-0.33878568
139	0xbe9bace6	-0.3040535
140	0xbf11ad6b	-0.5690524
141	0xbef75aa4	-0.4831134
142	0xbeeb2dcb	-0.45933375
143	0xbf0c2ada	-0.54752886
144	0xbf0c7208	-0.548615
145	0xbf48ebd7	-0.78484863
146	0xbf209584	-0.6272814
147	0xbf297618	-0.6619582
148	0xbf2dd39c	-0.67901015
149	0xbef85a0a	-0.48506194
150	0xbf34c7c8	-0.7061734
151	0xbf008383	-0.5020067
152	0xbf272c39	-0.65301853
153	0xbf37c687	-0.71787304
154	0xbf3a3d9f	-0.72750276
155	0xbeef8898	-0.467839
156	0xbf22103f	-0.6330604
157	0xbf16fd00	-0.589798
158	0xbf03c246	-0.5146831
159	0xbf1b01e5	-0.60549766
160	0xbef2a62b	-0.473924
161	0xbf1cfa80	-0.6131973
162	0xbea09672	-0.3136478
163	0xbf25dec9	-0.6479307
164	0xbf0db9e7	-0.5536179
165	0xbf1b1df9	-0.6059261
166	0xbe8f7e3b	-0.28025994
167	0xbf1bb5dd	-0.60824376
168	0xbf1e44b5	-0.6182359
169	0xbed51fb2	-0.41625744
170	0xbeb330d7	-0.349982
171	0xbf397856	-0.72449243
172	0xbf1a0397	-0.6016173
173	0xbe98a019	-0.29809645
174	0xbf05a56a	-0.52205527
175	0xbf123a44	-0.57120156
176	0xbf1a89f3	-0.60366744
177	0xbf2c7a51	-0.6737414
178	0xbf0ab56e	-0.5418309
179	0xbf2dc69d	-0.67881185
180	0xbf0d1aae	-0.55118835
181	0xbebdecf7	-0.37094852
182	0xbf1603f4	-0.5859978
183	0xbed586f0	-0.41704512
184	0xbf2d29be	-0.6764182
185	0xbed6db3c	-0.41964138
186	0xbeebb276	-0.46034592
187	0xbf27ae93	-0.65500754
188	0xbf148812	-0.58020127
189	0xbf22c633	-0.6358368
190	0xbf1d66f9	-0.6148525
191	0xbf0355f7	-0.51303047
192	0xbee17147	-0.44031736
193	0xbf394de9	-0.72384506
194	0xbf19a5d9	-0.6001869
195	0xbf0339a8	-0.5125985
196	0xbea2819d	-0.31739512
197	0xbf0d2a11	-0.55142313
198	0xbf15668d	-0.58359605
199	0xbf345035	-0.70434886
200	0xbf3dbd2d	-0.74116784
201	0xbf101f25	-0.5629752
202	0xbf0b9467	-0.5452332
203	0xbf0060e4	-0.50147843
204	0xbf0c8cad	-0.54902154
205	0xbf155630	-0.58334637
206	0xbf130909	-0.5743566
207	0xbf2464f6	-0.64216554
208	0xbed3d505	-0.41373459
209	0xbf037c67	-0.513617
210	0xbf2c2db5	-0.67257243
211	0xbf40766d	-0.75180703
212	0xbef014ad	-0.46890774
213	0xbf4daf60	-0.80345726
214	0xbf0424ed	-0.51618844
215	0xbf1d8c6d	-0.615424
216	0xbee73f6f	-0.45165583
217	0xbf0c703b	-0.5485875
218	0xbf05b527	-0.5222954
219	0xbf14ce24	-0.58127046
220	0xbf1b4f08	-0.6066747
221	0xbf1a6131	-0.6030455
222	0xbeaceefe	-0.33776087
223	0xbf26097f	-0.6485824
224	0xbf06412a	-0.5244318
225	0xbf11f2a9	-0.57010895
226	0xbf20f909	-0.6288
227	0xbee8c07e	-0.4545936
228	0xbf1b5ffc	-0.60693336
229	0xbf034046	-0.5126995
230	0xbefa4db5	-0.4888741
231	0xbf2f0085	-0.6836017
232	0xbf24280a	-0.64123595
233	0xbea55b09	-0.32296017
234	0xbf13cddf	-0.5773601
235	0xbf2f7ba4	-0.68548036
236	0xbf34cabe	-0.7062186
237	0xbed2b5c4	-0.411543
238	0xbf3e286c	-0.7428043
239	0xbefc197a	-0.49238187
240	0xbee53825	-0.44769397
241	0xbebde628	-0.37089658
242	0xbf1aad6f	-0.6042089
243	0xbf031fe6	-0.5122055
244	0xbf183b7a	-0.59465754
245	0xbf254294	-0.64554715
246	0xbf1b6665	-0.60703117
247	0xbec8391e	-0.39106077
248	0xbf13b274	-0.5769417
249	0xbf124eb5	-0.5715135
250	0xbf1656b6	-0.5872606
251	0xbf0ca937	-0.549457
252	0xbf07ddc5	-0.5307277
253	0xbf25a38e	-0.6470269
254	0xbf041e4e	-0.5160874
255	0xbf1344e1	-0.57526976

fc2.weight f4 [128, 256]
0	0xbcec12a0	-0.028817475
1	0xbd63e363	-0.055636775
2	0xbdd22d3a	-0.102625325
3	0xbcd95f75	-0.026534775
4	0xbe0c470d	-0.13698979
5	0x3e727502	0.23677447
6	0xbd8bf9a7	-0.06834727
7	0xbe2dec13	-0.16984586
8	0xbcf411dd	-0.029793674
9	0xbda4f470	-0.08054435
10	0x3e8af0cc	0.27136838
11	0xbcd966df	-0.02653831
12	0xbb56b327	-0.0032760592
13	0x3cddf3de	0.027093824
14	0xbe28c43a	-0.16481104
15	0x3d12e66b	0.035864275
16	0x3b574afc	0.003285109
17	0x3cc6f8de	0.024288591
18	0xbcf75dfd	-0.030196184
19	0xbde04626	-0.1095088
20	0xbe3285f1	-0.17433907
21	0x3d173f5b	0.036925655
22	0xbe42e390	-0.1903212
23	0xbdb963ef	-0.09052264
24	0xbe7d2fdf	-0.24725293
25	0x3dcce0b7	0.100037985
26	0x3df50058	0.11962956
27	0xbde58224	-0.11206463
28	0xbd1f3004	-0.03886415
29	0xbe3e1155	-0.18561299
30	0xbdfd5304	-0.123693496
31	0x3d0435dc	0.032277927
32	0xbd1b8e7b	-0.037977677
33	0xbe656c81	-0.22404672
34	0xbbf2f687	-0.0074146423
35	0xbd6dba11	-0.058038775
36	0x3e0b1ca5	0.13585146
37	0xbe562b7f	-0.2091503
38	0xbd8ea963	-0.06965902
39	0xbd3fbbb0	-0.046809852
40	0x3dd97550	0.10618079
41	0xbd6fe45b	-0.058567386
42	0xbd749dee	-0.059720926
43	0xbdaf859a	-0.08570404
44	0xbcc775ee	-0.024348225
45	0x3c8b8927	0.017033173
46	0xbe08effa	-0.13372794
47	0xbda0e21d	-0.07855628
48	0xbd3d392b	-0.046197098
49	0xbc007831	-0.007841156
50	0xbde8f70f	-0.11375248
51	0xbd04cec2	-0.032423742
52	0xbd3a28e9	-0.04544917
53	0xbd126f2a	-0.035750546
54	0xbc95dc68	-0.018293574
55	0xbd9570f5	-0.072969355
56	0x3d9cb045	0.07650808
57	0xbd9b94c3	-0.075967334
58	0x3cddf22a	0.027093012
59	0x3d2af200	0.041734695
60	0xbd262ca4	-0.040569916
61	0x3d2799b1	0.040918056
62	0xbe301941	-0.17197134
63	0x3ddc8f4b	0.107695185
64	0xbdcd57d0	-0.100265145
65	0xbe029f4c	-0.1275608
66	0x3a9753ce	0.0011545361
67	0xbd016400	-0.031589508
68	0xbe36fd7c	-0.17870134
69	0x3cd8448e	0.026399877
70	0xbdc00f64	-0.093779355
71	0xbcba7d1f	-0.02276474
72	0xbb412b59	-0.00294753
73	0xbc993f57	-0.01870696
74	0xbe28a0e5	-0.16467626
75	0x3ca727df	0.020404754
76	0xbe33fc3a	-0.17576686
77	0xbe046c0a	-0.12931839
78	0xbd98d7d1	-0.07463039
79	0xbda14ef3	-0.078763865
80	0xbe67f0a2	-0.22650388
81	0xbadda28f	-0.0016909408
82	0xbe6b1012	-0.22955349
83	0x3ac44142	0.0014973062
84	0x3d0b0820	0.033943295
85	0x3e03fce5	0.1288944
86	0x3d023dd9	0.031797264
87	0xbdbc23d8	-0.09186524
88	0xbd5da06c	-0.05410807
89	0xbd270d3b	-0.040784102
90	0xbdd8b8f9	-0.10582156
91	0xbe4f94e0	-0.20271635
92	0xbbad292e	-0.00528445
93	0xbcd30b80	-0.02576232
94	0x3d10ee78	0.03538367
95	0xbe4422ed	-0.19153948
96	0xbe032c2d	-0.1280982
97	0x3d168da5	0.036756177
98	0x3c594318	0.013260625
99	0xbe983d4a	-0.2973426
100	0x3daf8933	0.085710905
101	0xbe0a3ed6	-0.13500533
102	0x3e846fe8	0.25866628
103	0xbdfe3e72	-0.12414254
104	0xbbc35758	-0.00596134
105	0xbe0a89af	-0.13529085
106	0xbd23027c	-0.03979729
107	0xbc82d4ad	-0.015970552
108	0xbe0944ca	-0.13405147
109	0xbb4b99dd	-0.0031067051
110	0xbdc704c9	-0.097177096
111	0xbd215bdc	-0.039394245
112	0x3d87a0c0	0.066224575
113	0xbcd7b9d0	-0.02633372
114	0xbd55760a	-0.052114524
115	0xbdd448b5	-0.1036543
116	0x3e164139	0.14673318
117	0x3dc59566	0.09647636
118	0xbd031882	-0.032005794
119	0x3ca2a5fb	0.019854536
120	0x3e11acf1	0.14226128
121	0xbcbf8f69	-0.023383813
122	0x3d07fe4b	0.033201497
123	0xbdc38d26	-0.09548406
124	0x3d7babd0	0.06144315
125	0xbc99db2a	-0.018781263
126	0x3e432e03	0.19060521
127	0xbd1447be	-0.03620123
128	0xbd74b17f	-0.059739586
129	0x3dcce763	0.10005071
130	0x3cb41284	0.021981485
131	0xbe198d54	-0.14995319
132	0xbd039b8b	-0.03213076
133	0xbb2c88fa	-0.0026326762
134	0xbc99904e	-0.018745568
135	0xbe4a76a6	-0.19771823
136	0xbd9c0bd4	-0.076194435
137	0x3dfcaa4c	0.12337169
138	0xbdf1df60	-0.118101835
139	0x3ceb121a	0.028695155
140	0xbe38e0f2	-0.1805456
141	0x3e3674d5	0.17818005
142	0x3d958f84	0.07302764
143	0x3d48198b	0.048852485
144	0xbe05fde7	-0.13085137
145	0x3e16a160	0.14709997
146	0x3dbdde86	0.092709586
147	0x3dd1f8aa	0.10252507
148	0xbc319902	-0.010839703
149	0x3e177c16	0.14793429
150	0x3ceb8b4d	0.028752947
151	0xbd4770ab	-0.048691433
152	0xbe340442	-0.17579749
153	0xbd3a811e	-0.045533292
154	0xbdd674e4	-0.10471514
155	0x3d2f69af	0.042825397
156	0xbdd0b3c8	-0.101905406
157	0x3e0cfef9	0.1376914
158	0x3c0287f9	0.007966989
159	0x3bc5d31b	0.0060371286
160	0xbc0f274f	-0.008737399
161	0xbe4d698a	-0.20059791
162	0xbc0fe6dd	-0.008783069
163	0xbe4f3968	-0.20236742
164	0x3a6a252d	0.0008931931
165	0xbc9515a8	-0.018198803
166	0x3e11d57c	0.14241594
167	0xbe2f9ba9	-0.17149223
168	0x3df56c30	0.11983526
169	0xbd98294c	-0.07429752
170	0x3d5c398a	0.05376581
171	0xbe21dbf8	-0.15806568
172	0xbe2feccd	-0.17180176
173	0xbd71d74b	-0.05904321
174	0xbc87261c	-0.016497664
175	0x3d656aa7	0.056009915
176	0xbe5e9c7a	-0.21739379
177	0x3cbaa582	0.022783998
178	0xbda7ddd8	-0.0819661
179	0xbcd557ee	-0.026042905
180	0x3d4643c0	0.048404455
181	0x3ddc8651	0.10767806
182	0xbe39ff74	-0.18163854
183	0xbd7e3316	-0.062060438
184	0x3dda8d11	0.106714375
185	0xbe11f710	-0.14254403
186	0xbe45dcf4	-0.19322568
187	0xbe82fff4	-0.25585902
188	0xbe4ae65e	-0.1981444
189	0xbddf69bb	-0.10908838
190	0x3daeaf61	0.085295446
191	0xbd91b826	-0.07115202
192	0x3d9342af	0.07190453
193	0xbd0130e2	-0.03154076
194	0x3d91eeed	0.071256496
195	0x3ce4962c	0.027903639
196	0xbda310c8	-0.07962185
197	0xbc6b03d7	-0.014344177
198	0x3d83721d	0.0641825
199	0x3dcdc1a4	0.100467
200	0xbdef40b1	-0.11682261
201	0x3c639231	0.013889835
202	0xbd99b356	-0.07504909
203	0xbd48b8a8	-0.049004227
204	0x3c980e48	0.018561497
205	0xbe2eee44	-0.17083079
206	0x3e0d2fe0	0.13787794
207	0xbdb1bd2c	-0.0867866
208	0xbd9ca51f	-0.07648682
209	0x3cbe1d00	0.023207188
210	0x3ce445ff	0.027865408
211	0x3d1d3338	0.038378924
212	0x3c730967	0.014833785
213	0xbcfd6983	-0.030934101
214	0x3d83dcf5	0.064386286
215	0xbdb43377	-0.08798879
216	0xbe2f585f	-0.17123555
217	0x3de2051f	0.11036133
218	0x3dd763b8	0.10517067
219	0x3d4df8ca	0.050286092
220	0xbde949e4	-0.11391047
221	0xbd8f41b7	-0.06994956
222	0x3def83e4	0.11695078
223	0xbb3a3f1f	-0.002841897
224	0xbdd04df5	-0.10171119
225	0x3d16e4eb	0.036839407
226	0x3c70fd23	0.01470879
227	0x3be929f2	0.007115596
228	0xbd1f2070	-0.038849294
229	0xbb32cd61	-0.002728306
230	0x3dc53060	0.096283674
231	0x3e2199ba	0.15781298
232	0xbdc23e9e	-0.094845995
233	0xbd735e57	-0.05941614
234	0x3bdc50b7	0.006723489
235	0x3ddf4c17	0.10903185
236	0x3cf965d2	0.03044406
237	0x3d9b83f9	0.07593531
238	0x3d489cbf	0.04897761
239	0xbe364a44	-0.17801768
240	0x3d5f5ab0	0.054529846
241	0xbd0b1680	-0.033957005
242	0x3ca4c701	0.020114424
243	0xbc8e5ec1	-0.017379167
244	0x3c4e19c4	0.012579385
245	0xbd74ffe9	-0.059814367
246	0xbd831774	-0.06400958
247	0xbe108cf9	-0.14116277
248	0xbc39882b	-0.011323969
249	0xbc607b2c	-0.013701241
250	0xbc9d6770	-0.019214362
251	0xbd2b2123	-0.04177965
252	0x3dbae98c	0.09126577
253	0xbdc130cf	-0.094331376
254	0x3d9aeecb	0.075650774
255	0x3d295b8c	0.04134707

fc2.bias f4 [128]
0	0xbdae3577	-0.08506291
1	0x3e06b941	0.13156606
2	0xbdb0a4b0	-0.08625162
3	0xbd6f356c	-0.058400556
4	0xbc688e46	-0.014194077
5	0xbe2443f8	-0.16041553
6	0xbd6e04e2	-0.058110125
7	0xbd063ca9	-0.032772694
8	0x3c8b8ae1	0.017033996
9	0xbcae7ab8	-0.021298751
10	0xbcd77206	-0.026299488
11	0x3c73cb99	0.014880084
12	0xbc934ae4	-0.017980047
13	0xbb761a48	-0.0037552286
14	0xbd1c5662	-0.03816832
15	0x3d659fd5	0.05606063
16	0x3c9b1994	0.018933095
17	0x3e14d0bd	0.14532752
18	0xbe9f33d5	-0.31094232
19	0xbc5b52d8	-0.013386451
20	0x3d92d9ca	0.07170446
21	0x3d32a87c	0.04361771
22	0x3b304348	0.0026895572
23	0xbd08540b	-0.033283275
24	0xbc7b11c6	-0.015324062
25	0x39d7e348	0.00041177333
26	0x3dd16e10	0.10226071
27	0xba898e5a	-0.0010494695
28	0xbe1ce752	-0.15322617
29	0x3c77c6f3	0.015123117
30	0xbdc5ec77	-0.09664243
31	0xbd46db8a	-0.048549213
32	0xbe0d8429	-0.13819946
33	0xbd9e10ae	-0.07718025
34	0x3c5b4cf4	0.013385046
35	0x3df2aca8	0.11849338
36	0x3d6765ea	0.056493677
37	0x3c879612	0.016551051
38	0xbddcfe90	-0.107907414
39	0xbde06a40	-0.109577656
40	0x3d3216c3	0.04347874
41	0xbd4eb87e	-0.050468914
42	0xbcfa08ef	-0.030521838
43	0x3cb55009	0.02213289
44	0xbcfcafc1	-0.030845525
45	0xbb1a67ed	-0.002356048
46	0xbe103e5d	-0.1408629
47	0x3b6aa8f5	0.0035806273
48	0xbe43870a	-0.19094482
49	0xbe113497	-0.14180218
50	0x3bc08509	0.005875234
51	0xbd241e12	-0.04006774
52	0xbd2bc91c	-0.04193984
53	0x3d8deb90	0.069296956
54	0x3e1f6ad0	0.1556809
55	0x3d11114d	0.03541689
56	0xbd8d6740	-0.06904459
57	0xbdd44c76	-0.10366146
58	0x3ca7b7c1	0.020473363
59	0xbd9556a0	-0.07291913
60	0xbc28fa60	-0.0103136
61	0x3d815e64	0.06316832
62	0xbd97b5b7	-0.07407706
63	0xbd68f696	-0.056875788
64	0x3bbc8f46	0.005754384
65	0x3e3397d0	0.1753838
66	0x3d7e5023	0.062088143
67	0xbd222455	-0.03958543
68	0x3d484030	0.04888934
69	0x3d9dfac1	0.07713843
70	0xbd7b504a	-0.061355866
71	0xbd98ac64	-0.07454756
72	0x3de3c80b	0.111221395
73	0x3aefd7c9	0.0018298562
74	0xbe024c99	-0.12724532
75	0x3cfba51f	0.030718384
76	0x3de1b2f1	0.110204585
77	0x3e32ce88	0.17461598
78	0x3d6329cd	0.055459786
79	0xbda60c84	-0.08107856
80	0xbdf526cb	-0.1197029
81	0xbd9601ff	-0.073245995
82	0x3a051a6f	0.0005077486
83	0xbb94c9e0	-0.004540667
84	0xbd9e2480	-0.077218056
85	0x3df0eaf6	0.11763565
86	0x3de0f033	0.10983314
87	0xbd271802	-0.04079438
88	0xbda9fe76	-0.08300488
89	0xbce874c1	-0.028375985
90	0xbd88ff26	-0.06689291
91	0xbe375caa	-0.17906442
92	0x3ddbba17	0.10728853
93	0xbd5f434f	-0.05450755
94	0x3da76d61	0.08175159
95	0xbc612384	-0.013741378
96	0x3c734fbf	0.014850556
97	0xbd2a6463	-0.041599642
98	0xbe07d39c	-0.13264316
99	0xbc5e6c5d	-0.0135756405
100	0xbd11af02	-0.03556729
101	0x3d222e4d	0.039594937
102	0xbeb3ac6e	-0.3509249
103	0x3dc06ffa	0.09396358
104	0x3d36814f	0.044556912
105	0xbd821ab2	-0.06352748
106	0xbdf6f892	-0.1205913
107	0x3d14427a	0.03619621
108	0x3dc34001	0.09533692
109	0xbe02af00	-0.1276207
110	0x3ce2da9d	0.027692134
111	0x3e112320	0.14173555
112	0x3e153b13	0.14573316
113	0x3b1e9665	0.002419853
114	0xbdac5128	-0.08413917
115	0xbd289a34	-0.041162685
116	0xbdb04fda	-0.086089805
117	0x3d6dbf55	0.058043797
118	0x3bff04dc	0.0077825617
119	0xbb31e456	-0.0027144155
120	0xbdc55bb0	-0.09636629
121	0xbe04d493	-0.12971716
122	0x3dc0e98e	0.09419547
123	0xbcd8e6bc	-0.02647721
124	0xbe224c36	-0.15849385
125	0xbc617f2c	-0.01376323
126	0xbce58496	-0.028017323
127	0x3d17e51d	0.037083734

fc3.weight f4 [64, 128]
0	0xbdeda48a	-0.11603649
1	0xbdf3a018	-0.1189577
2	0xbd161e7f	-0.036650177
3	0x3cb56392	0.022142205
4	0xbdd2b9ff	-0.10289382
5	0x3d8d4a76	0.06898968
6	0x3e28ecb9	0.16496553
7	0xbc8e3fe7	-0.017364455
8	0x3e0ff63b	0.14058773
9	0xbe12e1c4	-0.14343935
10	0x3bbe430c	0.0058063325
11	0x3d484a6f	0.04889911
12	0xbd54ce3c	-0.051954493
13	0xbe39822c	-0.18116063
14	0x3dc58677	0.09644788
15	0xbda2161a	-0.07914372
16	0x3dbcfa1c	0.09227392
17	0x3dceb6f6	0.10093491
18	0x3deebec2	0.11657478
19	0x3e5bb123	0.21454291
20	0x3e03fb4c	0.12888831
21	0xbeaab270	-0.33339262
22	0x3c1b89bc	0.009493288
23	0xbdf76f5d	-0.12081788
24	0xbd79c4f0	-0.06097883
25	0xbdb4c848	-0.08827263
26	0xbd968219	-0.07349033
27	0xbd1f8f28	-0.038954884
28	0xbe888ae6	-0.2666847
29	0x3e4e49ed	0.20145388
30	0xbdcad4f6	-0.099039
31	0x3cbfb14f	0.023399977
32	0xbcf05afa	-0.029340256
33	0x3d5f268b	0.054480117
34	0x3d770890	0.0603109
35	0x3ced9d62	0.02900571
36	0xbd6f51b1	-0.058427516
37	0x3e410ff0	0.18853736
38	0x3e1f2755	0.15542348
39	0xbde0c9ce	-0.10975991
40	0x3e04ead3	0.12980203
41	0x3e0ef7ec	0.13961762
42	0x3e45b972	0.19309023
43	0xbe0bcd3c	-0.1365251
44	0x3e40ea46	0.18839368
45	0x3aabc050	0.0013103578
46	0xbc86d40d	-0.016458536
47	0xbcc63c24	-0.0241986
48	0xbd94ff4b	-0.07275256
49	0x3c8a9c72	0.016920302
50	0xbe0b43ea	-0.13600126
51	0x3e393c7f	0.18089484
52	0xbd5d5686	-0.054037593
53	0xbdd21313	-0.10257544
54	0x3e42472d	0.18972464
55	0xbe307c20	-0.1723485
56	0x3d80172b	0.06254419
57	0xbe363dfa	-0.1779708
58	0x3da2e151	0.07953132
59	0x3d823d1c	0.06359312
60	0xbd8e1c47	-0.06938987
61	0x3e58bb26	0.21165141
62	0x3d3c6d81	0.04600287
63	0xbd923e7e	-0.07140826
64	0x3d1fe659	0.039038036
65	0xbba76203	-0.0051081195
66	0xbe0c7ae6	-0.13718757
67	0xbbc4910b	-0.005998736
68	0x3e16047f	0.14650153
69	0xbd431b3f	-0.047633406
70	0xbe9d63fe	-0.3074035
71	0x3d989f3e	0.07452248
72	0x3e61bf92	0.22045735
73	0x3e166aa1	0.14689113
74	0xbe1185cd	-0.14211197
75	0x3e53bdba	0.20677844
76	0xbd4a0327	-0.049319413
77	0x3ebf534d	0.3736824
78	0xbd0d3c5d	-0.034481395
79	0xbe09836f	-0.13429044
80	0xbdeb2cc5	-0.114831485
81	0xbcea797e	-0.028622385
82	0xbe2a75bf	-0.16646479
83	0xbd90acf3	-0.070642374
84	0xbdde2bee	-0.10848223
85	0x3e6ab2cf	0.22919773
86	0x3e548747	0.20754729
87	0x3d5e0cdc	0.054211482
88	0x3e34e8d9	0.1766695
89	0xbe772686	-0.2413579
90	0x3e3f53d3	0.1868432
91	0xbcad8e3a	-0.021185983
92	0x3d2e27e7	0.042518523
93	0xbdca6c45	-0.09883932
94	0x3d2ef5ba	0.04271481
95	0x3eaaff4c	0.333979
96	0xbe38dfe3	-0.18054156
97	0x3b91c12f	0.004448078
98	0xbd8cb92c	-0.06871256
99	0xbe94d709	-0.2907031
100	0xbdd12ba6	-0.102134034
101	0x3df8f4d2	0.12156071
102	0xbddba2fe	-0.10724448
103	0x3c0003d3	0.007813412
104	0xbe7897ce	-0.24276659
105	0xbd82c955	-0.06386057
106	0xbe3db52f	-0.18526147
107	0xbe3af2f3	-0.1825674
108	0x3eab29b1	0.33430246
109	0xbe2ee1e8	-0.17078364
110	0xbdb01334	-0.08597413
111	0x3dd1b786	0.102400824
112	0x3eca46ff	0.3950729
113	0x3dd153b9	0.10221047
114	0x3c8e14a1	0.017343821
115	0xbdfb2a3a	-0.122639135
116	0xbd995fdf	-0.07488989
117	0x3d088f27	0.033339646
118	0x3e605249	0.2190639
119	0xbdcef2d9	-0.10104913
120	0xbd2c7e6a	-0.042112745
121	0xbd829da6	-0.06377725
122	0xbd7f5d96	-0.06234511
123	0xbd345b89	-0.044032607
124	0xbdec6331	-0.11542357
125	0xbd9ec21e	-0.07751869
126	0xbc1a1b65	-0.009405945
127	0x3dc83b7c	0.09776971
128	0x3dca3429	0.0987323
129	0xbdfdaca1	-0.12386442
130	0xbdd51d2a	-0.10405953
131	0xbd201ac7	-0.039088037
132	0x3d9a228d	0.07526121
133	0xbdd09771	-0.10185135
134	0x3dd45209	0.103672095
135	0x3e25c822	0.16189626
136	0x3e2a96ad	0.16659041
137	0xbd9f6df5	-0.077846445
138	0x3cbeae27	0.023276402
139	0x3ccbca5c	0.024876766
140	0x3ddeadc0	0.10872984
141	0xbd68654b	-0.056737226
142	0x3ddd3430	0.108009696
143	0xbde1351f	-0.1099646
144	0x3dec3b68	0.11534768
145	0x3e7669da	0.24063817
146	0xbe97846a	-0.2959321
147	0x3cbd883d	0.023136253
148	0x3d6d5e6b	0.057951372
149	0x3e069e7c	0.13146394
150	0xbc1f92a0	-0.009739548
151	0xbdd38a52	-0.10329117
152	0xbd4d9d11	-0.05019862
153	0xbe0113d7	-0.12605225
154	0xbdf54870	-0.11976707
155	0xbdc6e261	-0.09711147
156	0x3d28ae43	0.041181814
157	0xbdba3571	-0.090922244
158	0x3cc4b746	0.024013173
159	0xbe03ce4f	-0.12871669
160	0xbe11d18e	-0.14240095
161	0x3d839759	0.06425352
162	0x3dba30c6	0.09091334
163	0x3db23956	0.08702342
164	0x3e1c731b	0.15278284
165	0x3eb59ece	0.3547272
166	0xbe33aa35	-0.17545398
167	0xbd4c30f9	-0.04985139
168	0x3e3ca51d	0.1842236
169	0x3c380021	0.0112304995
170	0x3e2250ec	0.15851182
171	0x3dde0ae1	0.10841919
172	0x3e5e8fd6	0.21734557
173	0xbe1cd106	-0.15314111
174	0xbebdfb8e	-0.37105983
175	0x3e07ed13	0.1327403
176	0x3cf50bac	0.029912792
177	0xbd95d7a0	-0.07316518
178	0x3d21e751	0.03952724
179	0x3ddbb355	0.10727564
180	0xbda4d05d	-0.08047555
181	0xbded40b1	-0.115846045
182	0xbda76a53	-0.081745766
183	0xbde2c524	-0.11072758
184	0x3e347f30	0.17626643
185	0xbe051b5a	-0.12998715
186	0x3ba5aa1a	0.005055678
187	0xbd2a1d3b	-0.041531783
188	0xbdf3a370	-0.118964076
189	0xbe12e7ee	-0.14346287
190	0xbd189934	-0.03725548
191	0xbd52e0b6	-0.051483832
192	0x3da4e4a6	0.08051424
193	0x3d4a305f	0.049362537
194	0xbe3256fb	-0.17415993
195	0xbe1448ff	-0.14480971
196	0x3e720b5c	0.23637146
197	0xbe0ccc9a	-0.13749924
198	0x3d71b5a1	0.059011105
199	0x3e3cc70e	0.18435308
200	0x3ebc9282	0.36830527
201	0x3dc0e3ef	0.09418475
202	0xbce67de4	-0.028136201
203	0x3e42b987	0.19016086
204	0x3ccfd503	0.025370127
205	0x3e3bc7f6	0.18337998
206	0xbd8944b5	-0.06702558
207	0xbdbec987	-0.09315782
208	0xbc297ae6	-0.010344243
209	0xbccfc29a	-0.025361348
210	0xbe5c8514	-0.2153514
211	0xbd8a731b	-0.06760236
212	0x3dbf74b5	0.09348432
213	0x3ea4668e	0.32109493
214	0x3e5da8a7	0.21646367
215	0x3cb6b8a4	0.02230484
216	0xbd7d1618	-0.06178865
217	0xbe05130f	-0.12995552
218	0x3c20638a	0.009789357
219	0xbdc03645	-0.09385351
220	0x3e8b8ffc	0.2725829
221	0x3e51a936	0.20474705
222	0x3da9f57e	0.08298777
223	0x3e2313f9	0.15925588
224	0xbe3c8106	-0.18408594
225	0xbd90012d	-0.07031474
226	0x3c56c3dc	0.01310822
227	0xbe63fe1a	-0.22264901
228	0xbd45cc7c	-0.048290715
229	0xbe2a0d72	-0.16606691
230	0xbda215d4	-0.0791432
231	0x3e98b21b	0.29823384
232	0xbe18f245	-0.14936168
233	0x3d1bca86	0.03803494
234	0x3d650991	0.055917326
235	0xbe85f373	-0.261623
236	0x3ebb960c	0.36637914
237	0x3e0b5369	0.13606037
238	0x3e4a68ae	0.19766495
239	0xbcb18fe9	-0.021675067
240	0xbd8ca319	-0.06867046
241	0x3e5454f9	0.2073554
242	0xbd92353a	-0.071390584
243	0x3d2ef67b	0.04271553
244	0xbdf0b5b8	-0.1175341
245	0x3dbace4e	0.09121381
246	0x3d07e903	0.0331812
247	0xbde0d5ca	-0.10978277
248	0x3d1873e7	0.037219908
249	0x3d81086f	0.06300437
250	0xbd291194	-0.04127653
251	0xbcdb764d	-0.026789809
252	0xbd40954f	-0.04701739
253	0xbe9e74e9	-0.3094857
254	0x3d416bdc	0.047222003
255	0x3d53bd12	0.051693983

fc3.bias f4 [64]
0	0xbe42f457	-0.19038521
1	0x3bb13801	0.0054082875
2	0x3d4e263b	0.05032943
3	0xbe873098	-0.26404262
4	0xbeb7e1ac	-0.3591436
5	0xbe7a3d6e	-0.24437496
6	0xbdb0d2a0	-0.086339235
7	0x3e7f1f88	0.24914372
8	0xbe19754a	-0.14986148
9	0x3f08c3c3	0.5342371
10	0xbe7a182f	-0.24423288
11	0xbab8bd8e	-0.0014094578
12	0x3eda6bc7	0.42660353
13	0xbe7384ca	-0.23781124
14	0xbcd24897	-0.02566938
15	0x3e6530ad	0.2238185
16	0x3edf486d	0.43609944
17	0xbcffb698	-0.031214997
18	0x3d6f26f0	0.058386743
19	0xbc69bec3	-0.014266673
20	0xbe1a5781	-0.15072443
21	0x3eaeadc5	0.3411695
22	0x3ebe5a4d	0.3717827
23	0x3e98d3a7	0.29848978
24	0xbdd4c8c4	-0.103898555
25	0xbe47f041	-0.19525243
26	0xbe8ce9a0	-0.27521992
27	0x3deed750	0.11662161
28	0x3ed03f33	0.40673217
29	0x3f12f25c	0.5740106
30	0xbe286579	-0.16444959
31	0xbe3029ad	-0.17203398
32	0x3dfb96ae	0.12284599
33	0xbe252546	-0.161275
34	0x3e930dff	0.28721616
35	0x3eed1cdf	0.4631109
36	0xbe947417	-0.2899482
37	0x3eb7c3a2	0.35891443
38	0xbeb915ef	-0.36149547
39	0xbea2b3b0	-0.31777716
40	0xbd3b014f	-0.045655545
41	0xbda04a56	-0.078266785
42	0x3ede8816	0.434632
43	0x3e8d2d88	0.275738
44	0xbe6ccbba	-0.2312459
45	0xbe28c938	-0.16483009
46	0x3b656a3f	0.0035005955
47	0xbe83dbe1	-0.25753692
48	0xbe3ac51c	-0.18239254
49	0x3e059191	0.1304381
50	0x3ca97904	0.020687588
51	0xbe39300f	-0.18084739
52	0x3e75d25a	0.24006024
53	0xbc0c1804	-0.008550648
54	0xbd9d7b2d	-0.076895095
55	0xbe8b9004	-0.27258313
56	0xbe42dc68	-0.19029391
57	0xbdf736f6	-0.1207103
58	0xbe856101	-0.2605057
59	0x3cbb15f1	0.02283761
60	0xbca7bf9d	-0.02047711
61	0x3ed2a98b	0.41144976
62	0xbde6904f	-0.112579934
63	0xbe848463	-0.25882253

fc4.weight f4 [32, 64]
0	0xbde2c602	-0.11072923
1	0xbd18e80f	-0.037330683
2	0x3cd8b278	0.026452288
3	0x3da15a9a	0.07878609
4	0xbe2b477f	-0.16726492
5	0xbe04abce	-0.12956163
6	0xbd3b639f	-0.045749303
7	0x3d7a0931	0.06104392
8	0xbd048129	-0.03234974
9	0xbcd7d87e	-0.026348349
10	0x3cd9c3dc	0.02658265
11	0x3ddb50d7	0.10708778
12	0x3dc7458e	0.097300634
13	0x3e246eef	0.16057943
14	0xbdb1fdb7	-0.086909704
15	0xbd32173c	-0.04347919
16	0xbd9a5708	-0.07536131
17	0x3ea54c7d	0.32284918
18	0xbccbe92b	-0.024891457
19	0x3e09a61a	0.13442269
20	0xbe42cb33	-0.19022827
21	0x3cfcf55d	0.030878717
22	0xbdcee856	-0.10102908
23	0xbdea750c	-0.11448106
24	0x3d4727cf	0.04862195
25	0xbe3bf0ff	-0.18353651
26	0xbdc396f2	-0.09550275
27	0xbc503bf6	-0.012709608
28	0xbe07901e	-0.1323857
29	0xbe0e34ed	-0.13887377
30	0xbcb289bc	-0.021794192
31	0x3e76e070	0.24109054
32	0xbde34bf0	-0.11098468
33	0xbd933ef5	-0.071897425
34	0xbe94d350	-0.2906747
35	0xbd3da85f	-0.04630315
36	0xbe00644d	-0.12538262
37	0xbea15d86	-0.31516665
38	0xbe1edb12	-0.15513256
39	0xbe850575	-0.25980726
40	0x3ce9d77b	0.028545132
41	0x3e3181e4	0.17334706
42	0xbd66afa4	-0.056319848
43	0x3a91fd50	0.0011138115
44	0xbd64947f	-0.05580568
45	0xbe3309be	-0.17484185
46	0xbe3cc030	-0.18432689
47	0xbe1daa77	-0.15397058
48	0xbd0fe10c	-0.03512673
49	0x3e144ec2	0.14483169
50	0x3d5bba0d	0.05364423
51	0x3daee8dc	0.08540508
52	0xbda5bc1e	-0.08092521
53	0x3d807942	0.06273128
54	0x3dfbe8cd	0.123002626
55	0xbb2e46c9	-0.0026592484
56	0xbe1ef9f1	-0.15525033
57	0x3e3e178e	0.18563673
58	0x3d31d1f4	0.043413118
59	0x3e3328fd	0.17496105
60	0xbad60668	-0.0016328814
61	0xbc89b778	-0.016811118
62	0xbe313a72	-0.17307451
63	0xbdbd0d05	-0.09230999
64	0xbdf5f887	-0.120102935
65	0xbcd5d181	-0.026100876
66	0x3d417018	0.04722604
67	0xbdc3e5cc	-0.09565315
68	0xbeacb70e	-0.3373341
69	0xbe7fe61d	-0.24990125
70	0x3e694be9	0.22782864
71	0xbdb45ef9	-0.08807177
72	0xbcd7b43a	-0.026331056
73	0x3e35f278	0.17768276
74	0xbe428d54	-0.18999225
75	0xbdc647f1	-0.096816905
76	0x3dc663aa	0.09686978
77	0xbdd33680	-0.103131294
78	0xbd07de11	-0.033170763
79	0x3da329d7	0.07966965
80	0x3e2e4a4d	0.17020531
81	0xbd18037d	-0.0371127
82	0x3dbd4dec	0.09243378
83	0xbd89b443	-0.06723835
84	0xbda79a04	-0.08183673
85	0xbd20c1b1	-0.03924722
86	0x3dcfbfd1	0.10144008
87	0xbd84e292	-0.06488527
88	0xbda9f7e4	-0.082992345
89	0xbd73c433	-0.059513282
90	0x3c1282d9	0.008942329
91	0x3e7b3ce0	0.2453494
92	0x3dfff122	0.12497164
93	0x3dfe35b8	0.1241259
94	0xbcaaee7f	-0.020865677
95	0xbde06069	-0.10955889
96	0x3d098892	0.03357751
97	0x3d1edfd7	0.03878769
98	0x3ddf8514	0.109140545
99	0xbb8f4316	-0.004372011
100	0xbcf6e59b	-0.030138781
101	0x3e7cdad0	0.24692845
102	0x3dcb9adf	0.09941649
103	0xbe3296d6	-0.17440352
104	0x3ddda7b9	0.10823006
105	0xbe22537a	-0.15852156
106	0x3e1d24ce	0.15346071
107	0xbc8cea0c	-0.017201446
108	0xbcd97dd0	-0.02654925
109	0xbe2d7234	-0.16938096
110	0xbde10d85	-0.10988907
111	0x3cd18e61	0.025580587
112	0x3e2c12d9	0.16804065
113	0x3caa151e	0.020762023
114	0xbd079d9a	-0.033109285
115	0x3c98abc1	0.018636586
116	0xbd02428f	-0.031801756
117	0x3e5e6c55	0.21721013
118	0xbdfd9470	-0.12381828
119	0xbdcda7a8	-0.100417435
120	0xbe2e2d83	-0.17009549
121	0xbd89952e	-0.06717907
122	0xbdee9174	-0.11648837
123	0xbdb702c5	-0.08936075
124	0xbd1cf2c7	-0.038317468
125	0x3e2861b5	0.16443522
126	0xbdd77103	-0.10519602
127	0xbe53fd7f	-0.2070217
128	0x3d605b06	0.054774307
129	0x3e1ef67b	0.15523712
130	0x3c6155ee	0.013753397
131	0x3e4039af	0.18772005
132	0xbd07eb3b	-0.033183318
133	0x3e35cf53	0.17754869
134	0x3cbd67f8	0.023120865
135	0xbb8358a7	-0.004008371
136	0x3dab749c	0.08371851
137	0x3d24b202	0.040208824
138	0x3c1db4bf	0.009625613
139	0x3c7e413a	0.015518481
140	0xbe3892d0	-0.18024755
141	0x3e50c1ad	0.20386381
142	0x3e18c55a	0.14919034
143	0xbe91045e	-0.28323644
144	0x3c88b056	0.016685646
145	0x3e566b80	0.20939445
146	0x3d9b3771	0.07578934
147	0x3d8d5bc4	0.069022685
148	0x3d2e0093	0.042481016
149	0xbd77314b	-0.060349744
150	0xbe2008cb	-0.15628354
151	0xbd32674d	-0.043555547
152	0x3e17e6bb	0.1483411
153	0x3e30aab4	0.17252618
154	0x3e224834	0.15847856
155	0xbc86e838	-0.016468152
156	0xbe067da1	-0.13133861
157	0xbdb9325a	-0.09042807
158	0xbd9327cb	-0.07185324
159	0x3e5fade7	0.21843682
160	0xbd8ef872	-0.06980981
161	0x3dd08a5b	0.10182639
162	0xbc919c0a	-0.0177746
163	0xbe137cc9	-0.1440307
164	0x3c35934e	0.011082483
165	0xbe5e395a	-0.21701565
166	0x3c4bf4fd	0.0124485465
167	0x3e2df5b5	0.16988261
168	0x3d79ca29	0.06098381
169	0x3e38a6a9	0.18032326
170	0xbe69611e	-0.22790954
171	0xbddaca0f	-0.10683071
172	0xbc6e0b11	-0.014529006
173	0x3e3da7ae	0.18520996
174	0x3d865e08	0.06560904
175	0x3daeb533	0.08530655
176	0x3d4b885c	0.04969059
177	0x3d732caa	0.059368767
178	0x3e26f95a	0.16306058
179	0xbd579cbb	-0.052639704
180	0xbe049574	-0.12947637
181	0x3d8b7dad	0.0681108
182	0x3dd9020b	0.10596093
183	0x3d6a5759	0.057212207
184	0x3e20ee8e	0.15716001
185	0x3b8ab18e	0.004232592
186	0x3df7e400	0.121040344
187	0x3e4b94ce	0.19880983
188	0xbd51fdcc	-0.05126743
189	0xbe92dfe1	-0.2868643
190	0x3d8b19cf	0.06792032
191	0x3d85fe8e	0.06542693
192	0x3d43d9be	0.047815077
193	0x3d0bff16	0.034178816
194	0xbc69e333	-0.01427536
195	0x3cc13bbc	0.023588054
196	0x3e0899f8	0.13339984
197	0x3de15f18	0.11004466
198	0xbc95bf6b	-0.018279752
199	0xbe01142b	-0.1260535
200	0xbd94b732	-0.07261504
201	0xbeb876ea	-0.36028224
202	0x3e187cbe	0.14891335
203	0x3c84ef30	0.016227335
204	0xbcc51501	-0.024057867
205	0x3c824799	0.015903281
206	0x3de698a3	0.11259582
207	0xbe5fdf15	-0.21862443
208	0xbdf2474e	-0.118300065
209	0xbb6d229a	-0.0036183954
210	0x3de087b8	0.10963386
211	0x3e2e1061	0.16998436
212	0x3bbcfcc4	0.0057674367
213	0xbd5deaeb	-0.054179113
214	0xbe3d93e9	-0.18513454
215	0xbe841ef8	-0.25804877
216	0x3da61f8a	0.08111484
217	0x3d214699	0.039373968
218	0x3e0973dd	0.13423105
219	0xbdef41a7	-0.11682444
220	0xbe2b8c7e	-0.16752812
221	0xbdf4b24b	-0.11948069
222	0x3de641a9	0.112429924
223	0xbd5442e9	-0.051821623
224	0xbe0eda5b	-0.13950484
225	0x3c8aa2b9	0.016923295
226	0xbe3bea54	-0.18351108
227	0xbd9ca8bc	-0.07649371
228	0x3e1135d0	0.14180684
229	0xbe163e44	-0.1467219
230	0x3e09de61	0.13463737
231	0x3e48b534	0.19600374
232	0x3ccda92e	0.025105085
233	0xbe1433b7	-0.14472853
234	0xbe83b449	-0.25723484
235	0xbdc6122c	-0.09671435
236	0x3da98bcb	0.082786165
237	0x3e4b2abf	0.19840525
238	0x3e442870	0.1915605
239	0xbb175f62	-0.0023097624
240	0xbe829cf2	-0.25510365
241	0x3c15ffd0	0.009155229
242	0xbe563102	-0.20917132
243	0x3c91be44	0.017790921
244	0xbea1376b	-0.31487593
245	0x3d53b431	0.051685516
246	0xbdd5aaa3	-0.10432937
247	0x3c897a36	0.016781908
248	0x3db5cb89	0.08876712
249	0xbdc83cb9	-0.09777207
250	0xbd2d24fc	-0.0422716
251	0x3d74dd16	0.059781156
252	0xbd07252c	-0.032994434
253	0xbdd12c76	-0.102135584
254	0xbd7b8b23	-0.061411988
255	0x3e5884cf	0.21144412

fc4.bias f4 [32]
0	0xbe3bca21	-0.18338825
1	0x3e68a92b	0.22720782
2	0x3c947ce0	0.018125951
3	0x3d7d2402	0.061801918
4	0x3e5a0b85	0.21293457
5	0x3d2ac2d1	0.041689698
6	0xbd914aa7	-0.07094317
7	0xba6961ed	-0.00089028367
8	0x3f0b85ba	0.54500926
9	0x3f28750c	0.658036
10	0xbe69743f	-0.2279825
11	0x3e13046f	0.1435716
12	0x3e633706	0.22188959
13	0xbdcbcac4	-0.09950784
14	0xbe31316a	-0.17304006
15	0x3f279131	0.6545592
16	0x3f2ee75b	0.6832177
17	0xbc834f52	-0.016029034
18	0x3e68a8af	0.22720598
19	0x3e33200a	0.1749269
20	0x3d3b8686	0.04578259
21	0x3e1fb445	0.15596111
22	0x3f2b798f	0.6698236
23	0x3f283e42	0.6572
24	0x3eefd8cb	0.46845087
25	0xbd61b608	-0.05510524
26	0x3f04debb	0.5190236
27	0xbe6f0735	-0.23342593
28	0x3caacf8f	0.020850925
29	0x3c97257b	0.01845049
30	0x3f2c9da2	0.6742803
31	0xbbc3e1f1	-0.005977862

fc5.weight f4 [1, 32]
0	0xbd60cacf	-0.054880913
1	0x3dd02941	0.101641186
2	0xbd89c80e	-0.067276105
3	0xbdba2ef6	-0.09090988
4	0xbdbe179d	-0.092818476
5	0xbd8885c3	-0.06666138
6	0xbd8f2a75	-0.0699052
7	0xbdb57acb	-0.088613115
8	0x3df8f666	0.12156372
9	0x3e70ec49	0.23527636
10	0x3cba7972	0.022762988
11	0x3df2b64a	0.11851175
12	0xbdb2eb39	-0.087362714
13	0x3cc4232c	0.023942553
14	0x3c9e6675	0.019335965
15	0x3e3184ca	0.17335811
16	0x3e1a18fb	0.15048592
17	0xbd4faeee	-0.050703935
18	0xbdb2a1d6	-0.08722274
19	0xbd799ef7	-0.060942616
20	0xbdc0698a	-0.0939513
21	0xbd70ccf1	-0.058789197
22	0x3e19e4cf	0.1502869
23	0x3e452f22	0.19256261
24	0x3e315ee7	0.17321359
25	0xbd30bb6e	-0.043147497
26	0x3e14994f	0.14511608
27	0xbcc80d04	-0.024420269
28	0xbd2c879e	-0.042121522
29	0xbd9cb5dc	-0.076518744
30	0x3e20b163	0.15692668
31	0xbd3d6dc7	-0.04624727
