scripts/built_models/torch_pl.pth (torch, 692499 bytes, 9 tensors)

fc1.weight f4 [256, 503]
0	0xbe092600	-0.13393402
1	0xbcde5dea	-0.027144391
2	0x3b3d1367	0.0028850676
3	0xbca58b90	-0.02020815
4	0xbe191d6f	-0.14952634
5	0xbdc34b1e	-0.09535812
6	0x3e870255	0.26368967
7	0xbe2c6cb3	-0.1683834
8	0xbc306beb	-0.010767917
9	0xbd90b39b	-0.07065507
10	0xbd328def	-0.04359239
11	0xbd56fedf	-0.052489158
12	0xbbefac5f	-0.0073142494
13	0xbd90cee2	-0.0707071
14	0x3db4cf53	0.088286065
15	0xbdd66a2a	-0.10469468
16	0xbd557474	-0.05211301
17	0x3d52c0dd	0.05145346
18	0xbcf52db7	-0.029929025
19	0xbce18d76	-0.027533274
20	0xbb17e0d2	-0.0023174775
21	0x3be383ed	0.006943217
22	0x3ca3ae0c	0.019980453
23	0xbda88366	-0.08228187
24	0x3dc2cf5d	0.09512208
25	0x3d8a1a26	0.06743269
26	0xbd8994b8	-0.06717819
27	0x3ca6b730	0.020351022
28	0x3cf8873b	0.03033792
29	0x3be72067	0.007053423
30	0xbb120533	-0.002228093
31	0xbd08b1d5	-0.03337272
32	0xbd040b5e	-0.032237403
33	0x3d2c5001	0.042068485
34	0x3e194655	0.14968236
35	0x3e3d82e7	0.18506967
36	0xbd25c95f	-0.040475246
37	0x3da330e8	0.079683125
38	0x3da81deb	0.082088314
39	0x3c93bc63	0.018034166
40	0x3d5e3ed7	0.054259147
41	0xbdc1da5b	-0.09465476
42	0x3c1123fa	0.008858675
43	0xbd280c0c	-0.041027114
44	0x3a9806d6	0.0011598717
45	0xbd40b706	-0.047049545
46	0xbd80d0c6	-0.062898204
47	0x3ccab71e	0.02474552
48	0x3d73ef97	0.059554663
49	0xbcdd74f4	-0.027033307
50	0xbe19e838	-0.1502999
51	0xbd1b9798	-0.037986368
52	0xbd47bb5d	-0.048762668
53	0xbdd38ea4	-0.10329941
54	0x3d2aa143	0.041657697
55	0xbdc58255	-0.096439995
56	0xbe0781db	-0.1323313
57	0x3deacd43	0.11464932
58	0xbd26edcd	-0.04075413
59	0xbde58497	-0.1120693
60	0xbd884e57	-0.06655567
61	0x3d43d12e	0.04780691
62	0x3cb7e308	0.022447124
63	0x3abae5d7	0.0014259171
64	0x3ce9bd63	0.02853269
65	0x3cf0e122	0.029404227
66	0x3ca4a3ae	0.02009758
67	0xbdc59975	-0.0964841
68	0x3dd71f62	0.10504033
69	0xbd324db3	-0.04353113
70	0x3d135798	0.035972208
71	0x3c8ef67d	0.01745152
72	0xbd93811f	-0.07202362
73	0x3c95193b	0.018200507
74	0xbb1ca491	-0.00239018
75	0xbd4036f1	-0.046927396
76	0x3d8ba840	0.068192005
77	0xbd40c85e	-0.047066085
78	0x3cb79011	0.022407563
79	0xbc193f76	-0.009353509
80	0xbc862d20	-0.01637894
81	0x3e0008cd	0.12503357
82	0xbd8d0d17	-0.06887262
83	0x3da4dc98	0.080498874
84	0xbc513234	-0.012768317
85	0x3d3c7edc	0.04601942
86	0x3bef26f2	0.007298344
87	0x3df50c22	0.11965205
88	0xbdb046a2	-0.08607222
89	0x3dc6d1a5	0.09707955
90	0x3c90d7ea	0.01768108
91	0x3d13fe54	0.036131218
92	0x3df85c85	0.12127022
93	0xbc6190e4	-0.013767455
94	0x3e0c1b75	0.13682349
95	0x3dc86f34	0.09786835
96	0x3d5e13ab	0.054217976
97	0x3e13c2ac	0.1442973
98	0xbd936956	-0.071978256
99	0x3d19f97a	0.037591435
100	0xb9e2c791	-0.00043254768
101	0x3dac545d	0.084145285
102	0x3c766519	0.015038752
103	0xbd7280f6	-0.059205018
104	0xbca9ea47	-0.020741595
105	0x3be316cd	0.0069302083
106	0xbd2171eb	-0.03941528
107	0x3b1a1527	0.0023511143
108	0x3d0da990	0.034585536
109	0xbdbefa3b	-0.093250714
110	0x3e274301	0.16334154
111	0x3dc52e1a	0.09627934
112	0x3d23c3bf	0.0399816
113	0xbe11ae48	-0.1422664
114	0x3e360dd9	0.1777872
115	0x3d48f641	0.04906297
116	0xbd774994	-0.060372904
117	0x3db73870	0.089463115
118	0xbd1f719d	-0.03892671
119	0xbc37c239	-0.01121574
120	0x3c2c1e37	0.010505251
121	0xbd97f2ff	-0.07419395
122	0x3da0a319	0.078436084
123	0x3d7bcb9d	0.061473478
124	0x3cf5a437	0.02998553
125	0x3caf4e38	0.021399602
126	0x3cc6641f	0.024217663
127	0x39909e00	0.0002758354
128	0xbdc071cf	-0.09396707
129	0x3b9a7ac3	0.0047143414
130	0x3e1f4d68	0.15556872
131	0xbd5c76f5	-0.053824384
132	0xbcdcc17b	-0.026947727
133	0xbd202c87	-0.039104965
134	0xbd2589ac	-0.040414497
135	0x3ce47450	0.027887493
136	0xbccf785a	-0.025325943
137	0x3bae8633	0.0053260564
138	0xbd3b5b78	-0.04574153
139	0x3d536508	0.051610023
140	0x3d877d8f	0.06615745
141	0x3db2b11b	0.087251864
142	0xbcd157ef	-0.025554625
143	0x3df40a3c	0.119160146
144	0xbaaa3699	-0.0012986242
145	0x3d2a0efc	0.041518196
146	0xbde0af9a	-0.10970993
147	0x3dc37145	0.09543089
148	0x3c1e347d	0.009656069
149	0x3e00b57f	0.12569235
150	0xbdffb2d2	-0.12485279
151	0x3d01593a	0.031579234
152	0x3dd21e78	0.10259718
153	0xbdcc249a	-0.09967919
154	0x3db5380c	0.08848581
155	0xbd8adf2b	-0.06780847
156	0xbcb31bf8	-0.021863922
157	0x3d95be91	0.07311738
158	0xbbf1c75d	-0.0073785023
159	0x3cfeb532	0.03109226
160	0xbcc8efa1	-0.024528326
161	0xbc87271b	-0.01649814
162	0xbd305d8e	-0.04305797
163	0xbc039c17	-0.00803282
164	0x3c763fa8	0.015029825
165	0xbe0fa4e2	-0.14027742
166	0xbcb9be57	-0.022673769
167	0x3e1d0179	0.15332593
168	0xbdb96af3	-0.09053602
169	0x3d09e6ee	0.033667497
170	0x3e46a909	0.1940042
171	0xbe095cbc	-0.13414282
172	0x3ded716a	0.11593898
173	0x3e174e1a	0.14775887
174	0x3dc13dcd	0.09435616
175	0xbe1da991	-0.15396716
176	0x3e412f93	0.18865804
177	0x3e2a413c	0.16626447
178	0xbddc0509	-0.10743148
179	0x3e416c52	0.18888977
180	0x3df21bf7	0.1182174
181	0x3d20ddf4	0.03927417
182	0xbd1a3ca6	-0.037655495
183	0xbe1d0974	-0.15335637
184	0xbd005c00	-0.031337738
185	0x3d01be8a	0.031675853
186	0xbcd98147	-0.026550902
187	0x3c26d7d3	0.010183292
188	0xbbba3c8a	-0.0056834863
189	0x3cbc6222	0.022996012
190	0xbccdce4c	-0.025122784
191	0x3bc3da75	0.00597697
192	0x3dba815b	0.09106704
193	0xbe1b08e1	-0.15140106
194	0xbd16714e	-0.03672915
195	0xbcbc1f15	-0.02296404
196	0xbd77beac	-0.060484573
197	0xbd9ebc70	-0.07750785
198	0x3c128be8	0.008944489
199	0x3d1fb6ed	0.03899281
200	0xbd8fc783	-0.07020476
201	0x3daae584	0.08344558
202	0xbc234746	-0.009965723
203	0xbc94042d	-0.018068397
204	0xbd1f197e	-0.03884267
205	0x3df0fbc7	0.11766773
206	0xbd481fff	-0.04885864
207	0xbd0f91b7	-0.035051074
208	0xbe0bfff6	-0.1367186
209	0x3dc013eb	0.09378799
210	0xbcee1d0c	-0.029066585
211	0xbd5b3e7f	-0.053526398
212	0x3c7edff6	0.015556326
213	0x3c86cdb4	0.016455509
214	0xbd0f142d	-0.03493135
215	0x3c481fe7	0.012214637
216	0x3dc75394	0.09732738
217	0xbd4cb7bf	-0.04997992
218	0x3cd245ca	0.025668044
219	0x3d6cddc2	0.057828672
220	0xbbcb7e9d	-0.006210162
221	0xbe37b395	-0.17939599
222	0x3d0cd0b9	0.03437874
223	0x3d9893b2	0.07450046
224	0xbdf4f28b	-0.11960324
225	0x3d9306e0	0.07179046
226	0xbbc643c4	-0.0060505588
227	0xbe19c4c1	-0.15016462
228	0x3a0720c8	0.0005154726
229	0x3d3d15a0	0.0461632
230	0xbd84e6ec	-0.06489357
231	0xbd05e838	-0.032692164
232	0x3e158c02	0.1460419
233	0xbdfd101d	-0.12356589
234	0x3dc86663	0.09785154
235	0x3da2d326	0.079504296
236	0xbba51e2c	-0.005038997
237	0xbd1ef38c	-0.038806483
238	0x3d338f8a	0.04383806
239	0xbd1f69a9	-0.038919125
240	0xbd239c63	-0.039944064
241	0xbca707c2	-0.020389441
242	0x3e08bfd6	0.1335443
243	0xbd21f3ba	-0.039539076
244	0x3d3b028f	0.045656737
245	0xbdb8186e	-0.089890346
246	0x3cf298ab	0.029613813
247	0x3e03c09e	0.12866446
248	0x3d8a5ad8	0.06755608
249	0x3d654712	0.05597598
250	0xbd453525	-0.048146386
251	0xbc102238	-0.008797221
252	0xbd3c8a7d	-0.04603051
253	0xbc5c2100	-0.013435602
254	0x3d8d0b6d	0.06886945
255	0xbddf5e52	-0.10906662

fc1.bias f4 [256]
0	0xbea03ba5	-0.31295505
1	0xbdb480a7	-0.08813601
2	0xbe8c731c	-0.2743157
3	0xbe4125b8	-0.18862045
4	0xbdd9228f	-0.10602295
5	0xbe2ee546	-0.17079648
6	0xbe3d28a4	-0.18472534
7	0xbea0990e	-0.3136677
8	0xbe6e6e63	-0.23284297
9	0xbe058573	-0.13039188
10	0xbe174647	-0.14772902
11	0xbdd9e1ae	-0.10638748
12	0xbe8048d9	-0.25055578
13	0xbe24853e	-0.16066453
14	0xbe938c47	-0.2881796
15	0xbe2e733b	-0.17036144
16	0xbe836aca	-0.2566741
17	0xbe9ccea8	-0.30626416
18	0xbe652887	-0.22378741
19	0xbe51bb07	-0.20481502
20	0xbe45ceee	-0.19317219
21	0xbe5c8221	-0.21534015
22	0xbe3fa0af	-0.1871364
23	0xbe442b98	-0.19157255
24	0xbe4db6d6	-0.20089278
25	0xbe948095	-0.2900435
26	0xbe8482e1	-0.25881103
27	0xbe1e497a	-0.15457717
28	0xbe871fa1	-0.26391318
29	0xbe847f87	-0.25878546
30	0xbe6280b2	-0.22119406
31	0xbe9df1fd	-0.30848685
32	0xbeb31825	-0.34979358
33	0xbe2f34a9	-0.17109932
34	0xbe5afac6	-0.21384725
35	0xbea69a1b	-0.32539448
36	0xbe973d19	-0.295388
37	0xbe9c33bf	-0.3050823
38	0xbe9c5591	-0.30534032
39	0xbe7ee0c0	-0.24890423
40	0xbed714ac	-0.4200796
41	0xbe646b7d	-0.22306629
42	0xbe9806d7	-0.29692718
43	0xbe2dd75c	-0.16976684
44	0xbe18dd61	-0.149282
45	0xbe3a7f72	-0.18212679
46	0xbe7ed995	-0.24887688
47	0xbec4b614	-0.38420165
48	0xbe92bb16	-0.2865836
49	0xbe8e91d0	-0.2784562
50	0xbe5ea0fb	-0.21741097
51	0x39812996	0.0002463578
52	0xbe70342a	-0.23457399
53	0xbe591db0	-0.21202731
54	0xbddcab8c	-0.107749075
55	0xbe62f4e6	-0.22163734
56	0xbe135089	-0.1438619
57	0xbe8a4d13	-0.27011928
58	0xbe5e80a1	-0.21728756
59	0xbe84a4b1	-0.259069
60	0xbe9bcbb5	-0.30428854
61	0xbe80ba35	-0.25142065
62	0xbe4ab3ee	-0.197952
63	0xbe91957d	-0.28434363
64	0xbee23614	-0.44181883
65	0xbe98b9da	-0.29829293
66	0xbea58065	-0.3232452
67	0xbddcb45d	-0.10776589
68	0xbe386155	-0.18005879
69	0xbe63cd16	-0.22246203
70	0xbe208dca	-0.15679088
71	0xbe327b26	-0.1742979
72	0xbdb9064f	-0.090344064
73	0xbe824dd2	-0.25449997
74	0xbe956c45	-0.29184166
75	0xbe797c9a	-0.24363938
76	0xbe3b6004	-0.18298346
77	0xbe9503b6	-0.29104394
78	0xbe43eb43	-0.19132714
79	0xbed4f269	-0.41591194
80	0xbe75ef92	-0.2401717
81	0xbe934bad	-0.28768674
82	0xbeca0827	-0.39459345
83	0xbeaaff05	-0.3339769
84	0xbebbac42	-0.3665486
85	0xbec7fba8	-0.39059186
86	0xbe94f6da	-0.29094583
87	0xbe6dbc70	-0.23216414
88	0xbe87f0ea	-0.2655099
89	0xbe7b207b	-0.24524109
90	0xbea46ca7	-0.32114145
91	0xbebee38e	-0.37282985
92	0xbe768aa8	-0.2407633
93	0xbe813cbd	-0.25241652
94	0xbe21e195	-0.15808709
95	0xbe66b5ff	-0.22530364
96	0xbf02cfb2	-0.5109817
97	0xbe863902	-0.26215369
98	0xbe7c8167	-0.24658738
99	0xbe99f447	-0.3006918
100	0xbe642269	-0.22278751
101	0xbe5389da	-0.20658055
102	0xbe8554c4	-0.26041234
103	0xbe988709	-0.29790524
104	0xbe3e2c3f	-0.18571566
105	0xbe8dc988	-0.2769282
106	0xbe18b306	-0.14912042
107	0xbe9b9616	-0.30387944
108	0xbe1ef322	-0.15522435
109	0xbe7a04b6	-0.2441586
110	0xbe8f9f38	-0.28051162
111	0xbec6792f	-0.3876433
112	0xbea3e8c6	-0.3201353
113	0xbe8c3e90	-0.2739148
114	0xbe36eabc	-0.17862982
115	0xbe9a9a16	-0.30195683
116	0xbe6fbe4d	-0.23412438
117	0xbe54a748	-0.20766938
118	0xbe5eee66	-0.2177063
119	0xbdf8c196	-0.121462986
120	0xbe9f432e	-0.31105942
121	0xbe8c7516	-0.2743308
122	0xbe3ff409	-0.18745436
123	0xbeb67ada	-0.35640603
124	0xbe90b81f	-0.28265473
125	0xbe863b51	-0.2621713
126	0xbd7c9cdb	-0.061673027
127	0xbe3be92e	-0.1835067
128	0xbe82b597	-0.25529167
129	0xbe7b8579	-0.24562635
130	0xbe5f998b	-0.21835916
131	0xbe54b4d9	-0.20772113
132	0xbe35bf39	-0.17748727
133	0xbec90687	-0.39262792
134	0xbec21c6a	-0.37912303
135	0xbe2654aa	-0.16243234
136	0xbe8e491f	-0.27790162
137	0xbe79e6c0	-0.2440443
138	0xbe523f97	-0.2053207
139	0xbe601b1e	-0.21885344
140	0xbe205f13	-0.15661268
141	0xbebb4b3c	-0.36580837
142	0xbdffffd6	-0.12499969
143	0xbe97b4f8	-0.29630256
144	0xbec2cc84	-0.38046658
145	0xbe9e561c	-0.3092507
146	0xbe7d779d	-0.2475266
147	0xbe9ff2db	-0.31239972
148	0xbe92ae5b	-0.28648648
149	0xbea433b4	-0.32070696
150	0xbe6c568d	-0.23079892
151	0xbe4a4554	-0.19753009
152	0xbd80ade2	-0.062831655
153	0xbe8db00c	-0.27673376
154	0xbd70b366	-0.058764838
155	0xbe427397	-0.18989407
156	0xbeaf923f	-0.34291264
157	0xbec51e13	-0.38499507
158	0xbd0a749d	-0.033802617
159	0xbe9f5c7b	-0.31125244
160	0xbe496102	-0.19665912
161	0xbde971a8	-0.11398631
162	0xbe8a1506	-0.26969165
163	0xbe276426	-0.16346797
164	0xbe8bdc2a	-0.2731641
165	0xbe0a90e4	-0.13531834
166	0xbe49d19d	-0.19708867
167	0xbe75418a	-0.23950782
168	0xbe630f51	-0.22173811
169	0xbe39a452	-0.1812909
170	0xbe56aeba	-0.2096509
171	0xbe6a2279	-0.22864713
172	0xbe6ee671	-0.23330094
173	0xbe7a22ab	-0.24427287
174	0xbe429d90	-0.19005418
175	0xbe61f4ca	-0.22066036
176	0xbe510e67	-0.2041565
177	0xbe399499	-0.18123092
178	0xbe2dc11f	-0.16968201
179	0xbe0741a0	-0.13208628
180	0xbe961c0c	-0.29318273
181	0xbe537832	-0.2065132
182	0xbe225d13	-0.15855817
183	0xbeaace62	-0.33360583
184	0xbe2877f9	-0.16452016
185	0xbef0f897	-0.4706466
186	0xbeab26b6	-0.33427972
187	0xbead8730	-0.33892202
188	0xbe984f0c	-0.29747808
189	0xbeb1d79e	-0.34734815
190	0xbe9af8b9	-0.30267885
191	0xbe90a674	-0.28251994
192	0xbec4aa62	-0.38411242
193	0xbe600143	-0.21875481
194	0xbe8a560c	-0.27018774
195	0xbdb6aa36	-0.08919184
196	0xbe429daf	-0.19005464
197	0xbdb48470	-0.08814323
198	0xbe3a39b5	-0.18186076
199	0xbe4bf1e3	-0.19916491
200	0xbe6ba734	-0.23013002
201	0xbe206f50	-0.15667462
202	0xbe588d4c	-0.2114765
203	0xbe505bce	-0.2034752
204	0xbe8715a7	-0.26383707
205	0xbe74e5e8	-0.23915827
206	0xbdc4eb11	-0.09615148
207	0xbe6bdb5a	-0.23032895
208	0xbedc19d8	-0.42988467
209	0xbe5804bb	-0.21095555
210	0xbe993b9e	-0.29928297
211	0xbe66ad88	-0.22527134
212	0xbe96789c	-0.29388893
213	0xbe802fbd	-0.2503642
214	0xbe6fd9f1	-0.23422982
215	0xbc449e35	-0.01200061
216	0xbe42f13a	-0.19037333
217	0xbe0b0e04	-0.13579565
218	0xbd95a805	-0.07307438
219	0xbe93b0cd	-0.28845826
220	0xbea3a47b	-0.31961426
221	0xbe68a57d	-0.22719379
222	0xbe18b901	-0.14914323
223	0xbe2dcd89	-0.16972937
224	0xbe30ed28	-0.17277968
225	0xbe703d5c	-0.23460907
226	0xbe807e77	-0.25096485
227	0xbebe2ce1	-0.37143615
228	0xbe8246d5	-0.25444666
229	0xbe6a8978	-0.22904003
230	0xbe7f637b	-0.24940293
231	0xbed06b78	-0.40706992
232	0xbecb0d2a	-0.3965848
233	0xbe49ff9d	-0.19726415
234	0xbe90e4d4	-0.28299582
235	0xbe84fa33	-0.25972137
236	0xbe3bc225	-0.18335779
237	0xbe8a4328	-0.2700436
238	0xbe5bf92a	-0.21481767
239	0xbe38b4c7	-0.18037711
240	0xbe939119	-0.28821638
241	0xbe379495	-0.17927773
242	0xbe16349b	-0.14668505
243	0xbe6d8616	-0.23195681
244	0xbdf62c22	-0.120201364
245	0xbe93264c	-0.28740156
246	0xbe3e1b20	-0.18565035
247	0xbe5b7192	-0.21430042
248	0xbe36dcb3	-0.17857628
249	0xbe966467	-0.29373476
250	0xbe720689	-0.23635305
251	0xbe1dd566	-0.15413436
252	0xbe516a67	-0.20450746
253	0xbe4ea1f2	-0.20178965
254	0xbe13c3f6	-0.14430222
255	0xbe8803c1	-0.26565364

fc2.weight f4 [128, 256]
0	0x3e4881f2	0.1958082
1	0x3c989c8f	0.01862934
2	0x3df715e1	0.1206472
3	0x3d6f7d7e	0.058469288
4	0xbe4e0d66	-0.20122299
5	0x3beb3ef2	0.0071791345
6	0xbdb2e470	-0.08734977
7	0xbe035fae	-0.12829468
8	0x3be72473	0.0070539056
9	0x3b192321	0.0023366886
10	0xbbaf7d56	-0.0053555174
11	0x3d58f93f	0.052972075
12	0xbd03f49e	-0.032215707
13	0xbe6f630d	-0.23377629
14	0x3dcec33e	0.10095833
15	0x3de31107	0.11087232
16	0xbde9cee0	-0.114164114
17	0xbe001c10	-0.12510705
18	0xbd62bf57	-0.055358257
19	0xbdecfc00	-0.11571503
20	0xbe8f94b0	-0.28043127
21	0x3cfece43	0.031104213
22	0x3cbcae74	0.023032404
23	0xbd03ce47	-0.032179143
24	0xbe817cc2	-0.25290495
25	0x3cb8a02e	0.022537317
26	0xbd8d6da6	-0.069056794
27	0xbe2351ab	-0.15949123
28	0x3dac9d17	0.084284
29	0xbdc6f721	-0.09715105
30	0x3cede923	0.029041832
31	0xbd399829	-0.045311127
32	0x3d8ee42b	0.06977113
33	0xbd27f4ab	-0.041004818
34	0xbd112852	-0.035438843
35	0xbde7b103	-0.11313059
36	0x3c1b9f1e	0.009498386
37	0xbe13b20b	-0.14423387
38	0xbdad3e24	-0.08459118
39	0xbd77358e	-0.060353808
40	0xbdc5f9f8	-0.096668184
41	0x3dc46fc8	0.09591633
42	0xbe099c99	-0.13438644
43	0x3e147026	0.14495906
44	0xbd3f34c2	-0.046681173
45	0xbc30f6f5	-0.010801067
46	0x3e0fea3f	0.14054202
47	0x3e11252c	0.14174336
48	0xbd956292	-0.072941914
49	0x3e06b41e	0.13154647
50	0x3e16701a	0.14691201
51	0xbbd37840	-0.006453544
52	0xbe386afc	-0.18009561
53	0xbd3d76f2	-0.046256013
54	0xbe7c8d91	-0.24663378
55	0xbc136eff	-0.0089986315
56	0x3d655f6c	0.055999205
57	0x3db4b4d9	0.088235565
58	0xbdb59961	-0.08867145
59	0x3df726c0	0.12067938
60	0x3d7e5798	0.062095255
61	0x389f1161	7.584948e-05
62	0x3d033cd5	0.032040436
63	0xbd311162	-0.04322947
64	0xbdca567d	-0.098797776
65	0x3de10da7	0.10988932
66	0xbda11f9a	-0.07867356
67	0x3c60731f	0.013699322
68	0x3db8b0a9	0.0901807
69	0xbc92ac92	-0.017904554
70	0x3c9426e7	0.018084956
71	0x3df9acb1	0.121911414
72	0x3dfeb87d	0.12437532
73	0xbe291bc1	-0.16514494
74	0xbe61bc3e	-0.22044465
75	0x3e0cbd8c	0.13744181
76	0x3dc5a5db	0.09650775
77	0xbcf1524c	-0.029458188
78	0xbd76bc90	-0.06023842
79	0xbe20d314	-0.1570552
80	0xbd380e83	-0.044935714
81	0xbd6a82b7	-0.057253566
82	0x3d33f3dd	0.043933738
83	0xbdc7bee7	-0.097532086
84	0xbde4f2c1	-0.11179114
85	0xbe02240c	-0.12709063
86	0x3dbc214e	0.0918604
87	0xbe01407e	-0.12622258
88	0xbdba9e6d	-0.091122486
89	0xbe82e5ba	-0.25565892
90	0x3c8bd0a5	0.017067263
91	0xbd1d7676	-0.03844305
92	0x3cb262aa	0.021775562
93	0xbcb90428	-0.02258499
94	0x3b47678c	0.003042671
95	0x3de039e0	0.10948539
96	0x3d66bbe6	0.056331538
97	0x3d94d9f5	0.072681345
98	0xbe00ea0f	-0.12589286
99	0xbd397be4	-0.045284167
100	0xbd1c0b6a	-0.038096823
101	0xbe65c40f	-0.22438072
102	0x3d9a94ca	0.075479105
103	0x3dc47304	0.0959225
104	0x3d90828c	0.0705615
105	0x3d688f0d	0.05677705
106	0x3e11afac	0.1422717
107	0xbd80ff12	-0.06298651
108	0xbdea76ae	-0.114484176
109	0xbd99605b	-0.074890815
110	0x3d744051	0.05963165
111	0xbda195a2	-0.07889868
112	0xbe0f3073	-0.13983326
113	0x3dd16210	0.10223782
114	0x3dac4d7d	0.08413217
115	0x3da2388e	0.07920943
116	0x3d118aaf	0.03553265
117	0x3d69f7ff	0.057121273
118	0xbb6da49f	-0.0036261452
119	0x3e526b61	0.20548774
120	0xbe0e9de9	-0.13927425
121	0xbd9fdced	-0.0780581
122	0x3c74d159	0.0149424905
123	0x3dacbfe2	0.08435036
124	0xbc9617c0	-0.018321872
125	0x3d19e995	0.037576277
126	0x3e1aec54	0.15129215
127	0x3d50fbd4	0.051021412
128	0xbe4d62c8	-0.20057213
129	0x3dab9b18	0.08379191
130	0x3cc26a17	0.023732228
131	0x3c7e1432	0.015507745
132	0x3d425489	0.0474439
133	0x3a5c668f	0.00084076164
134	0xbd88c76b	-0.06678661
135	0xbdbefb89	-0.0932532
136	0xbde74ab0	-0.112935424
137	0xbc368262	-0.011139484
138	0x3cc653a2	0.024209801
139	0xbd81788f	-0.06321823
140	0x3d2b85ab	0.041875523
141	0x3e09efc4	0.1347037
142	0xbd91b090	-0.07113755
143	0x3e3295f2	0.17440012
144	0xbd50202a	-0.050811924
145	0xbe258180	-0.16162682
146	0xbd724efc	-0.059157357
147	0x3d407ebc	0.046995863
148	0xbd344c8c	-0.044018313
149	0x3d2099eb	0.039209288
150	0xbe6fc7c0	-0.23416042
151	0xbd7d09eb	-0.061777037
152	0xbccdb0e2	-0.025108758
153	0xbbbae4d0	-0.005703546
154	0xbe093aae	-0.13401291
155	0x3d981400	0.0742569
156	0x3dd0e163	0.10199239
157	0x3bfb6719	0.0076722023
158	0xbcfebaa7	-0.031094862
159	0x3d91fc94	0.071282536
160	0xbc93a369	-0.018022256
161	0xbdd08bc0	-0.10182905
162	0xbe24a8fe	-0.1608009
163	0xbe35dd76	-0.17760262
164	0xbda39754	-0.07987848
165	0xbd8aed54	-0.06783548
166	0xbdd20986	-0.10255723
167	0xbc6c3d5f	-0.014418929
168	0x3dd723f0	0.105049014
169	0x3daa8ae2	0.08327271
170	0xbd4a170b	-0.04933838
171	0xbcabb569	-0.020960527
172	0xbc82d74d	-0.015971804
173	0xbd97bb3b	-0.07408758
174	0x3da3b3ee	0.07993303
175	0x3e0a5e16	0.13512453
176	0xbdf75746	-0.12077193
177	0x3e1e8d2f	0.15483545
178	0xbdade17d	-0.08490274
179	0xbe52c092	-0.20581272
180	0xbcb417ff	-0.021984098
181	0xbdba4e3e	-0.09096955
182	0x3e6d7150	0.23187757
183	0xbd8a823c	-0.067631215
184	0x3da66b41	0.08125926
185	0x3cf36c7c	0.029714815
186	0xbe39d72e	-0.18148491
187	0xbd832448	-0.064034045
188	0x3daaf4a3	0.08347442
189	0xbd9fadd9	-0.07796831
190	0xbe178e9f	-0.148005
191	0xbc3694bf	-0.011143862
192	0x3e08e4e1	0.1336856
193	0x3d8adf8a	0.06780918
194	0xbdc8bfdd	-0.0980222
195	0x3d02ee78	0.031965703
196	0x3de36f7b	0.111052476
197	0x3dde47c1	0.1085353
198	0x3df19ec8	0.11797863
199	0xbdef3fe2	-0.116821066
200	0xbd6f302f	-0.05839556
201	0x3d82d6ee	0.06388651
202	0xbddd793a	-0.10814138
203	0x3deedf38	0.11663669
204	0xbd955175	-0.07290927
205	0xbde53f36	-0.11193697
206	0x3df575c2	0.11985351
207	0x3c355cc9	0.011069485
208	0xba62832f	-0.00086407637
209	0x3c8c8d19	0.017157124
210	0x3c5806e2	0.013185235
211	0xbd3ebdbe	-0.04656767
212	0xbd980e4c	-0.07424602
213	0xbe147a08	-0.14499676
214	0x3d38e72e	0.045142345
215	0x3de57e3d	0.11205719
216	0x3e128390	0.14308
217	0xbd27184c	-0.040794656
218	0x3a7a3092	0.00095439807
219	0xbdaa1839	-0.08305401
220	0xbd472921	-0.048623208
221	0x3dca2ec3	0.098722
222	0xbd21b110	-0.0394755
223	0x3da180fb	0.07885929
224	0xbce5b1ca	-0.028038878
225	0x3dd84e1a	0.10561772
226	0x3e0dff3a	0.13866892
227	0xbe34e9d3	-0.17667322
228	0x3e29778c	0.1654951
229	0xbcfbc160	-0.030731857
230	0xbda1a572	-0.07892884
231	0xbdfe1a7c	-0.12407395
232	0xbdc54295	-0.0963184
233	0xbde6de2e	-0.11272846
234	0xbd5ce889	-0.0539327
235	0xbe33d96a	-0.17563406
236	0xbdd15c02	-0.10222627
237	0x3e315bf3	0.17320232
238	0x3da7b317	0.081884556
239	0xbe9208ba	-0.28522283
240	0x3d3226d9	0.04349408
241	0x3e19132c	0.1494872
242	0x3c8a9b5f	0.01691979
243	0xbe1fac2a	-0.15593019
244	0xbe4d4e73	-0.20049457
245	0xbdd78353	-0.10523095
246	0xbd3eb9ff	-0.0465641
247	0xbc8304c1	-0.015993478
248	0xbd118d07	-0.035534885
249	0x3dbed0a8	0.09317142
250	0xbe0635c8	-0.13106453
251	0x3c49f80d	0.012327206
252	0x3da59267	0.08084565
253	0x3b96a5dd	0.004597409
254	0x3de8abb1	0.113608725
255	0xbbae8cbc	-0.0053268354

fc2.bias f4 [128]
0	0x3a9acb9f	0.0011809951
1	0x3cdfbfbc	0.027313106
2	0xbd01358d	-0.03154521
3	0x3cdb51a4	0.026772328
4	0xbd915253	-0.0709578
5	0xbb4dc6ec	-0.0031399084
6	0xbda013bf	-0.07816266
7	0xbd958697	-0.073010616
8	0xbdaee63f	-0.0854001
9	0xbc6a380d	-0.01429559
10	0xbcbab0ca	-0.022789378
11	0xbaa2e899	-0.0012428939
12	0xbceb028d	-0.02868774
13	0xbb8f1c6d	-0.0043674023
14	0xbc01ec55	-0.007929881
15	0xbe079d10	-0.13243508
16	0xbd60290e	-0.054726653
17	0xbd285d48	-0.041104585
18	0xbd1154da	-0.03548131
19	0xbc7a5093	-0.015277999
20	0x3cb8ec15	0.02257351
21	0xba994c7f	-0.0011695771
22	0xbd5fc6ab	-0.054632824
23	0x3c8b7f19	0.017028378
24	0x3d5cd576	0.05391451
25	0xbd3f77d7	-0.046745148
26	0x3cdf0dba	0.027228225
27	0x3b4a7ca9	0.0030897057
28	0xbd1104f8	-0.03540513
29	0xbd05592d	-0.032555748
30	0xbd3f4b5b	-0.046702724
31	0x3b30a36a	0.002695287
32	0xbd3cfaa7	-0.04613748
33	0xbd8c9e43	-0.068661235
34	0x3db12a39	0.086506315
35	0xbd849c93	-0.06475177
36	0x3cf7d235	0.030251602
37	0x3ce52bc7	0.027974976
38	0xbd15e626	-0.03659644
39	0xbd094add	-0.03351866
40	0x3c20708c	0.009792458
41	0x3decbfc9	0.115600176
42	0xbcc61993	-0.024182117
43	0xbcea7430	-0.028619856
44	0x3d21a0f3	0.039460134
45	0xbcdc8cde	-0.02692264
46	0xbdbc68ab	-0.09199651
47	0xbdb3fd82	-0.08788587
48	0x3d1779af	0.03698128
49	0xbdb1a95f	-0.08674883
50	0xbd493a39	-0.04912779
51	0x3d944d42	0.07241298
52	0xbda7b9ea	-0.08189757
53	0x3c7c027b	0.015381451
54	0x3d396486	0.045261882
55	0xbdfc08da	-0.12306376
56	0xbcccdc82	-0.02500749
57	0xbda7e311	-0.08197606
58	0x3c8fabb7	0.017537935
59	0xbd8aef80	-0.06783962
60	0x3c0e6d10	0.008692995
61	0x3c7b3abb	0.015333827
62	0xbd982f59	-0.07430906
63	0xbd1fc8d1	-0.039009873
64	0xbdd51c8d	-0.10405836
65	0xbd023c17	-0.031795587
66	0xbcb60e82	-0.022223715
67	0xbdb7e8c7	-0.08979946
68	0x3ceafb57	0.028684301
69	0xbd6be748	-0.057593614
70	0xbd58696a	-0.052834906
71	0xbd707360	-0.05870378
72	0x3cd4d1cb	0.025978943
73	0xbd0d79cf	-0.034539994
74	0x3c374881	0.01118672
75	0xbd166199	-0.03671417
76	0xbc2928fa	-0.010324711
77	0xbc0f0d66	-0.008731222
78	0xbd61905e	-0.05506932
79	0xbda3c70e	-0.07996951
80	0x3d507e6e	0.050901823
81	0x3c1a4376	0.009415498
82	0xbe03132b	-0.12800281
83	0x3c94688f	0.018116264
84	0x3d4d0828	0.050056607
85	0xbd8ccbb9	-0.068747945
86	0xbd5b0472	-0.053471036
87	0x3cf63a72	0.030057166
88	0xbd5a0984	-0.05323173
89	0xbc0daf0b	-0.0086476905
90	0xbd96a89d	-0.07356379
91	0x3cb406d5	0.021975914
92	0xbb8815d8	-0.0041529946
93	0x3d007f7a	0.03137157
94	0x3b6a7bc0	0.0035779327
95	0x3de9f74f	0.114241235
96	0x3c765a09	0.0150361145
97	0xbc176a99	-0.009241723
98	0xbd7a8073	-0.061157655
99	0xbd92a884	-0.07161048
100	0xbd952c44	-0.072838336
101	0xbd2254aa	-0.039631523
102	0xbcf897ad	-0.030345762
103	0xbdd144c3	-0.102181934
104	0x3d67cef6	0.056593858
105	0x3e0aaade	0.13541743
106	0xbdcd2817	-0.10017412
107	0x3a16d649	0.0005753977
108	0xbd2821db	-0.041047912
109	0xbdb30ad6	-0.08742301
110	0xbd40f89e	-0.0471121
111	0xbd967ed0	-0.07348406
112	0xbc60193c	-0.013677891
113	0xbd3e9d51	-0.046536747
114	0xbcb698ef	-0.022289721
115	0xbd062556	-0.03275045
116	0xbd9bf082	-0.076142326
117	0xbd3d4504	-0.046208397
118	0x3cc7f7bb	0.02441012
119	0x3d23270f	0.03983217
120	0xbd428937	-0.04749414
121	0x3b96502b	0.0045871935
122	0xbd22284c	-0.03958921
123	0x3d46f99e	0.048577897
124	0xbd68e116	-0.056855284
125	0x3b85ed6d	0.0040871412
126	0xbda20ed8	-0.079129875
127	0xbcae0b7a	-0.021245707

fc3.weight f4 [64, 128]
0	0xbae02220	-0.0017100014
1	0x3d4a6811	0.04941565
2	0x3cde9e96	0.027175229
3	0x3dcc1c78	0.099663675
4	0xbda36304	-0.0797787
5	0x3d95a0fb	0.07306095
6	0xbcbb60a2	-0.022873227
7	0xbd56ee86	-0.052473567
8	0x3b613eb6	0.0034369654
9	0xbe116993	-0.1420043
10	0xbd418d7d	-0.047254074
11	0x3d8cb26f	0.06869971
12	0xbcb311a8	-0.021859005
13	0x3d08c762	0.03339327
14	0x3cb71b59	0.022351908
15	0xbe1fa471	-0.15590073
16	0x3d219928	0.0394527
17	0xbb7b2ea1	-0.0038327354
18	0xbb342037	-0.0027485022
19	0xbd628ccf	-0.055310067
20	0x3d7edd3d	0.062222708
21	0xbcfd14bf	-0.030893682
22	0x3d9dba07	0.077014975
23	0x3e0a5b9c	0.13511509
24	0xbdf708ba	-0.12062211
25	0x3cc28ea8	0.023749664
26	0x3d29d63d	0.04146408
27	0xbde46d47	-0.111536555
28	0x3d2a44d8	0.04156956
29	0x3c0b74a2	0.008511694
30	0xbd820ee1	-0.06350494
31	0xbe1dac4c	-0.15397757
32	0x3c9d5215	0.019204179
33	0xbd39c3da	-0.045352794
34	0x3df280ee	0.11840998
35	0xbdce6737	-0.100782804
36	0xbd099038	-0.033584803
37	0xbda83844	-0.08213857
38	0x3dd86bff	0.105674736
39	0xbd5c0718	-0.053717703
40	0xbcb3edd3	-0.02196399
41	0xbe07d531	-0.1326492
42	0x3d28adf6	0.041181527
43	0x3d32b20e	0.043626837
44	0x3dc4bc38	0.096062124
45	0x3dd5e229	0.10443527
46	0xbd518f08	-0.051161796
47	0xbe462a8d	-0.1935217
48	0x3cd09b34	0.025464632
49	0x3d6058a9	0.054772053
50	0xbe27d2e3	-0.1638904
51	0x3db0d3b0	0.08634126
52	0xbd945d4f	-0.0724436
53	0xbd097972	-0.033563085
54	0xbd794fc4	-0.060867086
55	0xbcf33c2f	-0.029691784
56	0x3d1bfb51	0.03808147
57	0x3d5702bd	0.052492846
58	0x3ce02dc0	0.027365565
59	0x3ca32c43	0.019918567
60	0x3d53e252	0.051729508
61	0xbd5eb91d	-0.054375757
62	0xbd328bc9	-0.04359034
63	0x3d0f91c0	0.035051107
64	0x3e6a482d	0.22879095
65	0x3ca82d5e	0.020529445
66	0xbc93f8f2	-0.018063042
67	0x3d217c0e	0.03942495
68	0xbd6d22b2	-0.057894416
69	0x3d6ec7f7	0.05829617
70	0xbddc5d2a	-0.10759957
71	0x3cf48d4f	0.029852537
72	0x3cbe9755	0.02326552
73	0xbda919ba	-0.0825686
74	0x3e40e655	0.18837865
75	0x3cb9d94d	0.022686625
76	0xbdf25f86	-0.11834626
77	0x3d5f9d2d	0.054593254
78	0xbdc2ec92	-0.095177785
79	0xbd409f9f	-0.047027227
80	0xbd4d3be0	-0.05010593
81	0x3c8ade83	0.016951805
82	0xbe5afa0c	-0.21384448
83	0x3d8baeac	0.068204254
84	0xbdcbbaf8	-0.09947771
85	0x3d506d61	0.05088556
86	0xbd886ece	-0.06661759
87	0x3d3186b2	0.043341346
88	0x3c9097e6	0.017650556
89	0x3e21f394	0.15815574
90	0xbd270b5e	-0.040782325
91	0x3b89d5c4	0.004206391
92	0xbda82b68	-0.08211404
93	0xbdae2b0e	-0.08504306
94	0xbe353e1a	-0.17699471
95	0xbd6e2c1a	-0.058147527
96	0xbd136e74	-0.03599401
97	0x3e376d8e	0.17912886
98	0xbe0ada0b	-0.1355974
99	0x3cb1395b	0.021633795
100	0x3d596ff0	0.053085268
101	0x3d6edd7e	0.0583167
102	0x3d3edcce	0.046597295
103	0xbd97a6dd	-0.074048735
104	0xbe2dadac	-0.16960782
105	0x3d9b453a	0.07581563
106	0xbd42b7c2	-0.047538526
107	0xbd98c291	-0.074589856
108	0xbe080bc2	-0.13285735
109	0xbd8075fb	-0.06272503
110	0xbd1219a0	-0.03566897
111	0x3d534a3e	0.051584475
112	0xbcfa913a	-0.030586828
113	0xbd6c4bcd	-0.057689477
114	0xbcc798b4	-0.024364807
115	0xbb7dc06b	-0.0038719426
116	0x3d6d8079	0.05798385
117	0x3cee61ce	0.029099371
118	0xbd454476	-0.048160993
119	0xbd1ca881	-0.038246635
120	0x3d39b305	0.045336742
121	0xbc4c197c	-0.012457248
122	0x3ca11d0a	0.019667167
123	0x3ccd5ad1	0.025067719
124	0xbd45f7f4	-0.04833217
125	0xbd90c45d	-0.07068703
126	0x3da13d47	0.07873016
127	0xbdccdc27	-0.10002928
128	0xbb53a86d	-0.0032296435
129	0xbe08573c	-0.13314527
130	0x3c901df3	0.017592406
131	0x3db31c25	0.087456025
132	0x3c6d2b27	0.01447562
133	0x3d0660b0	0.032807052
134	0xbd7341c3	-0.059388887
135	0xbcadeb9c	-0.021230511
136	0xbcbd052d	-0.023073757
137	0xbcc1084e	-0.02356353
138	0xbd8198df	-0.06327986
139	0xbc8d0902	-0.01721621
140	0xbb98ba7e	-0.0046609035
141	0x3dae12f4	0.08499709
142	0xbd0894f7	-0.03334519
143	0x3d557a02	0.05211831
144	0x3dd512c3	0.10403969
145	0x3d82ab2a	0.06380303
146	0xbcf5b338	-0.029992685
147	0x3dcbeef7	0.09957688
148	0xbcdcd033	-0.026954746
149	0x3d9392ce	0.07205735
150	0x3d725ef3	0.059172582
151	0x3e80f6f4	0.2518841
152	0xbdfbb913	-0.122911595
153	0x3e1282f2	0.14307764
154	0x3d88d6c6	0.0668159
155	0x3e0ed348	0.13947785
156	0x3d07f00f	0.033187922
157	0x3d60a1e8	0.054841906
158	0x3d9f7466	0.07785873
159	0x3cb4b8d5	0.022060791
160	0xbc08037e	-0.008301614
161	0x3daaff45	0.0834947
162	0x3dbc938f	0.09207832
163	0xbbd44465	-0.00647788
164	0xbd7024bd	-0.058628786
165	0xbe4f9fd9	-0.20275821
166	0xbd3bfd1a	-0.045895673
167	0x3e24487e	0.16043279
168	0x3cdf11dc	0.027230196
169	0xbe10ba35	-0.14133532
170	0x3d8f777b	0.07005211
171	0xbd0fe1ad	-0.03512733
172	0x3d482292	0.048861094
173	0x3cdc1ebf	0.02687013
174	0x3d5ad42f	0.05342501
175	0xbccfee02	-0.025382046
176	0x3d4f1a6a	0.0505623
177	0x3d4ed811	0.050499026
178	0x3cc76bbc	0.024343364
179	0xbd8fa65d	-0.07014153
180	0xbd711b92	-0.058864184
181	0x3d8a9ff2	0.067687884
182	0x3d4583da	0.048221447
183	0x3dfa8353	0.12232079
184	0x3d30fe53	0.043211292
185	0xbd074930	-0.03302878
186	0xbe092dd4	-0.13396388
187	0xbc9a3ef0	-0.018828839
188	0x3e3c6fca	0.18402019
189	0x3e45ccb4	0.1931637
190	0x3da1d437	0.07901805
191	0x3e17ec71	0.14836289
192	0x3c98c947	0.018650664
193	0x3d4ad0cc	0.04951553
194	0xbd018c59	-0.031627987
195	0xbd888b84	-0.066672355
196	0xbddb9a88	-0.10722834
197	0x3dab13ce	0.08353387
198	0xbe1b6c9b	-0.15178148
199	0x3dd4f986	0.10399155
200	0xbcb45a8c	-0.022015832
201	0xbd99025d	-0.07471154
202	0x3d30611a	0.043061353
203	0xbcf4a700	-0.029864788
204	0xbd936480	-0.07196903
205	0x3cbbec48	0.022939816
206	0xbd1fd7b9	-0.03902409
207	0x3d5e31c4	0.05424668
208	0x3c473667	0.012158967
209	0xbdcdcb60	-0.10048556
210	0x3cedcb25	0.02902753
211	0xbd789726	-0.06069102
212	0x3dd26d39	0.10274739
213	0xb987c05f	-0.00025892534
214	0x3c6a4343	0.014298263
215	0xbe51e4a9	-0.20497383
216	0xbd2d9d02	-0.042386062
217	0x3c20b688	0.009809144
218	0xbd78465f	-0.060613986
219	0x3af59177	0.0018735369
220	0x3e2bce65	0.16777952
221	0x3ac7cc63	0.0015243407
222	0xbded0809	-0.11573798
223	0x3c58d7be	0.013235031
224	0x3deea49a	0.11652489
225	0xbcc3bd43	-0.023893958
226	0x3d682ccc	0.056683347
227	0xbd68e8f2	-0.05686278
228	0x3d9d73a3	0.076880716
229	0x3d76e817	0.060279932
230	0xbb5f3319	-0.0034057556
231	0xbd825505	-0.063638724
232	0x3ca62b52	0.020284329
233	0xbe5520c4	-0.2081328
234	0xbab9e243	-0.0014181811
235	0x3d1f1c64	0.038845435
236	0xbd474d6d	-0.048657823
237	0xbdcc87fe	-0.09986876
238	0x3b77523d	0.0037738227
239	0x3a91d3ac	0.0011125705
240	0xbd60c14c	-0.054871842
241	0x3be568ab	0.007001003
242	0x3a688015	0.00088691834
243	0x3d0b1763	0.03395785
244	0x3d4885b2	0.048955627
245	0x3dc8a6d7	0.09797447
246	0xbd501cd3	-0.05080874
247	0xbdbc605e	-0.09198068
248	0xbdad9cd1	-0.08477176
249	0xbd06f12e	-0.03294485
250	0x3cd1a0c7	0.02558936
251	0xbdffcd91	-0.124903806
252	0x3ce08cce	0.02741089
253	0x3dbb4aa8	0.09145099
254	0x3d955e64	0.07293394
255	0x3e08cf31	0.13360287

fc3.bias f4 [64]
0	0xbd9f7482	-0.07785894
1	0xbbc2504e	-0.005929983
2	0x3e1aa57c	0.1510219
3	0x3d925872	0.07145776
4	0x3d200556	0.03906759
5	0x3d00f202	0.031480797
6	0x3d544b36	0.05182954
7	0xbe3c724a	-0.18402973
8	0xbd0f3a70	-0.03496784
9	0xbd75e682	-0.060034283
10	0xbe2d7a7d	-0.16941257
11	0xbe16a1ee	-0.14710209
12	0x3d2c23a7	0.04202619
13	0x3e3455b0	0.17610812
14	0x3a1538ed	0.00056923815
15	0xbddb822b	-0.10718187
16	0x3e458c01	0.19291689
17	0x3d671ac0	0.056421995
18	0x3e39e7ae	0.18154785
19	0xbe39f600	-0.18160248
20	0xbdb249f9	-0.087055154
21	0xbdfd9a68	-0.12382966
22	0x3deef8bc	0.11668536
23	0xbdc61410	-0.09671795
24	0x3e20b315	0.15693314
25	0x3d59d00b	0.05317692
26	0xbdd95c45	-0.10613302
27	0xbdda8d60	-0.106714964
28	0xbdcf832b	-0.1013244
29	0x3d9ea4be	0.07746266
30	0xbdec64f8	-0.11542696
31	0xbdcf7c6f	-0.10131156
32	0xbe2f6e42	-0.17131904
33	0xbe089a31	-0.1334007
34	0x3d8ef613	0.06980529
35	0xbd48fc10	-0.04906851
36	0xbd9ea55b	-0.07746383
37	0xbda45569	-0.08024103
38	0xbdd31f5f	-0.10308718
39	0x3dddc681	0.10828877
40	0xbc699155	-0.014255841
41	0x3b80c8eb	0.0039302013
42	0xbcb7e082	-0.02244592
43	0x3c5a4d7e	0.01332414
44	0x3d371c45	0.044704694
45	0xbc59a253	-0.01328333
46	0xbe11aea5	-0.14226778
47	0xbd8c8d17	-0.06862848
48	0x3e23f5c4	0.16011721
49	0xbc1654c1	-0.00917548
50	0xbd42ceca	-0.04756049
51	0x3e45c4a3	0.19313292
52	0x3c3cca5b	0.011522855
53	0x3d089246	0.033342622
54	0xbccfc496	-0.025362294
55	0xbd89a1b2	-0.06720294
56	0xbdde8b37	-0.10866397
57	0xbd396595	-0.04526289
58	0x3e1107da	0.14163151
59	0xbde6e166	-0.1127346
60	0xbdfc6353	-0.12323632
61	0x3d7359c4	0.05941178
62	0x3de10052	0.10986389
63	0xbd0355b1	-0.032064144

fc4.weight f4 [32, 64]
0	0xbc37d774	-0.011220802
1	0x3d9ff58f	0.078105085
2	0xbc90f6cf	-0.017695813
3	0xbd1089e2	-0.035287745
4	0xba5bb11e	-0.00083805795
5	0x3e072584	0.13197905
6	0x3daaa041	0.08331347
7	0x3d0c3dbd	0.034238566
8	0xbdf38b93	-0.11891856
9	0xbe3f2a9e	-0.18668601
10	0xbd129fee	-0.035797052
11	0xbdcd9055	-0.10037295
12	0xbdf32ed4	-0.11874166
13	0xbda3d98e	-0.0800048
14	0xbde35791	-0.11100686
15	0x3d4aa778	0.049476117
16	0xbda2bbf4	-0.079460055
17	0xbc5f1142	-0.013614954
18	0xbe28d4f7	-0.1648749
19	0x3d8a697e	0.06758402
20	0x3da2b44c	0.07944545
21	0xbca65630	-0.02030477
22	0xbdcf027d	-0.101078965
23	0x3cfc7046	0.030815255
24	0xbe708a8d	-0.23490353
25	0xbe1b11b7	-0.15143476
26	0xbe107938	-0.14108741
27	0xbd463de4	-0.048398867
28	0xbdedfc74	-0.11620417
29	0xbd627162	-0.05528391
30	0x3d1a4426	0.037662648
31	0xbdc48895	-0.095963635
32	0xbdeef7bc	-0.11668345
33	0xbd41d116	-0.04731854
34	0x3d2eab3b	0.042643767
35	0xbd9cba0d	-0.07652674
36	0x3d45eb67	0.0483202
37	0xbe019c09	-0.12657179
38	0x3d734657	0.059393253
39	0xbe0a48c9	-0.13504328
40	0xbe65393f	-0.22385119
41	0x3e060708	0.1308862
42	0xbe1260a2	-0.14294675
43	0xbce92559	-0.028460192
44	0xbdcead7d	-0.10091684
45	0x3d10cd76	0.035352193
46	0x3d885ae5	0.06657962
47	0xbd634c00	-0.0554924
48	0x3c05a56c	0.008157115
49	0xbdca4f20	-0.09878373
50	0xbd059cd9	-0.032620285
51	0xbce07c21	-0.02740294
52	0x3b681c1c	0.0035417145
53	0x3e0398a8	0.12851202
54	0xbd8cbc31	-0.06871832
55	0xbe1b9fda	-0.15197697
56	0x3c384c68	0.011248685
57	0x3e03a81b	0.12857096
58	0xbdfa137f	-0.1221075
59	0x3ddf719d	0.10910342
60	0xbdf301bd	-0.11865566
61	0x3d33f8c9	0.043938432
62	0xbd903e11	-0.07043088
63	0x3dcbbf6e	0.09948622
64	0xbdd00f4b	-0.10159167
65	0xbdc5a501	-0.096506126
66	0xbe288da4	-0.16460282
67	0xbc4d6ae4	-0.012537692
68	0xbdba618a	-0.09100635
69	0xbbca134e	-0.006166852
70	0xbdab919d	-0.08377383
71	0x3b8f3fd1	0.004371621
72	0x3e0b56b1	0.13607289
73	0xbd13b74f	-0.03606349
74	0xbe3b7f0f	-0.18310188
75	0x3d9580bc	0.07299945
76	0x3e1b879c	0.1518845
77	0xbd719772	-0.05898232
78	0xbe02c99d	-0.12772222
79	0x3c8f2bac	0.017476879
80	0xbe0dd6cb	-0.13851468
81	0x3d04833a	0.03235171
82	0xbda98a26	-0.08278303
83	0x3caddb7f	0.021222828
84	0xbe4d8bf5	-0.2007292
85	0x3d0295e2	0.03188122
86	0x3ca6d2cb	0.020364186
87	0x3d936b3c	0.07198188
88	0xbc968a4c	-0.018376492
89	0x3cb6c51b	0.022310784
90	0xbcf9ee43	-0.03050912
91	0x3d660b89	0.056163345
92	0x3cad765a	0.021174598
93	0x3bc54077	0.0060196477
94	0xbd30f3bd	-0.043201197
95	0x3ddf2029	0.10894806
96	0xbd4ac497	-0.04950389
97	0x3d9208e5	0.07130603
98	0xbd783ba5	-0.060603756
99	0x3e0b1f64	0.13586193
100	0xbdd8882a	-0.10572846
101	0x3dc837d4	0.09776273
102	0xbe01652f	-0.12636255
103	0xbe2cf252	-0.16889313
104	0xbc1521fc	-0.009102341
105	0xbe214dfa	-0.15752402
106	0x3dacd421	0.08438898
107	0x3cd866f3	0.026416278
108	0xbe2a7a19	-0.16648139
109	0xbe149530	-0.14510036
110	0xbe215f7c	-0.1575908
111	0x3dabce52	0.08388962
112	0xbe153aca	-0.14573207
113	0xbd9f38d3	-0.0777451
114	0x3c853e2d	0.016265
115	0xbd98a858	-0.07453984
116	0xbba2a072	-0.004962974
117	0x3c0a9989	0.008459457
118	0xbd0e2d34	-0.034711078
119	0xbc1e8c0f	-0.009676947
120	0xbd05f640	-0.032705545
121	0x3deb8103	0.114992164
122	0xbd3af262	-0.04564131
123	0x3d04c7ad	0.03241699
124	0x3da1fdbb	0.07909723
125	0xbdcd9516	-0.100382015
126	0xbdf0c492	-0.11756243
127	0xbd81b456	-0.063332245
128	0x3c8d097f	0.017216442
129	0xbdd4c80a	-0.10389717
130	0xbccbe7b0	-0.02489075
131	0xbdae15a3	-0.085002206
132	0x3e258939	0.16165628
133	0xbd1b299b	-0.037881475
134	0xbc0befd1	-0.008541063
135	0x3cbea644	0.023272641
136	0x3b4634eb	0.0030243944
137	0xbcc89a80	-0.024487734
138	0xba6340d3	-0.00086690224
139	0xbd713b40	-0.058894396
140	0x3e1127c3	0.14175324
141	0x3e198a61	0.14994194
142	0xbc6424f4	-0.013924826
143	0x3e3dbe71	0.18529679
144	0x3bdf9d82	0.0068241963
145	0x3b33835a	0.0027391524
146	0x3cc26f59	0.023734735
147	0xbcadeed5	-0.021232048
148	0xbe13f85b	-0.14450209
149	0xbdf5dd5d	-0.12005112
150	0x3d8631a7	0.06552439
151	0x3e0cc939	0.13748635
152	0xbd8eadae	-0.069667205
153	0x3d91ad94	0.071131855
154	0x3dc0e082	0.094178215
155	0xbcfa94f6	-0.030588608
156	0x3d0d1bc4	0.034450307
157	0x3d76d3a4	0.06026043
158	0x3c5cb794	0.013471503
159	0x3dccd874	0.10002223
160	0xbd129d0c	-0.035794303
161	0x3dd91ae5	0.10600833
162	0xbe58eb14	-0.21183425
163	0x3e08fe25	0.13378198
164	0x3e02dd49	0.12779726
165	0x3e15a189	0.14612402
166	0xbd9265d4	-0.071483284
167	0x3dbdb38e	0.09262763
168	0x3d07461d	0.03302585
169	0xbe10649f	-0.14100884
170	0x3d9d71f3	0.0768775
171	0xbdfe2305	-0.12409023
172	0xbe0ef4b5	-0.13960536
173	0xbd7e19bc	-0.06203626
174	0x3df0ff51	0.11767448
175	0x3dfa2894	0.12214771
176	0xbd269cd8	-0.04067692
177	0xbc946c1a	-0.018117953
178	0x3d185184	0.037187114
179	0x3df1186c	0.11772236
180	0x3d6d1195	0.057878096
181	0xbe007e75	-0.1254824
182	0x3e0cc9a4	0.13748795
183	0x3d9bcac6	0.07607035
184	0x3d537a61	0.05163038
185	0xbd583af5	-0.0527906
186	0x3d111129	0.035416756
187	0xbe0848e8	-0.13309062
188	0x3de1bbe7	0.11022168
189	0x3ba43944	0.0050117094
190	0xbccfab57	-0.025350256
191	0x3e85b637	0.2611558
192	0x3c723002	0.014781954
193	0x3c6dc6e5	0.014512752
194	0x3d2c7473	0.042103242
195	0xbd8c1c99	-0.06841392
196	0xbe08e85b	-0.13369887
197	0x3e4167da	0.18887272
198	0x3cfe97d7	0.031078262
199	0x3daaf15e	0.083468184
200	0xbc48dbbf	-0.012259423
201	0x3de767ca	0.11299093
202	0x3dbb0515	0.09131829
203	0x3d8e0f44	0.069365054
204	0xbdf5bfe1	-0.119994886
205	0xbe54b921	-0.20773746
206	0xbdb92be5	-0.09041575
207	0x3dc2d21e	0.09512733
208	0x3c237ad0	0.009978011
209	0xbae65f2e	-0.0017575973
210	0xbdb5160e	-0.08842097
211	0xbde460fc	-0.11151311
212	0x3e2f76dc	0.17135185
213	0x3d6f1105	0.05836584
214	0x3c0b66ce	0.008508397
215	0xbc8d8065	-0.017273137
216	0xbe1cb4f8	-0.15303409
217	0x3d098cac	0.03358142
218	0x3d494cfe	0.04914569
219	0xbdc470a6	-0.095917985
220	0x3db70a13	0.089374684
221	0x3e02302a	0.12713686
222	0xbd822ab4	-0.06355801
223	0x3d38a3ab	0.04507796
224	0x3c791ea9	0.015205064
225	0x3df3e074	0.119080454
226	0x3e2adf5e	0.1668677
227	0x3c4ab95c	0.012373295
228	0x3d7793db	0.06044374
229	0xbd2c81a8	-0.042115837
230	0x3e75f80a	0.240204
231	0xbd4f4f9f	-0.050613042
232	0xbe08244e	-0.13295099
233	0x3bc7de14	0.006099472
234	0x3dd4cf0a	0.10391052
235	0x3e08657d	0.13319965
236	0x3db25b50	0.08708823
237	0xbad7d4d5	-0.0016466627
238	0x3e13d50d	0.14436741
239	0x3e0b5d69	0.13609852
240	0x3d119c88	0.03554967
241	0xbe0d6bb4	-0.13810617
242	0xbc95e6af	-0.018298475
243	0xbdf56b37	-0.1198334
244	0xbd8d57dd	-0.06901524
245	0x3e3bf2a4	0.18354279
246	0xbd9f9135	-0.07791368
247	0xbdb9ecb6	-0.09078352
248	0xbddd3953	-0.10801949
249	0x3c1dafab	0.009624402
250	0xbc3fa723	-0.011697563
251	0x3df56967	0.119829945
252	0xbd28bcfa	-0.041195847
253	0x3e077d55	0.13231404
254	0xbe0ecd70	-0.13945556
255	0xbd39785b	-0.045280796

fc4.bias f4 [32]
0	0x3e04666e	0.12929699
1	0xbd335a1a	-0.0437871
2	0xbdd40ed8	-0.10354394
3	0xbd054727	-0.03253856
4	0x3e276bf9	0.16349782
5	0x3d5f7c21	0.054561738
6	0xbcac3445	-0.021021018
7	0xbe015229	-0.12628998
8	0xbe09151a	-0.13386956
9	0x3e62a624	0.2213369
10	0xbe030bb1	-0.12797429
11	0x3e19dba5	0.15025194
12	0x3e7c070a	0.2461206
13	0xbda05b45	-0.07829908
14	0x3d94f3f0	0.0727309
15	0x3d0f30ea	0.034958757
16	0xbdda149f	-0.106484644
17	0xbd70b9d7	-0.05877098
18	0x3dbb3a49	0.091419764
19	0x3e2b17c5	0.16708286
20	0x3d8d8467	0.06910019
21	0xbe15324c	-0.14569968
22	0x3e29b96e	0.16574642
23	0x3e676680	0.22597694
24	0x3e1bf561	0.15230323
25	0xbdc85d49	-0.09783418
26	0x3cb0b371	0.02156994
27	0xbe2b5ae5	-0.16733892
28	0x3dfb9ddf	0.12285971
29	0xbe08eb15	-0.13370927
30	0xbd48e66b	-0.04904787
31	0x3e13e005	0.14440925

fc5.weight f4 [1, 32]
0	0xbe1cd218	-0.1531452
1	0x3cf90193	0.030396258
2	0x3dfcafb3	0.123381995
3	0xbdd803c2	-0.10547592
4	0x3df2cc98	0.118554294
5	0xbe01fb0f	-0.12693428
6	0xbd46fc6c	-0.048580572
7	0xbc2f033e	-0.010681925
8	0x3de14c2a	0.11000855
9	0x3def5886	0.116868064
10	0xbc4ad579	-0.012379997
11	0xbe1b5eaf	-0.15172838
12	0x3e096302	0.13416675
13	0xbd5097f0	-0.05092615
14	0xbe0f99c2	-0.14023498
15	0xbcd8f7cf	-0.026485352
16	0xbbc01df4	-0.0058629457
17	0x3d748b3e	0.059703104
18	0x3df87dbc	0.12133357
19	0x3e1559d2	0.14585045
20	0x3e0ba58b	0.13637368
21	0x3c3be549	0.01146824
22	0xbe3b1344	-0.18269068
23	0xbdbb26ed	-0.09138284
24	0xbd9a64a2	-0.075387254
25	0x3d4680f2	0.048462816
26	0xbd1d5f3e	-0.03842091
27	0xbc4a6421	-0.012352974
28	0xbe240f70	-0.16021514
29	0xbe03d721	-0.12875034
30	0xbda4af97	-0.080413036
31	0xbe21521e	-0.15753981
