scripts/built_models/torch_pl.pth (torch, 692499 bytes, 9 tensors)

fc1.weight f4 [256, 503]
0.21987431 0.006845159 -0.06396458 0.004512731 0.029262487 0.0617968 -0.17953022 0.02644369
0.020004133 0.009714856 -0.09711266 0.18275385 -0.17912568 0.107605256 0.1489568 -0.053667065
0.1335555 0.09294362 0.00789133 0.045616213 0.0010854017 0.13099983 0.0890049 0.066598475
0.012652913 0.03190838 -0.0699501 0.015451366 0.030672306 0.03743819 -0.012246008 0.103511766
-0.08597579 -0.08687694 0.027003918 -0.013371234 0.11792122 -0.09738668 0.044642452 0.024859456
-0.090642154 0.042011693 0.005190605 0.19290748 -0.117463425 0.15320958 -0.10886063 0.10283536
0.080961004 0.0131391045 0.008077684 0.2964064 -0.33079118 0.086524926 0.15291432 -0.07109488
0.052115712 -0.079088904 0.038517654 0.1106476 0.06065396 -0.018253123 -0.0154461255 -0.06477499
-0.049607594 -0.028034229 -0.14083038 0.09921249 0.10018932 -0.19442421 -0.13584612 -0.16089936
-0.07706851 0.0061321054 -0.1350866 0.10963214 -0.030462291 0.06890246 0.046323277 0.17246722
-0.10648758 -0.07836354 0.0067393235 -0.034173913 0.07844648 -0.09729559 0.033814512 -0.019651368
-0.020421932 -0.048551224 0.12787957 -0.17523602 -0.055431962 0.11531454 0.01098405 -0.09887409
0.091838285 0.031603534 0.07298446 -0.043215558 0.13730945 -0.112755455 -0.16381846 0.064556465
-0.016186269 0.02033045 -0.059566487 -0.048329223 0.0039010965 -0.06875276 0.13536729 0.07153783
0.031387664 0.061388962 -0.068588346 0.07401129 0.09284903 -0.101334944 0.06971949 -0.15059444
0.05135356 0.18024625 0.0403195 0.02079719 0.06413161 -0.004318063 -0.06976238 0.0035971776
-0.15741642 0.08861964 0.045221984 -0.19234854 -0.07766089 -0.13227229 -0.18751352 -0.11724444
-0.07959801 0.014118512 -0.0007394569 0.01908776 0.043092094 0.08133503 -0.040682796 0.023567235
-0.046776444 0.017151212 0.08526881 -0.052707933 -0.099825546 -0.0027584638 -0.11761195 0.033520676
0.0595814 -0.0459937 0.037122298 -0.015410094 0.079747796 0.079061724 0.10106215 0.0632264
-0.010746557 0.007633433 0.036152605 0.030873967 0.039483454 -0.14308853 -0.12862852 0.0064348155
-0.10315018 0.025195759 0.055410545 0.0023375712 0.06074239 0.06981773 -0.1617343 -0.03627038
-0.1124403 -0.056500822 0.03607311 -0.06314393 0.08901002 -0.036369428 0.09336802 -0.014238817
0.06041344 0.0764031 0.093556255 -0.021892495 -0.042459425 0.030421223 -0.10249898 0.16266364
-0.029481519 -0.12453791 -0.12253498 -0.17954598 -0.31345186 -0.124198146 -0.08380285 -0.13051005
-0.02726134 0.008335886 -0.04218979 -0.047385067 0.006701956 0.04771347 0.054408573 0.08450239
0.11547964 0.007010106 -0.1437363 0.024307564 -0.08885386 0.021912381 0.13602051 -0.09124234
0.19701728 0.003407045 0.14565143 -0.025225043 0.14079069 0.093299575 0.043574218 0.055290475
0.11506986 0.06723948 0.22730365 -0.0390489 -0.2630439 -0.027213683 -0.26380837 -0.090966634
0.05821628 -0.114273 -0.04128033 0.11821607 -0.18753578 -0.17165078 0.01528356 9.047909e-05
-0.09946023 0.2231826 -0.12520039 -0.17978236 -0.1647152 0.04198201 0.0581757 0.018011477
0.07311198 -0.29468068 0.11917272 -0.04831985 -0.06600353 0.033622105 -0.13063249 0.104609646
00000000: bb26 613e 5b4d e03b ddff 82bd 88df 933b
00000010: e2b7 ef3c a41e 7d3d c5d6 37be 70a0 d83c
00000020: b5df a33c 0f2b 1f3c 01e3 c6bd d323 3b3e
00000030: b96c 37be 2560 dc3d 2288 183e ffd1 5bbd
00000040: c6c2 083e 3a59 be3d a34a 013c 11d8 3a3d
00000050: 0a44 8e3a d224 063e 3348 b63d c864 883d
00000060: 2a4e 4f3c 5db2 023d ff41 8fbd ba27 7d3c
00000070: 7d44 fb3c ca58 193d 7ba3 48bc fafd d33d
00000080: 1314 b0bd 8aec b1bd 5237 dd3c 0513 5bbc
00000090: ae80 f13d ab72 c7bd 01db 363d 0fa6 cb3c
000000a0: 98a2 b9bd 7414 2c3d f315 aa3b 8a89 453e
000000b0: aa90 f0bd f9e2 1c3e 52f2 debd 589b d23d
000000c0: e2ce a53d 6645 573c 4358 043c 94c2 973e
000000d0: 765d a9be fb33 b13d 9295 1c3e 319a 91bd
000000e0: 4977 553d 5df9 a1bd b0c4 1d3d 359b e23d
000000f0: 4970 783d 9387 95bc bf11 7dbc c0a8 84bd
00000100: 5531 4bbd 0aa8 e5bc d735 10be eb2f cb3d
00000110: 0f30 cd3d 2417 47be 3f1b 0bbe cdc2 24be
00000120: 18d6 9dbd d4ef c83b 2454 0abe d186 e03d
00000130: 0e8c f9bc bc1c 8d3d 7abd 3d3d 3f9b 303e
00000140: 2916 dabd 107d a0bd 8bd5 dc3b f2f9 0bbd
00000150: 8ca8 a03d e942 c7bd 1681 0a3d e8fb a0bc
00000160: e54b a7bc a6dd 46bd ddf2 023e 1271 33be
00000170: a00c 63bd 082a ec3d 72f6 333c 807e cabd
00000180: b615 bc3d b572 013d e078 953d cc02 31bd
00000190: d99a 0c3e 55ec e6bd 07c0 27be 2e36 843d
000001a0: 1199 84bc 0b8c a63c fdfb 73bd ddf4 45bd
000001b0: 8aa9 7f3b 3fce 8cbd b99d 0a3e 6d82 923d
000001c0: 5a90 003d fe72 7b3d 0c78 8cbd 3b93 973d
000001d0: a227 be3d b288 cfbd 18c9 8e3d 6e35 1abe
000001e0: 1c58 523d 7992 383e 0f26 253d de5e aa3c
000001f0: 6f57 833d 8a7e 8dbb 94df 8ebd a0be 6b3b
00000200: c531 21be 377e b53d b03a 393d 04f7 44be
00000210: ac0c 9fbd 6372 07be 8b03 40be da1d f0bd
00000220: 4804 a3bd 5551 673c 1dd8 41ba ef5d 9c3c
00000230: 5681 303d fb92 a63d 01a3 26bd 1310 c13c
00000240: a898 3fbd b380 8c3c 6aa1 ae3d 46e4 57bd
00000250: 5671 ccbd 58c7 34bb 89de f0bd fa4c 093d
00000260: a00b 743d e463 3cbd 8d0d 183d 9e7a 7cbc
00000270: d052 a33d 1deb a13d acf9 ce3d d87c 813d
00000280: 5412 30bc e121 fa3b c114 143d 67eb fc3c
00000290: 67b9 213d cd85 12be 32b7 03be 25db d23b
000002a0: 6740 d3bd 5667 ce3c 2bf6 623d f031 193b
000002b0: 03cd 783d 99fc 8e3d ad9d 25be 4090 14bd
000002c0: 1a47 e6bd 686d 67bd 66c1 133d 9b51 81bd
000002d0: e34a b63d 1cf8 14bd bc37 bf3d ed49 69bc
000002e0: 1574 773d 3a79 9c3d 6c9a bf3d e457 b3bc
000002f0: efe9 2dbd ee35 f93c fcea d1bd 4c91 263e
00000300: 3a83 f1bc bb0d ffbd 9ff3 fabd e7da 37be
00000310: c37c a0be 995b febd d4a0 abbd 6da4 05be
00000320: 2c53 dfbc 3d93 083c 34cf 2cbd d816 42bd
00000330: 159c db3b 336f 433d 86db 5e3d 970f ad3d
00000340: 9780 ec3d 08b5 e53b 9c2f 13be a820 c73c
00000350: 03f9 b5bd 9881 b33c f648 0b3e 44dd babd
00000360: e6be 493e bb48 5f3b a625 153e c0a4 cebc
00000370: 6f2b 103e d913 bf3d e17a 323d 4478 623d
00000380: bfa9 eb3d dab4 893d 4ac2 683e bdf1 1fbd
00000390: b1ad 86be 3bef debc e411 87be b74c babd
000003a0: 3274 6e3d f607 eabd 9015 29bd 441b f23d
000003b0: 6109 40be 39c5 2fbe e667 7a3c 97bf bd38
000003c0: ceb1 cbbd fb89 643e 8834 00be de18 38be
000003d0: 1aab 28be 54f5 2b3d a549 6e3d ce8c 933c
000003e0: bcbb 953d 63e0 96be d410 f43d 09eb 45bd
000003f0: dc2c 87bd 55b7 093d 86c4 05be 953d d63d

fc1.bias f4 [256]
-0.56716454 -0.50252813 -0.70523226 -0.35429677 -0.4797471 -0.49427506 -0.41826603 -0.41350207
-0.52772707 -0.51395607 -0.47173974 -0.34746516 -0.3908944 -0.58476865 -0.4316365 -0.47807112
-0.56501865 -0.5399407 -0.5142994 -0.38444445 -0.38751045 -0.5190038 -0.61681986 -0.59655577
-0.53320974 -0.40499613 -0.6310379 -0.51460874 -0.30525613 -0.30975428 -0.51925623 -0.5349921
-0.4206986 -0.6014087 -0.496821 -0.50450987 -0.6276799 -0.29548895 -0.54225975 -0.35085678
-0.46844214 -0.53814304 -0.4219991 -0.38605213 -0.3737937 -0.469952 -0.35347345 -0.5773443
-0.3658351 -0.4709154 -0.5082265 -0.39959776 -0.45065638 -0.41477403 -0.47187808 -0.2644795
-0.43135858 -0.28571117 -0.4304994 -0.37175176 -0.31644264 -0.54653305 -0.3373985 -0.4920724
-0.3347992 -0.398975 -0.6351315 -0.3656234 -0.48831296 -0.3564073 -0.5488529 -0.43500888
-0.40056857 -0.37929362 -0.397515 -0.6624241 -0.47016817 -0.4955526 -0.5629432 -0.5225101
-0.39754415 -0.50377345 -0.44357246 -0.5367843 -0.43502128 -0.40163973 -0.53014785 -0.63211787
-0.5756066 -0.27754807 -0.5021523 -0.5054588 -0.47275534 -0.5465582 -0.47727737 -0.566647
-0.5054337 -0.52161485 -0.4250165 -0.4380259 -0.53348464 -0.71389276 -0.56615067 -0.46837518
-0.4764003 -0.5584279 -0.22834256 -0.5155394 -0.5235867 -0.4274979 -0.43597433 -0.333629
-0.39351678 -0.56574225 -0.20077309 -0.460033 -0.59302336 -0.5188749 -0.59814066 -0.40369496
-0.42099172 -0.53180337 -0.4813808 -0.39265344 -0.65831894 -0.5877468 -0.46608177 -0.5521374
-0.5538023 -0.5829683 -0.45189413 -0.44531152 -0.51284605 -0.6303806 -0.42140487 -0.45287693
-0.47247586 -0.47484103 -0.5554422 -0.5414369 -0.51632136 -0.49471736 -0.44571266 -0.56335485
-0.48350635 -0.45111132 -0.43374175 -0.5640326 -0.3285342 -0.32117692 -0.33091602 -0.51817685
-0.34855565 -0.5014095 -0.49616364 -0.38440007 -0.64071083 -0.49653652 -0.5310074 -0.33965063
-0.4360506 -0.24365833 -0.4890884 -0.4242583 -0.53343344 -0.5078003 -0.35615215 -0.40318224
-0.4993708 -0.42931896 -0.48761657 -0.39633906 -0.43691778 -0.26188904 -0.34694672 -0.49256092
-0.5555997 -0.49957943 -0.40787187 -0.30881312 -0.32550386 -0.68974346 -0.4397319 -0.58281773
-0.43489486 -0.46985942 -0.50798726 -0.4628548 -0.30970207 -0.45956516 -0.45554784 -0.50133544
-0.47275054 -0.45671457 -0.4110735 -0.6166603 -0.39279506 -0.4246707 -0.49626136 -0.2900535
-0.6571839 -0.34999484 -0.4479484 -0.5544358 -0.47993055 -0.4660686 -0.4821398 -0.44049874
-0.50416386 -0.42455083 -0.58852607 -0.3390447 -0.51743066 -0.40897232 -0.48240733 -0.2670697
-0.35682088 -0.25635245 -0.44687793 -0.4605648 -0.5301255 -0.41652206 -0.5371332 -0.2822877
-0.5162443 -0.55880725 -0.5482085 -0.46556455 -0.44464728 -0.29677317 -0.6084521 -0.4653953
-0.53501534 -0.43345433 -0.35365102 -0.6062988 -0.35909072 -0.44478786 -0.33947864 -0.39098904
-0.60684806 -0.24991018 -0.37332267 -0.47003195 -0.47663292 -0.41403764 -0.440664 -0.5540979
-0.4687083 -0.4833818 -0.44184405 -0.39887285 -0.5510785 -0.52824175 -0.5180398 -0.4972477
00000000: b231 11bf afa5 00bf 1a8a 34bf 6366 b5be
00000010: 69a1 f5be 9f11 fdbe f726 d6be 8bb6 d3be
00000020: 1f19 07bf a092 03bf df87 f1be f4e6 b1be
00000030: 5023 c8be 66b3 15bf 76ff dcbe bdc5 f4be
00000040: 10a5 10bf 8e39 0abf 20a9 03bf e7d5 c4be
00000050: c567 c6be 6fdd 04bf e8e7 1dbf e1b7 18bf
00000060: 6f80 08bf a75b cfbe b38b 21bf 66bd 03bf
00000070: 884a 9cbe 1d98 9ebe faed 04bf 3ef5 08bf
00000080: cf65 d7be ecf5 19bf 525f febe 8f27 01bf
00000090: a1af 20bf 544a 97be 89d1 0abf 80a3 b3be
000000a0: a6d7 efbe bec3 09bf 4410 d8be a0a8 c5be
000000b0: e361 bfbe 8c9d f0be 79fa b4be d6cc 13bf
000000c0: bd4e bbbe d31b f1be 221b 02bf 1498 ccbe
000000d0: 6fbc e6be 435d d4be 019a f1be db69 87be
000000e0: 08db dcbe bc48 92be 6b6a dcbe 3f56 bebe
000000f0: c504 a2be 97e9 0bbf 7fbf acbe eaf0 fbbe
00000100: cd6a abbe 7446 ccbe fa97 22bf fe32 bbbe
00000110: 2804 fabe 057b b6be a081 0cbf 7cb9 debe
00000120: 5317 cdbe c632 c2be 1687 cbbe a094 29bf
00000130: e2b9 f0be 12b9 fdbe 0c1d 10bf 39c3 05bf
00000140: e88a cbbe 4cf7 00bf ee1b e3be b26a 09bf
00000150: 1cbb debe b9a3 cdbe c5b7 07bf 7ad2 21bf
00000160: f45a 13bf c81a 8ebe 0e8d 00bf bf65 01bf
00000170: fd0c f2be 3deb 0bbf b35d f4be c70f 11bf
00000180: 1a64 01bf 8d88 05bf c39b d9be ee44 e0be
00000190: 7392 08bf adc1 36bf 40ef 10bf dfce efbe
000001a0: bdea f3be 21f5 0ebf a2d2 69be 64fa 03bf
000001b0: c709 06bf 01e1 dabe 0738 dfbe 6cd1 aabe
000001c0: 087b c9be 7cd4 10bf 7697 4dbe 7289 ebbe
000001d0: 61d0 17bf fcd4 04bf bf1f 19bf 1bb1 cebe
000001e0: 3a8c d7be 4424 08bf 8b77 f6be df09 c9be
000001f0: 9787 28bf 9376 16bf 45a2 eebe e058 0dbf
00000200: fdc5 0dbf 693d 15bf ab5e e7be dfff e3be
00000210: e149 03bf 9f60 21bf 61c2 d7be 7cdf e7be
00000220: 5be8 f1be 5d1e f3be 7631 0ebf 9c9b 0abf
00000230: a32d 04bf 984b fdbe 7334 e4be 0638 10bf
00000240: 258e f7be 10f8 e6be 6613 debe 7164 10bf
00000250: a235 a8be 4d71 a4be d36d a9be 3da7 04bf
00000260: e375 b2be 5f5c 00bf 2909 febe 16d0 c4be
00000270: a005 24bf 093a febe 1af0 07bf b0e6 adbe
00000280: 0642 dfbe 9281 79be cb69 fabe 6238 d9be
00000290: 188f 08bf 33ff 01bf 9359 b6be e76d cebe
000002a0: 88ad ffbe b2cf dbbe e1a8 f9be f4ec cabe
000002b0: b0b3 dfbe 5216 86be 00a3 b1be f230 fcbe
000002c0: c83b 0ebf e0c8 ffbe 95d4 d0be c11c 9ebe
000002d0: 71a8 a6be 0793 30bf 8a24 e1be 8b33 15bf
000002e0: 8aaa debe 6a91 f0be 740b 02bf 4efb ecbe
000002f0: 4591 9ebe 204c ebbe 913d e9be 8557 00bf
00000300: 5c0c f2be 7ed6 e9be 3a78 d2be 73dd 1dbf
00000310: 6f1c c9be 706e d9be f815 febe e481 94be
00000320: 343d 28bf 8632 b3be 7e59 e5be 81ef 0dbf
00000330: 75b9 f5be 8ba0 eebe 07db f6be 0d89 e1be
00000340: e210 01bf ba5e d9be a5a9 16bf 4497 adbe
00000350: 5676 04bf d264 d1be 18fe f6be 5cbd 88be
00000360: 3ab1 b6be a140 83be 2fcd e4be 26cf ebbe
00000370: 4eb6 07bf 6142 d5be 9081 09bf 0388 90be
00000380: 9628 04bf fe0d 0fbf 6457 0cbf 7a5e eebe
00000390: cfa8 e3be a7f2 97be 84c3 1bbf 4b48 eebe
000003a0: c4f6 08bf baed ddbe bf11 b5be 6636 1bbf
000003b0: bdda b7be 3cbb e3be 25d0 adbe b72f c8be
000003c0: 655a 1bbf 74e8 7fbe 2624 bfbe 07a8 f0be
000003d0: 3b09 f4be befc d3be b69e e1be 5cd9 0dbf
000003e0: 89fa efbe d27d f7be 6239 e2be 1039 ccbe
000003f0: 7b13 0dbf da3a 07bf 429e 04bf 4097 febe

fc2.weight f4 [128, 256]
0.00025731983 0.010850716 -0.07910089 -0.038030494 -0.06983023 0.026304655 0.015344443 0.05227987
-0.05936394 -0.024487477 -0.07717659 -0.03783835 -0.06667176 -0.06850845 0.044241905 -0.011118246
-0.051395725 -0.07301459 0.008012539 0.026326174 -0.044835895 -0.024600398 0.024210185 0.010865128
-0.084295586 0.0076259365 0.03398527 -0.0031632339 -0.053711027 -0.05975587 -0.08887892 -0.0368869
-0.01624833 0.03944442 -0.03339363 0.015904594 -0.033875864 0.008983771 -0.07340533 -0.0026873348
0.029909598 -0.08695095 -0.037996653 -0.06472964 -0.021200037 -0.036989134 -0.010049306 -0.005832084
-0.006891171 -0.03939599 -0.054481924 -0.00054007745 0.035561938 -0.050239317 0.021888316 -0.0017291248
0.0037584065 -0.022482546 0.01824833 -0.0055329683 -0.053541783 0.052513 -0.021228502 0.0012581294
-0.007102518 -0.062456638 -0.059948467 0.0018516443 -0.029130973 0.0370989 -0.059374735 -0.056571983
-0.025911514 0.012518133 -0.0007005987 0.026196895 0.0075583993 -0.05008745 -0.0052497624 0.032197528
-0.029933542 0.04063654 -0.022025252 -0.017810527 -0.06972278 -0.018962989 0.034021143 0.031617977
-0.0052808574 -0.042230356 0.033654597 -0.02591547 -0.098421946 -0.033057775 -0.02050355 -0.0123217385
-0.059019107 -0.028662825 -0.0009493191 -0.016965613 -0.066029854 -0.037901323 -0.0727994 -0.07951685
0.017489918 -0.07236134 -0.08258993 -0.02425819 -0.054296724 0.0070139854 -0.08915947 -0.08290819
-0.03206544 0.0400907 0.038182493 -0.05224949 -0.032445278 0.012905194 -0.017486813 -0.005959714
-0.032631163 0.01919478 -0.050474875 0.044096608 -0.035371967 -0.014868932 -0.023741849 0.025951365
0.0061409757 -0.009262024 -0.0314505 0.036412925 0.04453432 0.0020410283 -0.027517961 0.034538336
-0.0028980596 -0.05440986 0.019702628 -0.012214308 -0.032025862 -0.029119752 0.027123237 -0.044633992
0.019781735 -0.068892434 0.013339611 0.036779944 -0.014239436 -0.0009941258 0.0061886334 0.044836454
-0.07360882 -0.06072048 -0.033578016 -0.04511166 -0.08255179 -0.011963475 -0.05448486 -0.025618503
-0.055118073 -0.089312956 -0.0761062 -0.022446506 0.038969748 -0.06255366 -0.061253153 -0.015432852
0.018004855 0.014221237 -0.014846116 0.018982824 0.022071682 -0.053073533 0.035134606 0.02659036
-0.01731177 0.001793914 -0.07956451 -0.07252178 0.00034171026 0.02159771 -0.037732594 0.008667567
-0.0069117867 0.01740946 -0.0033142916 -0.047035035 -0.056896035 -0.037517592 -0.034337386 0.007878391
0.05665395 -0.05205487 -0.034870695 0.0062960205 -0.038460016 -0.08417768 -0.0066791773 0.02872375
-0.0076491446 -0.059615213 -0.07359917 0.0074351863 -0.070410624 0.024670044 0.023814024 -0.043996938
-0.052387275 -0.035952035 0.0009829707 -0.07180893 -0.07149944 -0.02612907 -0.0636005 -0.0005084629
-0.033839546 -0.025260665 -0.05884834 -0.009250234 -0.04604591 0.03487786 0.027383208 -0.052634608
-0.08138055 0.026635338 -0.04200709 0.0049353857 0.002942473 -0.023607377 -0.04838683 -0.040164974
-0.038883246 -0.04790348 0.050387766 -0.046312496 0.012898717 -0.06860211 0.03299827 -0.019968955
0.007078183 0.01283561 0.024318404 -0.07526669 -0.021455867 -0.02775399 -0.034895413 0.007721531
-0.053393494 0.025283458 -0.024155118 -0.011149955 0.01041291 -0.017336708 -0.052958004 0.005977585
00000000: e2e8 8639 34c7 313c a6ff a1bd ddc5 1bbd
00000010: 2703 8fbd dc7c d73c 4267 7b3c 6b23 563d
00000020: 9a27 73bd f699 c8bc c30e 9ebd 63fc 1abd
00000030: 348b 88bd 294e 8cbd 0037 353d 4e29 36bc
00000040: 5384 52bd ac88 95bd 0647 033c fda9 d73c
00000050: d8a5 37bd c686 c9bc 7054 c63c a603 323c
00000060: 2aa3 acbd fee2 f93b 2334 0b3d 424e 4fbb
00000070: 1800 5cbd 92c2 74bd 2706 b6bd b816 17bd
00000080: 381b 85bc 7990 213d c2c7 08bd 5a4a 823c
00000090: 6bc1 0abd ab30 133c 8955 96bd ff1d 30bb
000000a0: f904 f53c 5713 b2bd 61a2 1bbd f990 84bd
000000b0: b3ab adbc eb81 17bd d8a5 24bc 111b bfbb
000000c0: 55cf e1bb b15d 21bd 7028 5fbd fc93 0dba
000000d0: 65a9 113d bec7 4dbd 204f b33c cda3 e2ba
000000e0: 994f 763b 512d b8bc 867d 953c e74d b5bb
000000f0: a14e 5bbd df17 573d 65e7 adbc d1e7 a43a
00000100: 3dbc e8bb 88d2 7fbd 868c 75bd dfb2 f23a
00000110: 14a4 eebc 04f5 173d ec32 73bd 06b8 67bd
00000120: 6244 d4bc db18 4d3c 62a8 37ba df9a d63c
00000130: 73ac f73b 7f28 4dbd 3306 acbb 8ee1 033d
00000140: 3037 f5bc 8072 263d 4d6e b4bc 62e7 91bc
00000150: d1ca 8ebd 4558 9bbc c159 0b3d da81 013d
00000160: 0b0b adbb bdf9 2cbd 67d9 093d ae4c d4bc
00000170: 7291 c9bd 9767 07bd 10f7 a7bc 1ee1 49bc
00000180: 05be 71bd 4dce eabc badb 78ba 78fb 8abc
00000190: a93a 87bd 6b3e 1bbd da17 95bd bbd9 a2bd
000001a0: 0447 8f3c 2f32 94bd e924 a9bd 1db9 c6bc
000001b0: 3e66 5ebd 93d5 e53b 3d99 b6bd c5cb a9bd
000001c0: 0d57 03bd 2536 243d 3f65 1c3d 9003 56bd
000001d0: 57e5 04bd 4f70 533c 8140 8fbc b449 c3bb
000001e0: 41a8 05bd 5f3e 9d3c bebe 4ebd a59e 343d
000001f0: 32e2 10bd d29c 73bc 447e c2bc f597 d43c
00000200: 3d3a c93b bfbf 17bc 3dd2 00bd b825 153d
00000210: 9e69 363d c6c2 053b 596d e1bc 1278 0d3d
00000220: 5fed 3dbb e0dc 5ebd 6867 a13c 851e 48bc
00000230: 8d2d 03bd 8c8c eebc 8d31 de3c 22d2 36bd
00000240: 4e0d a23c 7a17 8dbd 628e 5a3c 91a6 163d
00000250: 864c 69bc 544d 82ba 05ca ca3b 6ea6 373d
00000260: 39c0 96bd 0ab6 78bd 1a89 09bd 01c7 38bd
00000270: ea10 a9bd 7302 44bc 842b 5fbd e5dd d1bc
00000280: 7dc3 61bd b6e9 b6bd 91dd 9bbd bce1 b7bc
00000290: be9e 1f3d 221c 80bd 96e4 7abd 13da 7cbc
000002a0: eb7e 933c 3100 693c 203d 73bc de81 9b3c
000002b0: accf b43c a263 59bd 4ee9 0f3d 07d4 d93c
000002c0: 6ad1 8dbc c421 eb3a b8f2 a2bd 4d86 94bd
000002d0: 9327 b339 aeed b03c 7e8d 1abd 6902 0e3c
000002e0: 457c e2bb 499e 8e3c 9634 59bb cfa7 40bd
000002f0: d10b 69bd 0cac 19bd 5ca5 0cbd 5e14 013c
00000300: f90d 683d 7d37 55bd 93d4 0ebd d94e ce3b
00000310: 4088 1dbd 5965 acbd 00dd dabb 124e eb3c
00000320: ada5 fabb 152f 74bd 29bb 96bd dda2 f33b
00000330: 7233 90bd d518 ca3c a115 c33c 2236 34bd
00000340: 0a94 56bd 7142 13bd 06d7 803a 8f10 93bd
00000350: 4c6e 92bd a20c d6bc fb40 82bd 5e4a 05ba
00000360: 569b 0abd 74ef cebc f50a 71bd 4b8e 17bc
00000370: a39a 3cbd 16dc 0e3d c052 e03c 6397 57bd
00000380: d9aa a6bd 5a32 da3c a00f 2cbd 04b9 a13b
00000390: 81d6 403b 4264 c1bc 4531 46bd 0784 24bd
000003a0: 0a44 1fbd 7036 44bd 6763 4e3d 2cb2 3dbd
000003b0: 2455 533c 437f 8cbd 3229 073d ef95 a3bc
000003c0: 1af0 e73b 734c 523c 6437 c73c 6c25 9abd
000003d0: 37c4 afbc 565c e3bc 7eee 0ebd e604 fd3b
000003e0: 23b3 5abd 411f cf3c f4e0 c5bc 4dae 36bc
000003f0: e99a 2a3c b605 8ebc 7eea 58bd 9edf c33b

fc2.bias f4 [128]
-0.06315108 -0.08124857 -0.09747634 -0.074654505 -0.044317454 -0.021563226 0.010842589 -0.06105434
-0.0043075522 -0.028622352 -0.016072717 -0.040918525 -0.005239354 0.057151932 0.028095888 -0.06885259
0.0009848799 0.15349755 -0.07989242 -0.054191746 -0.008782692 -0.017738832 0.023162328 0.009779903
0.0164555 -0.048297144 0.03964832 0.017749147 -0.102810085 0.018640636 0.035615683 0.012341183
-0.048346035 0.10588154 -0.036862418 -0.1123362 -0.08049223 -0.03564424 0.014372307 0.00049371
-0.08077901 0.05880787 -0.093909934 0.002979161 -0.047285438 0.0045583798 0.09513687 -0.014778354
0.00900928 0.12982363 -0.07659962 0.08328856 -0.0785024 0.0030216335 -0.021665854 0.024467012
0.1002783 -0.0061767786 -0.010476951 0.08202372 0.04471149 -0.07231093 -0.056166593 0.05917271
0.088455886 0.046077684 -0.03813325 -0.07681094 0.009967616 -0.017056212 0.022100305 0.067197524
0.0041569844 0.079154864 0.07183528 0.013256228 0.048693813 -0.0030826821 0.016867794 -0.028744811
0.0030694413 0.03230452 -0.065545924 -0.034525156 -0.013107681 -0.055529773 -0.06873692 -0.017814113
-0.061740626 -0.016359847 0.06728047 -0.07458144 -0.004774071 0.0030247844 -0.0480323 0.031652436
0.13427316 -0.060501877 0.033627957 -0.07949508 -0.0044551734 0.013628809 -0.038407687 -0.07653806
-0.009157373 -0.029413179 0.0035153213 0.014525321 0.014567427 -0.10959052 0.022678133 -0.034582876
0.01186448 -0.020448504 0.044539455 -0.0664985 -0.031868227 -0.0068180696 -0.045730405 0.10446487
0.04162946 0.018929401 -0.002348772 0.034024037 -0.04024527 0.030501038 -0.069350995 0.049740355
00000000: 5a55 81bd a665 a6bd ada1 c7bd 76e4 98bd
00000010: 3886 35bd 5da5 b0bc 1da5 313c 1e14 7abd
00000020: 5e26 8dbb 6c79 eabc eeaa 83bc 2f9a 27bd
00000030: e3ae abbb 2518 6a3d 5929 e63c 9602 8dbd
00000040: 1617 813a 762e 1d3e a39e a3bd 2af8 5dbd
00000050: 48e5 0fbc 0751 91bc ecbe bd3c e33b 203c
00000060: afcd 863c 3ad3 45bd 4766 223d a966 913c
00000070: 188e d2bd 3fb4 983c c0e1 113d ac32 4a3c
00000080: 7e06 46bd 6cd8 d83d 0cfd 16bd 8610 e6bd
00000090: 1cd9 a4bd b2ff 11bd d379 6b3c 516c 013a
000000a0: 776f a5bd 85e0 703d da53 c0bd 073e 433b
000000b0: 60ae 41bd 765e 953b 1fd7 c23d e920 72bc
000000c0: a99b 133c 7cf0 043e 43e0 9cbd 3193 aa3d
000000d0: dec5 a0bd 9906 463b 977c b1bc 0b6f c83c
000000e0: b65e cd3d 9366 cabb 84a7 2bbc 0dfc a73d
000000f0: 6523 373d c117 94bd f10e 66bd 155f 723d
00000100: 5c28 b53d f4bb 3c3d 9c31 1cbd 0e4f 9dbd
00000110: 364f 233c 78b9 8bbc b30b b53c db9e 893d
00000120: 5037 883b f21b a23d 601e 933d a630 593c
00000130: 2a73 473d d306 4abb 542e 8a3c 3d7a ebbc
00000140: ae28 493b bf51 043d f13c 86bd 406a 0dbd
00000150: 99c1 56bc 3073 63bd f1c5 8cbd e7ee 91bc
00000160: bde3 7cbd 1605 86bc 58ca 893d 27be 98bd
00000170: cf6f 9cbb 763b 463b 84bd 44bd fca5 013d
00000180: e77e 093e d1d0 77bd 78bd 093d 51ce a2bd
00000190: b4fc 91bb 5e4b 5f3c 6151 1dbd fdbf 9cbd
000001a0: ce08 16bc e8f3 f0bc 4e61 663b 9dfb 6d3c
000001b0: 38ac 6e3c ff70 e0bd 7ec7 b93c c6a6 0dbd
000001c0: 3c63 423c 9f83 a7bc 016f 363d 5e30 88bd
000001d0: 4288 02bd 1d6a dfbb ce4f 3bbd aef1 d53d
000001e0: a783 2a3d d511 9b3c dbed 19bb ca5c 0b3d
000001f0: 39d8 24bd 50dd f93c e507 8ebd 8bbc 4b3d

fc3.weight f4 [64, 128]
0.013254481 0.06932091 -0.06173237 -0.094572164 0.10703056 -0.11958161 -0.08969316 -0.03629868
-0.09012334 -0.0004382066 0.017255742 0.0072888737 -0.064649515 0.09555936 0.06322878 -0.20335238
0.10325942 -0.09581742 -0.0040606256 0.077276684 0.10333013 -0.108766116 -0.03818437 -0.10922455
0.13385487 0.03299944 -0.078359924 -0.18805724 0.053669494 -0.19182329 0.031033058 -0.18189308
-0.12866187 0.20540088 -0.053594336 0.10847059 -0.12857556 0.028314564 0.19750741 0.06295113
0.05307052 -0.16149537 0.17568544 0.024597658 0.001331019 0.21365307 0.075326234 0.20323049
-0.04946622 0.091771506 0.062610246 -0.0489487 0.036056682 0.09507197 -0.008520762 -0.038698226
-0.10618913 -0.0871865 0.008486434 0.14454256 -0.1639657 -0.024557726 -0.047811616 0.111724816
0.036296494 0.1001313 -0.28015274 -0.06282578 -0.051772676 0.11576758 0.19743727 -0.021501267
0.03815645 0.06250486 -0.08442481 -0.057722617 0.12710373 -0.034013975 -0.0599201 -0.21668996
-0.027574386 -0.019867904 -0.15603101 0.1124617 0.035875022 -0.044069793 -0.0044896174 0.052713007
-0.17075671 0.072313234 -0.09446186 -0.038245317 -0.2836005 -0.079504594 -0.09809896 0.17912997
-0.1043026 0.033595145 -0.005024547 0.06495248 -0.015112429 0.093293704 0.049963698 0.020388471
0.07838881 -0.027420258 0.19619505 0.15321822 0.12654607 0.0666027 0.12563719 0.08199103
-0.058662374 -0.057170063 -0.0791204 -0.033509724 -0.0622166 -0.18546237 -0.17891715 0.053895254
-0.01980791 0.09798859 -0.14474167 0.1243844 0.05753781 -0.037030004 0.1197301 -0.056710817
-0.038952522 -0.016921397 0.033195972 -0.182496 -0.16229357 -0.03248887 -0.13317418 -0.107838966
-0.06827001 -0.09911917 0.012441933 0.011376115 -0.12577529 -0.07685186 -0.117669255 0.09729219
-0.18709463 -0.05332581 -0.024122212 -0.082313314 -0.06814494 0.0934273 -0.034921736 -0.16061653
0.18554497 -0.03705314 0.034402806 -0.07918861 -0.12802559 -0.06753301 0.046188053 -0.018778255
-0.1834707 -0.040716313 -0.05757572 0.14844698 -0.018831069 -0.0016471938 -0.16987549 0.028197283
-0.02256241 -0.108923934 -0.05135162 -0.18817352 -0.25059405 0.029012535 -0.07524681 -0.010565824
0.047321144 0.22561625 0.018432612 0.13475484 0.07068132 0.182444 0.07584565 0.0615547
-0.051803607 0.15548041 -0.095243625 -0.07060228 -0.21724707 0.014334824 -0.14250097 -0.11734219
-0.15407303 0.17370051 0.076182954 0.005070157 -0.090288594 -0.037678976 -0.073519126 -0.13417932
0.15775669 -0.044228863 -0.19482915 -0.04697584 0.14203764 -0.01590386 -0.10990991 -0.048013467
0.054074116 -0.092431195 -0.03126733 -0.119893 0.03567532 -0.018529417 0.13435996 0.059999462
0.06718089 0.071444474 -0.15310694 -0.028320566 -0.012896614 -0.06428917 -0.063288845 0.2121247
-0.17114265 -0.033019695 -0.030793048 0.08916478 -0.068483286 -0.07140766 0.10761663 0.059768014
-0.22057658 0.11453593 -0.075495504 0.23414253 0.06616445 0.095270045 -0.015179494 0.08664923
-0.11046444 -0.04977545 -0.050973285 -0.059723686 -0.056058105 -0.113175794 -0.07616295 0.12327729
-0.08864355 -0.08352568 0.1903893 0.008336041 -0.016469898 -0.039692547 0.05921175 0.009962425
00000000: 5329 593c 1ff8 8d3d 15db 7cbd 0daf c1bd
00000010: d732 db3d 34e7 f4bd 0cb1 b7bd edad 14bd
00000020: 9692 b8bd 18bf e5b9 ea5b 8d3c 81d7 ee3b
00000030: f766 84bd a0b4 c33d 177e 813d 9b3b 50be
00000040: ad79 d33d ec3b c4bd ff0e 85bb 3d43 9e3d
00000050: bf9e d33d c5c0 debd 3767 1cbd 1fb1 dfbd
00000060: 4011 093e 6c2a 073d 2b7b a0bd 1492 40be
00000070: 8bd4 5b3d 536d 44be 0a39 fe3c 2e42 3abe
00000080: f0bf 03be 9c54 523e bc85 5bbd d425 de3d
00000090: 50a9 03be f2f3 e73c 623f 4a3e 86ec 803d
000000a0: 7960 593d 0b5f 25be e2e6 333e 0781 c93c
000000b0: 9675 ae3a dfc7 5a3e a444 9a3d a71b 503e
000000c0: 179d 4abd b3f2 bb3d cd39 803d 6f7e 48bd
000000d0: 2cb0 133d 18b5 c23d ab9a 0bbc 0882 1ebd
000000e0: b079 d9bd d68e b2bd af0a 0b3c f702 143e
000000f0: a0e6 27be 492d c9bc 1dd6 43bd fbcf e43d
00000100: a2ab 143d a411 cd3d 2e70 8fbe cdaa 80bd
00000110: 960f 54bd 8e17 ed3d ff2c 4a3e 6d23 b0bc
00000120: f049 1c3d 8c02 803d eae6 acbd 8d6e 6cbd
00000130: 7b27 023e 3d52 0bbd c76e 75bd f9e3 5dbe
00000140: aee3 e1bc 04c2 a2bc 98c6 1fbe 5252 e63d
00000150: b0f1 123d 8782 34bd a41d 93bb 98e9 573d
00000160: d9da 2ebe f618 943d 3875 c1bd 1fa7 1cbd
00000170: 1634 91be 4ed3 a2bd 1ce8 c8bd d96d 373e
00000180: 9a9c d5bd 109b 093d f5a4 a4bb ce05 853d
00000190: 1f9a 77bc c510 bf3d bca6 4c3d b905 a73c
000001a0: 508a a03d 73a0 e0bc 5be7 483e 3de5 1c3e
000001b0: 4b95 013e ff66 883d 09a7 003e eaea a73d
000001c0: f547 70bd 282b 6abd e009 a2bd 7e41 09bd
000001d0: d5d6 7ebd d9e9 3dbe 0f36 37be 45c1 5c3d
000001e0: 3344 a2bc 3eae c83d 2937 14be 40bd fe3d
000001f0: c4ac 6b3d c6ac 17bd 0e35 f53d 9a49 68bd
00000200: ae8c 1fbd be9e 8abc 80f8 073d 3be0 3abe
00000210: 4930 26be 0d13 05bd d05e 08be adda dcbd
00000220: 26d1 8bbd fefe cabd 40d9 4b3c e262 3a3c
00000230: 3dcb 00be 8264 9dbd 94fc f0bd 2141 c73d
00000240: bc95 3fbe 2a6c 5abd f29b c5bc e293 a8bd
00000250: 938f 8bbd d056 bf3d 180a 0fbd a978 24be
00000260: 80ff 3d3e 09c5 17bd f5e9 0c3d a32d a2bd
00000270: 2419 03be bf4e 8abd af2f 3d3d dbd4 99bc
00000280: bedf 3bbe 26c6 26bd 85d4 6bbd 7c02 183e
00000290: 9d43 9abc a7e6 d7ba d7f3 2dbe fdfd e63c
000002a0: ced4 b8bc 8313 dfbd 1456 52bd 8fb0 40be
000002b0: dd4d 80be b2ab ed3c 001b 9abd 471c 2dbc
000002c0: d1d3 413d f207 673e fdff 963c 2cfd 093e
000002d0: 5ec1 903d 9ad2 3a3e f754 9b3d c820 7c3d
000002e0: 0530 54bd 4236 1f3e 170f c3bd ee97 90bd
000002f0: 0476 5ebe 9cdc 6a3c c6eb 11be 1a51 f0bd
00000300: 52c5 1dbe 8cde 313e cf05 9c3d 8f23 a63b
00000310: 3ae9 b8bd 4555 1abd 3291 96bd 4e66 09be
00000320: f88a 213e 5329 35bd 4b81 47be bd69 40bd
00000330: 5172 113e d048 82bc 7218 e1bd c5a9 44bd
00000340: d27c 5d3d 914c bdbd 2c12 00bd 768a f5bd
00000350: 4920 123d 01cb 97bc a895 093e ffc1 753d
00000360: 2296 893d 7b51 923d 11c8 1cbe 8800 e8bc
00000370: 524c 53bc 0aaa 83bd 959d 81bd 3837 593e
00000380: 0540 2fbe a93f 07bd b441 fcbc 069c b63d
00000390: f740 8cbd 2e3e 92bd 1c66 dc3d 4ecf 743d
000003a0: d4de 61be d091 ea3d 639d 9abd 0fc3 6f3e
000003b0: 3a81 873d f11c c33d 6ab3 78bc 2775 b13d
000003c0: 2e3b e2bd 58e1 4bbd 5dc9 50bd d3a0 74bd
000003d0: 2f9d 65bd b6c8 e7bd 52fb 9bbd ce78 fc3d
000003e0: c08a b5bd 830f abbd 6af5 423e e493 083c
000003f0: e1eb 86bc a794 22bd 0588 723d 7039 233c

fc3.bias f4 [64]
0.073147684 0.02553018 0.061444815 0.05322577 -0.03950304 -0.12208423 0.039746553 -0.13514419
0.007792002 0.08999393 0.14125906 -0.068237565 0.19877906 0.27221593 0.26943433 0.30175763
0.0892393 0.16250552 -0.023346536 0.10309609 0.15584959 0.06960032 0.15232626 0.023368629
-0.055954438 -0.07453773 0.047429115 0.17279746 -0.20707868 -0.008022552 0.17233466 0.08220838
0.15853274 0.22462386 -0.15775487 -0.00095972733 0.10617436 -0.051910456 -0.0768244 0.03926886
0.26276058 0.14217307 0.12325746 0.19061227 0.1668994 0.14870024 0.15858105 -0.12187244
0.14778717 0.123630814 0.1649669 -0.07652444 -0.06410109 0.025425036 0.11749861 0.19909649
0.016670458 0.289187 -0.20293547 0.14556135 0.04838298 0.0947179 0.06867768 0.15043993
00000000: 74ce 953d ab24 d13c 8fad 7b3d 4403 5a3d
00000010: f1cd 21bd 4c07 fabd 48cd 223d 3d63 0abe
00000020: 0d54 ff3b bd4e b83d 37a6 103e 23c0 8bbd
00000030: bd8c 4b3e e35f 8b3e 4cf3 893e fa7f 9a3e
00000040: 18c3 b63d d967 263e 3c41 bfbc 0b24 d33d
00000050: 0997 1f3e 9d8a 8e3d 6afb 1b3e 916f bf3c
00000060: 7b30 65bd 3da7 98bd 0845 423d d1f1 303e
00000070: 6f0c 54be 0671 03bc 7f78 303e de5c a83d
00000080: 6856 223e cc03 663e 7e8a 21be 3696 7bba
00000090: f171 d93d 0fa0 54bd 1c56 9dbd 62d8 203d
000000a0: 8e88 863e d195 113e 686e fc3d dd2f 433e
000000b0: ade7 2a3e e044 183e 1263 223e 4298 f9bd
000000c0: 8555 173e 2732 fd3d 15ed 283e d8b8 9cbd
000000d0: 6f47 83bd 2a48 d03c 1ca3 f03d f3df 4b3e
000000e0: 7c90 883c 5210 943e 51ce 4fbe 090e 153e
000000f0: 3b2d 463d 75fb c13d e2a6 8c3d ed0c 1a3e

fc4.weight f4 [32, 64]
-0.08918823 0.22307932 -0.03749489 -0.09217059 0.050082825 -0.080699906 -0.3138947 0.13670376
-0.059554514 -0.09833264 0.011247693 0.03528538 0.14479746 -0.17458259 0.032315433 -0.0647654
-0.23495664 0.27196896 -0.024168901 -0.26278087 0.14265628 -0.03360166 -0.038706593 0.035950266
0.24950553 -0.041185234 0.029400762 0.13133515 0.090908445 -0.019101944 -0.14676456 -0.015672874
-0.11384902 -0.24186602 0.23278673 0.04895557 0.14074071 0.12022382 0.04243194 -0.109762326
-0.2551179 0.15339954 -0.05168113 0.110349275 -0.12420871 -0.15792705 -0.14046684 -0.067399636
0.12356925 -0.1780643 -0.023439495 0.10983937 0.1392637 0.15037867 -0.11715345 -0.11493508
0.055644568 -0.00807154 0.14478453 0.2781439 0.10464527 -0.3148065 0.036389507 -0.22898743
0.17400555 0.09992993 0.08440778 0.017182257 -0.040330894 0.09669339 -0.197836 0.16072409
0.15230644 -0.0918769 0.17191344 0.108956926 0.09486828 -0.10356769 -0.11229116 -0.15182061
-0.11023386 0.06931444 0.0844767 -0.10420763 0.08367948 0.08433341 -0.1396367 0.13540062
0.070687875 -0.08098848 -0.04267657 0.07602894 0.16668426 0.13763896 -0.12179798 0.14886776
0.038011786 -0.08138937 0.19791573 0.045974948 0.053739615 -0.08345219 0.14499308 -0.06472312
-0.2491075 0.15076013 0.036828175 0.085481085 -0.29077238 -0.15382557 -0.16399367 0.19941369
0.1252261 -0.16592655 0.19752733 0.06104288 0.073852755 0.0064601284 -0.18895754 -0.048997924
0.05131258 -0.036825772 0.028737446 0.069970444 0.13873206 -0.0055201743 0.06767675 -0.25294426
0.12761235 0.12575305 -0.08235155 -0.18825176 0.008517985 0.17138839 -0.08000845 0.11286802
0.2099184 -0.095980205 0.14724231 -0.025744393 0.047463268 -0.18397942 -0.23392323 -0.06809884
-0.086800836 0.0012674979 0.07549143 -0.05324531 0.19687246 0.07243599 -0.2643397 0.008612132
0.017992504 -0.0026933674 -0.15773556 0.19637656 0.10527354 0.06609281 -0.19382958 0.097801425
-0.20307276 -0.15331368 0.04677272 0.093492396 0.09933433 0.09792385 0.029675359 -0.15354241
-0.065070435 -0.035074368 -0.1563522 0.07644443 -0.15357928 -0.21150094 -0.06532322 0.047387913
0.056878995 -0.28008732 -0.047782682 0.032770846 0.14339922 0.07264591 -0.24470328 -0.022040349
0.13316709 -0.04719344 0.046885673 -0.0099970205 0.13382246 -0.19260257 0.010823859 -0.24328957
0.0052670217 0.05162392 -0.08638322 -0.11310382 0.1374178 0.07601398 0.03238816 -0.06568923
0.17992374 -0.17616706 -0.042024337 0.037504163 0.13129283 -0.01727179 -0.025503479 0.023216587
-0.21974018 0.24172013 0.1338321 -0.06375934 0.043536603 0.1670381 0.025730437 -0.021036994
0.13787532 -0.13822067 -0.024560876 0.15142255 0.02355768 0.035892956 -0.03661299 0.1041602
0.007623825 -0.024150975 0.016199939 0.07074297 -0.0049120076 0.12553678 0.009202391 -0.107782915
-0.12775713 0.13463193 -0.0065746354 0.08815281 -0.11859544 -0.2778579 0.022494936 0.1607378
0.11981778 0.010983824 0.08004571 -0.009549781 0.071884714 0.08164439 -0.11497004 -0.045594383
0.07292665 -0.076750115 0.07622628 0.15620968 -0.060789485 -0.3021995 0.028949177 -0.13086863
00000000: 52a8 b6bd e86e 643e 3e94 19bd efc3 bcbd
00000010: a623 4d3d fe45 a5bd ceb6 a0be 12fc 0b3e
00000020: 6fef 73bd a062 c9bd 3e48 383c 6787 103d
00000030: c945 143e c7c5 32be 305d 043d b9a3 84bd
00000040: 7998 70be 843f 8b3e dcfd c5bc 378b 86be
00000050: 7d14 123e e5a1 09bd ce8a 1ebd 9640 133d
00000060: 617e 7f3e d9b1 28bd ded9 f03c b97c 063e
00000070: 352e ba3d ae7b 9cbc 7349 16be 6664 80bc
00000080: ad29 e9bd baab 77be a55f 6e3e a385 483d
00000090: 551e 103e e837 f63d 1dcd 2d3d 12cb e0bd
000000a0: d09e 82be c514 1d3e 98af 53bd cdfe e13d
000000b0: 2361 febd a1b7 21be 8ad6 0fbe d208 8abd
000000c0: e011 fd3d 7d56 36be 2f04 c0bc 77f3 e03d
000000d0: 259b 0e3e defc 193e 26ee efbd 1563 ebbd
000000e0: 8feb 633d 7e3e 04bc 6542 143e e168 8e3e
000000f0: 4250 d63d 512e a1be 2a0d 153d ae7b 6abe
00000100: 832e 323e 10a8 cc3d fcdd ac3d cec1 8c3c
00000110: 0232 25bd 2f07 c63d 8595 4abe db94 243e
00000120: 38f6 1b3e f529 bcbd 140a 303e cf24 df3d
00000130: 4d4a c23d 4c1b d4bd e8f8 e5bd dd76 1bbe
00000140: 4ac2 e1bd bbf4 8d3d 1f02 ad3d cf6a d5bd
00000150: 2660 ab3d ffb6 ac3d ecfc 0ebe 76a6 0a3e
00000160: cec4 903d 4add a5bd a1cd 2ebd 10b5 9b3d
00000170: 47af 2a3e 3af1 0c3e 3871 f9bd ca70 183e
00000180: 3fb2 1b3d 78af a6bd 6caa 4a3e 3a50 3c3d
00000190: 121e 5c3d fbe8 aabd 1179 143e 8e8d 84bd
000001a0: 0916 7fbe dd60 1a3e 24d9 163d b510 af3d
000001b0: 1ee0 94be 7384 1dbe f5ed 27be 1a33 4c3e
000001c0: 453b 003e a6e8 29be 9b44 4a3e 1908 7a3d
000001d0: 1d40 973d 7caf d33b 167e 41be 0cb2 48bd
000001e0: 242d 523d 9fd6 16bd cb6a eb3c aa4c 8f3d
000001f0: c70f 0e3e 94e2 b4bb 1c9a 8a3d e981 81be
00000200: d0ac 023e 68c5 003e eea7 a8bd 12c5 40be
00000210: 058f 0b3c 7080 2f3e 78db a3bd 5927 e73d
00000220: d9f4 563e 4591 c4bd b0c6 163e e8e5 d2bc
00000230: d868 423d 1a65 3cbe 9289 6fbe 6877 8bbd
00000240: a3c4 b1bd 2c22 a63a 409b 9a3d c117 5abd
00000250: ef98 493e 5259 943d 8857 87be e619 0d3c
00000260: 0465 933c 3583 30bb 6e85 21be f016 493e
00000270: a799 d73d ab5b 873d 437b 46be 1d4c c83d
00000280: 4ef2 4fbe 43fe 1cbe c094 3f3d f178 bf3d
00000290: cc6f cb3d 4d8c c83d bd19 f33c 393a 1dbe
000002a0: a643 85bd 24aa 0fbd cb1a 20be e68e 9c3d
000002b0: e343 1dbe b493 58be 2ec8 85bd d419 423d
000002c0: f3f9 683d 9b67 8fbe c6b7 43bd b93a 063d
000002d0: 3fd7 123e 61c7 943d 7f93 7abe f68d b4bc
000002e0: f45c 083e e94d 41bd 310b 403d 8bca 23bc
000002f0: c108 093e 9c39 45be 8e56 313c e720 79be
00000300: fb96 ac3b 9b73 533d b0e9 b0bd faa2 e7bd
00000310: 40b7 0c3e 38ad 9b3d 72a9 043d 1388 86bd
00000320: ee3d 383e 2365 34be b621 2cbd f79d 193d
00000330: a171 063e 927d 8dbc acec d0bc b630 be3c
00000340: 9203 61be 7b85 773e 480b 093e 4294 82bd
00000350: 7053 323d 090c 2b3e a3c8 d23c c655 acbc
00000360: 302f 0d3e b889 0dbe e433 c9bc 830e 1b3e
00000370: 09fc c03c 7e04 133d 81f7 15bd f151 d53d
00000380: 48d1 f93b 44d8 c5bc bcb5 843c b1e1 903d
00000390: e8f4 a0bb b78c 003e a0c5 163c 4abd dcbd
000003a0: c4d2 02be f4dc 093e 0a70 d7bb 7689 b43d
000003b0: 2be2 f2bd 6443 8ebe 4d47 b83c 7398 243e
000003c0: 0663 f53d 7ff5 333c 01ef a33d af76 1cbc
000003d0: 4b38 933d 2d35 a73d 6a75 ebbd 2dc1 3abd
000003e0: 915a 953d 2a2f 9dbd 861c 9c3d 6ef5 1f3e
000003f0: 65fe 78bd e5b9 9abe d326 ed3c 6d02 06be

fc4.bias f4 [32]
0.3055815 0.26805714 0.29515964 0.16425236 -0.07149483 0.37494728 -0.17940508 0.20360288
-0.17063285 0.1798952 0.20130275 0.35017535 0.2939889 -0.113783635 0.15876849 0.34094658
-0.13529642 0.31460685 0.33049467 0.010880442 0.13510396 0.018304568 0.31713948 0.32752356
0.264317 0.1492927 0.16490299 0.26299316 0.001541701 0.34112635 0.08607703 0.06080746
00000000: 2e75 9c3e c93e 893e 2a1f 973e c531 283e
00000010: e26b 92bd 17f9 bf3e f7b5 37be 467d 503e
00000020: 61ba 2ebe 7336 383e 4f22 4e3e 2f4a b33e
00000030: b785 963e 6507 e9bd 3594 223e 8d90 ae3e
00000040: 258b 0abe 2614 a13e 9936 a93e e243 323c
00000050: b158 0a3e 76f3 953c 1b60 a23e 2bb1 a73e
00000060: 8f54 873e 30e0 183e 54dc 283e 0aa7 863e
00000070: e712 ca3a 1da8 ae3e 2749 b03d 3e11 793d

fc5.weight f4 [1, 32]
-0.1522514 -0.12002636 -0.21715143 -0.15980864 -0.05319522 0.19116405 -0.047998555 0.21509321
-0.0035758673 -0.16885912 0.26306555 0.14915313 -0.15307924 0.0072303666 -0.12636435 -0.14896777
-0.03244299 0.21296914 0.13564764 -0.14704536 -0.112744994 -0.11211188 0.21256801 0.26438507
-0.25019667 -0.24919873 0.19109786 0.19749859 -0.0126489 0.22298458 -0.07246603 -0.1460376
00000000: cae7 1bbe 61d0 f5bd f25c 5ebe e0a4 23be
00000010: 3be3 59bd 82c0 433e 229a 44bd 6541 5c3e
00000020: 1959 6abb 68e9 2cbe 87b0 863e 99bb 183e
00000030: cec0 1cbe b6ec ec3b a865 01be 028b 18be
00000040: f1e2 04bd 9514 5a3e 37e7 0a3e 0f93 16be
00000050: d9e6 e6bd ea9a e5bd 6eab 593e 7b5d 873e
00000060: c719 80be f42d 7fbe 28af 433e 123d 4a3e
00000070: 553d 4fbc 1256 643e 1269 94bd e18a 15be
