scripts/built_models/torch_ml.pth (torch, 691475 bytes, 9 tensors)

fc1.weight f4 [256, 502]
0	0xbc84778f	-0.016170291
1	0x3d8d785b	0.069077216
2	0x3d9f5479	0.07779784
3	0xbcddb479	-0.027063595
4	0xbd8493a0	-0.0647347
5	0x3dda0884	0.106461555
6	0xbda3a422	-0.0799029
7	0xbdcd60b9	-0.10028214
8	0xbdf06a03	-0.1173897
9	0xbd9e9a3b	-0.07744261
10	0xbe1b22f0	-0.15150046
11	0xbd96b2d2	-0.07358326
12	0xbd550005	-0.05200197
13	0x3ca1ac6e	0.019735541
14	0xbe420ada	-0.18949452
15	0x3ddd65b5	0.10810415
16	0xbddba9c6	-0.10725741
17	0x3df507d6	0.11964385
18	0xbe449e50	-0.19201016
19	0x3e173133	0.14764862
20	0xbd977ff8	-0.07397455
21	0x3bc81c5b	0.006106896
22	0xbe630cd8	-0.22172868
23	0x3e5ea12c	0.2174117
24	0x3db2fec2	0.087399974
25	0xbe2290a8	-0.15875494
26	0x3e1040d0	0.14087224
27	0x3e2e1118	0.16998708
28	0x3d8e11f7	0.0693702
29	0xbcf8ce9c	-0.030371957
30	0x3e591219	0.2119831
31	0x3d51a754	0.051184967
32	0x3e7f114c	0.24908942
33	0xbda3762a	-0.079815224
34	0x3dc2ea87	0.09517389
35	0xbdd16852	-0.10224976
36	0x3d1a7056	0.03770479
37	0x3d9850ec	0.074373096
38	0x3d524775	0.051337678
39	0x3b6847fc	0.0035443297
40	0x3e2a5eed	0.16637774
41	0xbc4cd59d	-0.012502101
42	0x3da0db39	0.078543134
43	0xbdcaa338	-0.09894413
44	0x3e33a167	0.17542039
45	0x3dfea872	0.12434472
46	0x3e099fa6	0.13439807
47	0xbdbb51b8	-0.09146446
48	0x3e53dd5e	0.20689914
49	0x3e1e3f91	0.15453936
50	0xbf03d296	-0.51493204
51	0xbe8a7986	-0.2704584
52	0xbe15747d	-0.14595218
53	0xbe704f2e	-0.23467705
54	0xbcd4d632	-0.025981043
55	0x3d30d975	0.043176133
56	0xbe113c34	-0.14183122
57	0xbe548045	-0.20752056
58	0xbe0c81bc	-0.13721365
59	0x3e2c7588	0.1684171
60	0x3e16dc0a	0.14732376
61	0xbc4cf9d2	-0.012510734
62	0x3db7c4b1	0.08973063
63	0x3d6a7aae	0.057245903
64	0x3d649e8d	0.05581527
65	0xbc9dcc33	-0.019262409
66	0xbd0e8877	-0.03479811
67	0x3e88afbc	0.26696575
68	0xbe70d6ab	-0.2351939
69	0xbe897718	-0.26848674
70	0xbe3690bc	-0.1782865
71	0xbe1bd2f6	-0.15217194
72	0xbdb3cc7c	-0.08779237
73	0xbd8c4241	-0.068485744
74	0x3ca52fd4	0.020164408
75	0x3d51f3bb	0.05125783
76	0xbcc81e58	-0.024428532
77	0x3ce5ff5b	0.028075865
78	0xbd86efb6	-0.0658869
79	0x3ac06b6d	0.0014680453
80	0xbdda7762	-0.10667302
81	0x3dbb25c3	0.09138062
82	0x3c672a60	0.014109224
83	0x3dcfefab	0.10153135
84	0x3df28f95	0.11843792
85	0x3bf3fae5	0.0074456804
86	0x3d1157aa	0.035483994
87	0xbe23813d	-0.15967269
88	0x3e3b3d24	0.18285042
89	0x3c65e5a5	0.014031802
90	0x3d3bdc91	0.045864645
91	0xbd143ba4	-0.03618969
92	0x3d9c2ced	0.076257564
93	0xbd6f9d2a	-0.058499493
94	0x3e8e76ca	0.27825004
95	0xbdaa7e90	-0.08324921
96	0x3d007c6d	0.03136866
97	0xbde3506d	-0.110993244
98	0x3dea3e26	0.11437635
99	0xbcb13d3d	-0.021635646
100	0x3ca38638	0.019961461
101	0x3d38e5ba	0.04514096
102	0x3d5d1231	0.053972427
103	0xbd1f5bee	-0.03890603
104	0x3d13c350	0.036074936
105	0xbe3f8287	-0.18702136
106	0x3e75cd61	0.24004127
107	0x3c9bc6da	0.019015718
108	0x3d3233ce	0.043506436
109	0xbdb36ca0	-0.08760953
110	0x3bbf9843	0.0058470084
111	0xbcd9795f	-0.026547132
112	0xbe14cc20	-0.14530993
113	0xbdeba57f	-0.11506175
114	0xbbd9a11e	-0.006641521
115	0xbd8b6b99	-0.06807632
116	0xbd896e54	-0.067104965
117	0x3c5425c1	0.012948454
118	0x3db42c6d	0.08797536
119	0xbca9d530	-0.020731539
120	0x3d9ff8cf	0.07811128
121	0xbe55b1dd	-0.2086863
122	0x3e1febc0	0.15617275
123	0xbda920d4	-0.082582146
124	0x3d20b39e	0.039233796
125	0x3db6081a	0.08888264
126	0x3d9047c5	0.07044939
127	0xbd12ec5e	-0.03586995
128	0x3c4fd98c	0.012686145
129	0x3db031d2	0.086032525
130	0xbe192710	-0.14956307
131	0x3b819b6d	0.003955296
132	0xbd28af73	-0.041182946
133	0xbd983312	-0.07431616
134	0xbd29ba44	-0.041437402
135	0xbd6fdd88	-0.058560878
136	0xbbc5e8e1	-0.006039724
137	0xbc0241b2	-0.007950233
138	0x3cd2b7b4	0.025722362
139	0x3d3ffb2a	0.046870388
140	0xbd8bdbd4	-0.06829038
141	0x3d1f817d	0.03894185
142	0xbd23b125	-0.03996386
143	0x3e1a1ced	0.15050097
144	0xbbe289e0	-0.0069134086
145	0x3e748f4b	0.23882787
146	0x3cf3f9f9	0.029782282
147	0x3e71f4c8	0.23628533
148	0x3b87ed6c	0.004148176
149	0xbe8c3f14	-0.27391875
150	0x3e66afb7	0.22527967
151	0xbd84d70e	-0.06486331
152	0xbd4fc399	-0.050723646
153	0x3aee6b59	0.0018189951
154	0xbd584819	-0.052803133
155	0xbd364681	-0.04450083
156	0x3e708bd0	0.23490834
157	0xbd139f47	-0.03604057
158	0x3c9ca92c	0.019123636
159	0xbbe3d64d	-0.006953037
160	0x3ca63350	0.02028814
161	0x3d10b896	0.035332285
162	0x3d7b6b1d	0.061381448
163	0x3e0316b1	0.12801625
164	0x3e29b214	0.16571838
165	0x3e002826	0.12515315
166	0xbc9c355f	-0.019068418
167	0xbe94f587	-0.29093572
168	0x3e9e9dc6	0.30979747
169	0xbe0c2632	-0.13686445
170	0xbe2c506e	-0.16827556
171	0xbcc4b9ed	-0.024014438
172	0xbe829633	-0.25505218
173	0xbe9b62ce	-0.3034882
174	0xbcf09419	-0.029367493
175	0x3e2a7410	0.16645837
176	0xbd80eb57	-0.062948875
177	0x3d88ecce	0.06685792
178	0x3e042e20	0.1290822
179	0xbd5e646c	-0.05429499
180	0x3e86013d	0.2617282
181	0xbd68a5ce	-0.05679875
182	0x3e61f585	0.22066315
183	0x3dc1d942	0.09465267
184	0x3ea1a9a9	0.31574753
185	0x3c9c00f7	0.019043429
186	0x3e704983	0.23465542
187	0x3dc693e2	0.09696175
188	0x3dfc8d7c	0.123316735
189	0x3aff29c0	0.0019467399
190	0xbe0bd4cf	-0.13655399
191	0x3d80f9d8	0.06297654
192	0x3d97490a	0.07386978
193	0xbdd5608f	-0.10418808
194	0xbdf3e356	-0.11908595
195	0xbe0eed0d	-0.13957615
196	0x3dd361f2	0.10321416
197	0xbb718556	-0.0036853156
198	0x3ddd1575	0.10795108
199	0x3b878ada	0.0041364254
200	0x3d8f08bf	0.0698409
201	0xbcc9faa0	-0.02465564
202	0xbdb0fd6a	-0.08642085
203	0xbd4461aa	-0.047944702
204	0x3bd00cba	0.0063491734
205	0x3e26c9d4	0.16287929
206	0x3d26c5f0	0.04071611
207	0x3e35f171	0.17767884
208	0x3e7eb2eb	0.2487294
209	0x3e0b5f6a	0.13610616
210	0x3d51835c	0.051150665
211	0x3d060452	0.032718964
212	0x3e01c081	0.1267109
213	0xbc91c43c	-0.017793767
214	0x3e4253d0	0.18977284
215	0xbd167ca5	-0.036739964
216	0x3b85ad33	0.004079485
217	0x3cf1e195	0.029526511
218	0x3e57158c	0.21004313
219	0x3b545840	0.0032401234
220	0x3cae5acb	0.021283528
221	0x3ea61505	0.32437912
222	0xbdd1818f	-0.102297895
223	0x3c315fc0	0.010826051
224	0x3e7c6422	0.24647573
225	0xbd4a9472	-0.049457975
226	0x3d2c4592	0.042058535
227	0x3bb284ad	0.005447945
228	0x3d43e360	0.047824264
229	0xbe9f905c	-0.31164825
230	0x3eb62f47	0.35582945
231	0x3da3b39d	0.07993243
232	0xba051210	-0.0005076239
233	0x3de322b3	0.11090603
234	0xbcf28d9d	-0.029608542
235	0x3d9cacbb	0.07650133
236	0x3d905298	0.070470035
237	0xbe07321d	-0.1320271
238	0x3d678ef8	0.05653283
239	0xbdafa037	-0.085754804
240	0xbe813f00	-0.25243378
241	0x3bb7b9e7	0.005606878
242	0x3dc49a20	0.095997095
243	0xbc8e6704	-0.017383106
244	0xbdc56650	-0.09638655
245	0x3d93bbaf	0.07213532
246	0x3e809690	0.2511487
247	0x3d4c8bea	0.04993812
248	0x3e3ffe0b	0.18749253
249	0x3f106f08	0.5641942
250	0xbddaa1c7	-0.10675388
251	0x3d935aef	0.071950786
252	0x3dc6e3a3	0.09711387
253	0x3c5737d8	0.013135873
254	0xbda971c4	-0.08273652
255	0x3ddd7bc3	0.10814621

fc1.bias f4 [256]
0	0xbf077430	-0.52911663
1	0xbf389bc7	-0.721127
2	0xbf40324d	-0.7507675
3	0xbf77b5e2	-0.96761906
4	0xbf5befdd	-0.8591288
5	0xbf0eda30	-0.5580168
6	0xbf369a3d	-0.713291
7	0xbf156d21	-0.5836964
8	0xbf15420e	-0.58303916
9	0xbf478db7	-0.77950615
10	0xbf507233	-0.81424254
11	0xbf3ed328	-0.7454095
12	0xbf673fdc	-0.90331817
13	0xbf00518f	-0.5012445
14	0xbf1c3e9e	-0.61033046
15	0xbf430883	-0.7618486
16	0xbf1db6f9	-0.6160732
17	0xbf47d0fa	-0.7805325
18	0xbf501044	-0.8127482
19	0xbf68ba5e	-0.90909374
20	0xbf3fa2b3	-0.74857634
21	0xbf1607e1	-0.5860577
22	0xbf3df690	-0.7420435
23	0xbf603746	-0.8758434
24	0xbed0747e	-0.40713876
25	0xbf28eb39	-0.6598392
26	0xbf2abaa8	-0.66691065
27	0xbf736d67	-0.9508881
28	0xbf360e64	-0.7111571
29	0xbf4544b3	-0.7705795
30	0xbf26acb6	-0.65107286
31	0xbf4f8d61	-0.810751
32	0xbf284587	-0.6573109
33	0xbf5301be	-0.82424533
34	0xbf43581d	-0.76306325
35	0xbf6a8d01	-0.91621405
36	0xbf1ca34f	-0.6118669
37	0xbf3e5b89	-0.7435842
38	0xbef76859	-0.48321798
39	0xbf57da3c	-0.84317374
40	0xbef7957f	-0.48356244
41	0xbf40ac47	-0.75262874
42	0xbf4f785b	-0.8104302
43	0xbf49fbe6	-0.7889999
44	0xbef107be	-0.4707622
45	0xbf345be3	-0.7045271
46	0xbf3fc6fe	-0.74913013
47	0xbf821e34	-1.0165467
48	0xbf368c93	-0.7130825
49	0xbf5f5239	-0.87234837
50	0xbf579736	-0.84215105
51	0xbf367791	-0.71276194
52	0xbf1b665c	-0.60703063
53	0xbf585965	-0.84511405
54	0xbf059219	-0.5217605
55	0xbf4dd309	-0.8040014
56	0xbf3bc872	-0.7335273
57	0xbf428114	-0.7597821
58	0xbf2b70d8	-0.6696906
59	0xbf8f27a4	-1.1183972
60	0xbf3489b2	-0.70522606
61	0xbf293ea5	-0.6611121
62	0xbf22b53e	-0.63557804
63	0xbf09686f	-0.5367498
64	0xbf49c84a	-0.7882124
65	0xbf353b9d	-0.7079409
66	0xbf25c647	-0.6475567
67	0xbf5b6b39	-0.85710484
68	0xbf20f9c7	-0.6288113
69	0xbf34991a	-0.70546114
70	0xbf4ed04f	-0.80786604
71	0xbf3a1283	-0.72684497
72	0xbf610183	-0.8789293
73	0xbf7c73fc	-0.9861448
74	0xbf280aba	-0.6564137
75	0xbf205ada	-0.6263863
76	0xbf38a3c0	-0.7212486
77	0xbf5b4dcb	-0.8566558
78	0xbf3bc8b5	-0.7335313
79	0xbf0c1884	-0.5472491
80	0xbf19d727	-0.6009392
81	0xbf2c18b4	-0.67225194
82	0xbf07566d	-0.5286625
83	0xbf73ab45	-0.9518321
84	0xbf3507ef	-0.7071523
85	0xbf48e6af	-0.78476995
86	0xbf4b099c	-0.7931154
87	0xbf205f12	-0.62645066
88	0xbf4be900	-0.79652405
89	0xbf44a61d	-0.7681597
90	0xbf15fe83	-0.5859148
91	0xbf17a978	-0.59242964
92	0xbf41d20a	-0.7571112
93	0xbf30cae8	-0.6905961
94	0xbf34a68c	-0.7056663
95	0xbf499f7f	-0.78758997
96	0xbf753861	-0.9578915
97	0xbf24919b	-0.64284676
98	0xbf84e1bf	-1.0381392
99	0xbf29f1f9	-0.66384846
100	0xbf7e83ed	-0.9942005
101	0xbf49711f	-0.78688234
102	0xbf1301ed	-0.57424814
103	0xbf656542	-0.8960763
104	0xbf6b62e0	-0.91947746
105	0xbf2252ec	-0.6340778
106	0xbf35b8b0	-0.70984936
107	0xbf783e40	-0.96969986
108	0xbf6b9b3b	-0.9203374
109	0xbf23688d	-0.63831407
110	0xbf06b6bc	-0.5262258
111	0xbf1c5ff7	-0.6108393
112	0xbf480aeb	-0.7814166
113	0xbf2e33f6	-0.68048036
114	0xbf345223	-0.7043783
115	0xbf2319cc	-0.6371124
116	0xbf4fdb81	-0.8119431
117	0xbf376ecd	-0.71653444
118	0xbf26c1db	-0.6513955
119	0xbf80b425	-1.0054976
120	0xbf476240	-0.7788429
121	0xbf24c292	-0.6435939
122	0xbf1ec6dc	-0.62022185
123	0xbf5a003d	-0.85156614
124	0xbf3aa5ee	-0.7290944
125	0xbf534bcf	-0.8253755
126	0xbf5bf2d9	-0.8591743
127	0xbf2561d7	-0.64602417
128	0xbf39e0f1	-0.7260886
129	0xbf44edad	-0.76925164
130	0xbf478a55	-0.7794545
131	0xbf288f0f	-0.6584329
132	0xbf55ab05	-0.8346408
133	0xbf5deda9	-0.86690766
134	0xbf3f4459	-0.74713665
135	0xbf4fe6d3	-0.81211585
136	0xbf440f6e	-0.76586044
137	0xbf44dcaf	-0.76899236
138	0xbf69d8e3	-0.9134657
139	0xbf2e53ed	-0.6809681
140	0xbf35feeb	-0.710921
141	0xbf09b36c	-0.537894
142	0xbf4b4f1f	-0.79417604
143	0xbf0e1007	-0.55493206
144	0xbf39c4af	-0.7256574
145	0xbf37e6b9	-0.7183643
146	0xbf491180	-0.7854233
147	0xbf49c51c	-0.7881639
148	0xbefbd41d	-0.49185267
149	0xbf3bed17	-0.73408645
150	0xbf39e9e3	-0.7262251
151	0xbf1d6964	-0.6148894
152	0xbf5b1fb5	-0.85595256
153	0xbf3d1c44	-0.73871255
154	0xbf507a2e	-0.8143643
155	0xbf346457	-0.70465606
156	0xbf355ccb	-0.70844716
157	0xbf1577bf	-0.58385843
158	0xbf57f04d	-0.84351045
159	0xbf514364	-0.81743455
160	0xbef7a10f	-0.48365065
161	0xbf285c18	-0.65765524
162	0xbf3b5e6b	-0.73190945
163	0xbf1bc7a2	-0.6085149
164	0xbf64db34	-0.8939698
165	0xbf46a0b0	-0.7758894
166	0xbf0ebf3d	-0.55760556
167	0xbf5d4b04	-0.8644259
168	0xbf28c5ea	-0.6592699
169	0xbf49e74c	-0.78868556
170	0xbf2d74ce	-0.67756355
171	0xbf68fab8	-0.91007566
172	0xbf4070a8	-0.751719
173	0xbf2a2878	-0.66468
174	0xbf4409d1	-0.7657748
175	0xbf382b08	-0.7194066
176	0xbf07bb1a	-0.5301987
177	0xbf206bb3	-0.62664336
178	0xbf48e7bd	-0.78478605
179	0xbf2e02f2	-0.67973244
180	0xbf48c259	-0.7842155
181	0xbf31451a	-0.69246066
182	0xbf4bef52	-0.7966205
183	0xbf534df5	-0.8254083
184	0xbf372017	-0.7153334
185	0xbf425b31	-0.759204
186	0xbf449bf5	-0.7680047
187	0xbf5af3a5	-0.8552802
188	0xbf2bea99	-0.6715484
189	0xbf3f501f	-0.7473163
190	0xbf2c4ab0	-0.67301464
191	0xbf2afb56	-0.6678976
192	0xbf70a193	-0.9399654
193	0xbf444966	-0.766745
194	0xbf165e7f	-0.5873794
195	0xbf70941b	-0.9397599
196	0xbf2edc2c	-0.68304706
197	0xbf383bfe	-0.7196654
198	0xbf1be672	-0.60898507
199	0xbf35eb8f	-0.7106256
200	0xbf550ee5	-0.8322585
201	0xbf3c076b	-0.7344882
202	0xbf2e3832	-0.680545
203	0xbf4a10b2	-0.78931725
204	0xbf58f133	-0.8474304
205	0xbf3870f4	-0.7204735
206	0xbf4e2f20	-0.8054066
207	0xbf24ea18	-0.644197
208	0xbf356074	-0.708503
209	0xbf2bad53	-0.67061347
210	0xbf0a1a5d	-0.5394648
211	0xbf2054f1	-0.6262961
212	0xbf1c2515	-0.6099408
213	0xbf584fd0	-0.84496784
214	0xbf3f1a0c	-0.7464912
215	0xbf38b31c	-0.721483
216	0xbf65da5e	-0.89786327
217	0xbf3c6b7e	-0.7360152
218	0xbf71cf51	-0.94456965
219	0xbf152272	-0.58255684
220	0xbf33b516	-0.7019819
221	0xbf55ac37	-0.83465904
222	0xbf385a3e	-0.720127
223	0xbf34e41c	-0.7066057
224	0xbf3d2e51	-0.738988
225	0xbf5950ba	-0.84888804
226	0xbf3c1ec4	-0.73484445
227	0xbf448f00	-0.767807
228	0xbf239ed7	-0.63914245
229	0xbf12529e	-0.57157314
230	0xbf3a8d18	-0.7287154
231	0xbf151493	-0.5823452
232	0xbeef44cb	-0.46732172
233	0xbf173a82	-0.5907365
234	0xbf471eee	-0.7778157
235	0xbf3f8071	-0.7480536
236	0xbf4e3a7e	-0.80558
237	0xbf08f1e7	-0.53494114
238	0xbf221141	-0.6330758
239	0xbf0e39b8	-0.5555682
240	0xbf401561	-0.7503262
241	0xbf16de0d	-0.5893257
242	0xbf5ad3e6	-0.8547958
243	0xbf3d4805	-0.7393802
244	0xbf2352f0	-0.6379843
245	0xbf589b89	-0.8461233
246	0xbf344f53	-0.7043354
247	0xbf5aae77	-0.8542246
248	0xbf28a2ee	-0.6587361
249	0xbf4943ec	-0.78619266
250	0xbf1578ad	-0.5838726
251	0xbf252452	-0.64508545
252	0xbf528c55	-0.8224538
253	0xbf183179	-0.5945049
254	0xbf4af1cd	-0.7927521
255	0xbf54f15f	-0.83180803

fc2.weight f4 [128, 256]
0	0x3d5062b2	0.050875373
1	0xbc003a2f	-0.007826372
2	0xbdbee203	-0.09320452
3	0xbeaf67a5	-0.34258762
4	0xbe121916	-0.14267382
5	0x3d047320	0.032336354
6	0xbe5d3006	-0.2160035
7	0xbc0aaae0	-0.008463591
8	0x3e41aeb6	0.18914303
9	0x3ccd3c3c	0.025053136
10	0xbd44eda8	-0.04807821
11	0xbdcb6f0a	-0.099332884
12	0xbda483f5	-0.08032981
13	0xbeb4731b	-0.35244069
14	0x3e6c76ab	0.23092143
15	0xbe2a303e	-0.16619965
16	0xbd795071	-0.06086773
17	0xbc704f5c	-0.014667358
18	0x3e1870f2	0.14886835
19	0x3e85f335	0.26162115
20	0xbebcc30d	-0.36867562
21	0xbd041c29	-0.032253418
22	0x3da9ad50	0.0828501
23	0x3e6f7849	0.23385729
24	0xbcd28a26	-0.02570064
25	0x3db9e66b	0.09077152
26	0xbd87d2a7	-0.066319756
27	0xbde6ef4e	-0.112761125
28	0x3d58bf76	0.052916966
29	0xbd07e45e	-0.033176772
30	0x3d833418	0.064064205
31	0xbd38031b	-0.044924837
32	0xbc10b90f	-0.008833184
33	0xbd20916d	-0.03920119
34	0xbd9fc8f1	-0.078019984
35	0x3db92ba5	0.09041528
36	0x3d88d2a2	0.066808
37	0xbb9be75f	-0.004757806
38	0xbe22c86b	-0.15896766
39	0xbe1b6b6a	-0.15177694
40	0x3d97327c	0.07382676
41	0xbd5433f7	-0.05180737
42	0x3d36bd56	0.04461416
43	0xbc3c92b9	-0.011509591
44	0x3e1f83de	0.15577647
45	0x3d769284	0.060198322
46	0xbe86c2f3	-0.2632061
47	0x3d9980b9	0.07495255
48	0xbd83f4de	-0.06443189
49	0x3c8d58de	0.01725429
50	0x3e0de472	0.13856676
51	0x3b8a5042	0.0042209933
52	0x3d3835fc	0.04497336
53	0x3cabbfd4	0.020965494
54	0xbe414d61	-0.18877174
55	0xbe07ec24	-0.13273674
56	0xbbc1ed32	-0.0059181685
57	0xbe54ec72	-0.20793322
58	0x3e3ffc6f	0.1874864
59	0x3d33c408	0.04388812
60	0xbcf5e18f	-0.030014781
61	0x3d3aee1f	0.045637246
62	0x3e3978ba	0.1811246
63	0x3b6b235d	0.0035879232
64	0x3dd55664	0.10416868
65	0x3e16c0bd	0.14721961
66	0xbe404562	-0.18776467
67	0xbdfb338d	-0.12265692
68	0xbe4c96ee	-0.1997945
69	0x3d14626d	0.03622668
70	0xbceda5a1	-0.029009642
71	0xbc7477a2	-0.014921101
72	0x3da51a75	0.08061687
73	0xbe1d0eaa	-0.15337625
74	0xbe7f0546	-0.24904355
75	0xbd5318ab	-0.051537197
76	0x3decd401	0.11563874
77	0x3e196a1d	0.14981885
78	0xbe5c4385	-0.21510132
79	0x3dd6101c	0.10452291
80	0xbe8ff228	-0.28114438
81	0x3d2ab382	0.0416751
82	0xbe454d67	-0.19267808
83	0xbcd58c7f	-0.02606797
84	0x3ce4ede0	0.027945459
85	0xbd7c4499	-0.061588857
86	0x3db6989a	0.08915825
87	0xbe04d2f7	-0.12971102
88	0xbe2cc9bb	-0.16873829
89	0x3e08e8c8	0.13370049
90	0xbe448b3d	-0.1919374
91	0x3bdc1c71	0.0067172577
92	0x3cf8850b	0.030336877
93	0x3de89b38	0.113577306
94	0xbdad9fe7	-0.084777646
95	0x3d42bf25	0.04754557
96	0x3d775c81	0.060390953
97	0xbe5b8d63	-0.21440654
98	0xbe7e878d	-0.24856396
99	0x3d485869	0.04891244
100	0xbdb9f5f4	-0.09080115
101	0x3dc4f440	0.096168995
102	0xbf008621	-0.50204664
103	0xbe37ff4c	-0.17968482
104	0x3e4eb986	0.20187959
105	0xbd2bd9cb	-0.04195575
106	0xbde022a9	-0.10944111
107	0xbe20494f	-0.15652965
108	0x3d5222c1	0.051302675
109	0xbd630bc5	-0.055431146
110	0xbd408afb	-0.047007542
111	0xbd7989a1	-0.06092227
112	0x3e04fc68	0.1298691
113	0x3dadd33c	0.084875554
114	0xbe222183	-0.15833096
115	0xba95208d	-0.0011377499
116	0xbe413002	-0.1886597
117	0x3e4a5d7c	0.19762224
118	0xbccc3f47	-0.024932517
119	0xbce0f016	-0.027458232
120	0xbb737ab5	-0.0037151997
121	0xbe4dbbba	-0.20091143
122	0xbd455857	-0.04817995
123	0x3e0c6644	0.13710886
124	0x3e2d098e	0.16898176
125	0xbe54abfd	-0.20768733
126	0x3c0d9076	0.008640399
127	0xbc58f8ab	-0.013242881
128	0x3c735329	0.01485137
129	0x3db6cc7e	0.089257225
130	0x3defe0d9	0.11712808
131	0x3d25c8f8	0.04047486
132	0x3dea78b0	0.114488006
133	0xbe068a0d	-0.131386
134	0x3c43c5c4	0.0119490065
135	0xbd939485	-0.07206062
136	0xbe1c6e5f	-0.15276478
137	0xbdaa93df	-0.083289854
138	0xbe3f2104	-0.18664938
139	0xbd4a605b	-0.049408298
140	0x3ceaa18b	0.028641483
141	0xbe85dd7e	-0.26145548
142	0x3d8e7d86	0.069575354
143	0xbe56fd99	-0.20995177
144	0x3d8c7a8a	0.0685931
145	0xbd9d78e3	-0.07689073
146	0xbe873772	-0.2640949
147	0xbb639496	-0.0034726015
148	0x3e036db0	0.12834811
149	0xbe32b419	-0.17451514
150	0xbde36bd8	-0.11104554
151	0xbeac75c5	-0.336836
152	0x3e2370e4	0.15961033
153	0x3dc6ccea	0.09707053
154	0xbc800815	-0.015628854
155	0xbeb7fdbf	-0.3593578
156	0x3d515989	0.051110778
157	0x3e57d96f	0.21079038
158	0x3b97c5bc	0.004631726
159	0xbdd86605	-0.10566334
160	0x3dc017c9	0.09379537
161	0x3cbc28cc	0.022968672
162	0x3ba47dbe	0.0050198724
163	0x3c2ab63b	0.010419424
164	0xbee44eab	-0.4459127
165	0x3d10e560	0.035375
166	0xbe1b2605	-0.15151222
167	0x3c37b8e2	0.011213513
168	0xbd6f017c	-0.058351025
169	0x3e6088bd	0.21927162
170	0x3df800e3	0.12109544
171	0x3d30477a	0.043036915
172	0xbe63f5b1	-0.22261693
173	0x3d0f8a15	0.035043795
174	0x3d830133	0.06396713
175	0xbeda1144	-0.42591298
176	0x3c97d122	0.01853234
177	0x3d8713e3	0.0659559
178	0xbdb20947	-0.08693176
179	0xbd836410	-0.0641557
180	0xbe0b16fc	-0.13582987
181	0xbe88c884	-0.2671548
182	0xbe2c6802	-0.16836551
183	0xbdabd366	-0.083899304
184	0xbe62de4e	-0.22155115
185	0xbe14efb5	-0.14544566
186	0x3b4aba98	0.0030933972
187	0xbeaf7c08	-0.34274316
188	0xbe30e701	-0.17275621
189	0xbe5fca35	-0.2185448
190	0xbdd2e42e	-0.10297428
191	0xbec26f96	-0.37975758
192	0xbbdadb27	-0.006678957
193	0x3d58e546	0.052953027
194	0x3e2ac796	0.16677698
195	0xbde123f0	-0.10993183
196	0xbe03f898	-0.128878
197	0xbe2cdba1	-0.16880657
198	0x3df44d99	0.11928863
199	0xbdcf5872	-0.101242915
200	0xbe072adf	-0.13199948
201	0x3e5858dc	0.21127647
202	0xbe3c42fc	-0.18384928
203	0x3e18ab49	0.1490909
204	0xbdd6f1ca	-0.10495336
205	0x3e08ce32	0.13359907
206	0x3e0e5982	0.13901332
207	0x3e56ef87	0.2098981
208	0x3a2dcde8	0.00066301087
209	0xbcc087e0	-0.02350229
210	0x3e4608b2	0.19339254
211	0x3df5a9f0	0.11995304
212	0x3e634e79	0.22197904
213	0xbe257c77	-0.16160761
214	0x3cefffe9	0.029296832
215	0x3d34e3b4	0.044162467
216	0xbc510aa6	-0.012758886
217	0xbd36946b	-0.044575136
218	0x3e0f2fc2	0.13983062
219	0x3daa8b68	0.08327371
220	0xbec13af6	-0.37740296
221	0xbe3d3071	-0.1847551
222	0xbd66fef0	-0.05639547
223	0xbc2cde9c	-0.010551121
224	0xbddd53f8	-0.108070314
225	0x3c6b9c5c	0.014380541
226	0xbe922e83	-0.2855111
227	0x3d0c8c16	0.034313284
228	0x3c13b667	0.009015656
229	0xbdd3c018	-0.10339373
230	0x3dc1713d	0.094454266
231	0x3dea6135	0.11444322
232	0x3d92b387	0.071631484
233	0x3e6a8a99	0.22904433
234	0x3e735dc9	0.23766245
235	0x3e397f5b	0.18114989
236	0x3e26e824	0.16299492
237	0x3ce6612d	0.028122509
238	0xbc373884	-0.011182908
239	0x3e4f108b	0.20221154
240	0x3cadc906	0.02121402
241	0x3c0fd503	0.008778813
242	0xbe1c5093	-0.15265112
243	0xbdeeacca	-0.11654051
244	0xbdb5ddba	-0.088801816
245	0xbe69be2f	-0.22826456
246	0xbe8b607d	-0.27222052
247	0x3c3a1786	0.0113581475
248	0xbbe8ef8a	-0.0071086334
249	0xbe438737	-0.19094549
250	0xbdf6f81c	-0.12059042
251	0xbd872021	-0.06597925
252	0x3d865094	0.06558338
253	0x3de4c289	0.11169917
254	0xbd4bcb99	-0.049754713
255	0x3ca55825	0.020183632

fc2.bias f4 [128]
0	0x3dae54da	0.08512278
1	0x3df1a163	0.1179836
2	0xbe1cd49d	-0.1531548
3	0xbe01d683	-0.12679486
4	0x3ccd9bc0	0.025098681
5	0xbddd2f78	-0.108000696
6	0xbdde48c1	-0.108537205
7	0xbe11bfae	-0.14233276
8	0xbdb2eb52	-0.0873629
9	0xbbf7e241	-0.0075648134
10	0x3da226c1	0.07917548
11	0x3d6db2ac	0.058031723
12	0x3e4338f0	0.19064689
13	0x3e12bb52	0.1432927
14	0xbdb25cdf	-0.0870912
15	0xbd8ae8d9	-0.067826934
16	0xbd59a4d5	-0.05313571
17	0x3c9cd56c	0.019144736
18	0xbc0e2493	-0.008675712
19	0xbe0e4f6c	-0.13897485
20	0xbc51905a	-0.012790764
21	0x3e7cc442	0.24684241
22	0x3e70d53a	0.2351884
23	0x3d105650	0.035238564
24	0xbda2eaa5	-0.07954911
25	0xbd0bacff	-0.03410053
26	0xbd0707db	-0.032966476
27	0x3d971557	0.07377117
28	0xbdbce1ca	-0.09222753
29	0xbdf929f7	-0.12166207
30	0xbd21a164	-0.039460555
31	0xbd8104f2	-0.06299771
32	0xbd0e28ce	-0.034706883
33	0xbd9d7524	-0.076883584
34	0xbd80cb7f	-0.06288814
35	0x3d8a5328	0.06754142
36	0xbc2b82b7	-0.010468177
37	0x3d86bdfb	0.06579205
38	0xbd767b18	-0.060175985
39	0xbdb55130	-0.08853376
40	0x3d3b010a	0.045655288
41	0xbd8680d4	-0.06567541
42	0x3c934284	0.017976053
43	0xbd81c0d3	-0.063356064
44	0x3d9e6e15	0.0773584
45	0xbd29ec68	-0.04148522
46	0xbbb94307	-0.0056537422
47	0xbdc27854	-0.09495607
48	0xbdd3f90a	-0.10350235
49	0xbd873acf	-0.06603014
50	0xbd19fa6b	-0.037592333
51	0x3c9ebc34	0.019376852
52	0xbd9b723f	-0.0759015
53	0xbdeac385	-0.11463074
54	0xbdf3c87b	-0.11903473
55	0x3dc4d442	0.096107975
56	0xbd898c1b	-0.06716176
57	0xbdcd1104	-0.10013011
58	0xbcdf671b	-0.027270844
59	0x3d463e0f	0.048399027
60	0xbc730b51	-0.014834241
61	0x3d4d4f4d	0.050124455
62	0xbb8969b9	-0.0041935113
63	0x3e442e81	0.19158365
64	0xbc5685ae	-0.013093395
65	0x3db2f5a5	0.08738259
66	0x3d75c672	0.060003705
67	0x3d18a7c4	0.03726937
68	0xbdd4a26a	-0.103825405
69	0x3e2a0e93	0.16607122
70	0xbd08139e	-0.033221833
71	0xbbe49a24	-0.006976383
72	0x3d0af441	0.033924345
73	0x3db21046	0.0869451
74	0xbc889c12	-0.016675983
75	0x3d91ee7e	0.07125567
76	0x3acc1fe6	0.0015573471
77	0xbca775d6	-0.02044193
78	0x3e5525ba	0.20815173
79	0x3c0df51f	0.008664398
80	0xbd8aaff4	-0.06771842
81	0x3d8c3959	0.06846876
82	0x3d8058b3	0.06266918
83	0xbdb285de	-0.087169394
84	0x3e045369	0.12922443
85	0x3dc971e9	0.0983618
86	0x3b61d6ff	0.0034460423
87	0x3d19289b	0.03739224
88	0x3bb26449	0.005444084
89	0xbd3f1c62	-0.046657927
90	0xbd9cfd77	-0.07665532
91	0x3e165de4	0.14684254
92	0xbd51a5dd	-0.05118357
93	0xbda2b05c	-0.07943794
94	0xbdfa9957	-0.122362785
95	0xbda66843	-0.08125355
96	0x3e6985fb	0.22805016
97	0xbdd933c1	-0.106055744
98	0x3c04ab3f	0.008097469
99	0xbda508dd	-0.08058331
100	0xbd5ebaef	-0.054377493
101	0xbddd3513	-0.10801139
102	0xbc477adb	-0.012175287
103	0xbc99e0c7	-0.01878394
104	0xbe15ea3e	-0.14640138
105	0xbdac4082	-0.084107414
106	0xbd6a231e	-0.057162397
107	0x3d3d093e	0.046151392
108	0xbe0bb933	-0.13644867
109	0xbdafce68	-0.08584291
110	0xbd7dd288	-0.061968356
111	0xbc9bf4c7	-0.019037617
112	0x3e12ee7a	0.14348784
113	0x3ca6ed33	0.020376777
114	0xbd8d57f2	-0.0690154
115	0x3cb97ea9	0.022643404
116	0x3d65b5ea	0.05608169
117	0xbcf601fb	-0.030030241
118	0x3cf95965	0.030438134
119	0x3c399135	0.011326124
120	0xbdad99f6	-0.08476631
121	0xbe15b3fd	-0.14619441
122	0xbe0973d3	-0.1342309
123	0xbd718e21	-0.058973435
124	0x3a835d36	0.0010022286
125	0xbd36eeca	-0.04466132
126	0xbe067407	-0.13130198
127	0xbda9c495	-0.08289448

fc3.weight f4 [64, 128]
0	0xbe0f0195	-0.13965447
1	0xbe4f6c52	-0.20256165
2	0x3d34a80c	0.044105574
3	0x3d03a341	0.032138113
4	0x3cd0c143	0.02548278
5	0x3d95b31d	0.07309554
6	0x3dd424d0	0.10358584
7	0x3e4afd59	0.19823207
8	0xbc5a3b48	-0.013319798
9	0x3ddfac26	0.109215066
10	0xbe396d0a	-0.18108001
11	0xbdb065bb	-0.086131535
12	0xbe4f7f10	-0.20263314
13	0x3e00ee92	0.12591007
14	0x3e27a7a9	0.16372551
15	0x3e12d97c	0.14340776
16	0xbdc7d70a	-0.09757812
17	0x3d59d737	0.05318376
18	0xbd26e4be	-0.04074549
19	0x3de9ba52	0.11412491
20	0xbdcdbe24	-0.10046032
21	0xbd9a3c01	-0.07530976
22	0xbdd6fd77	-0.10497563
23	0xbe1c0a85	-0.15238388
24	0x3ca20448	0.019777432
25	0x3e01b8e4	0.12668186
26	0x3d8dd477	0.0692529
27	0xbde48acf	-0.11159288
28	0xbd0d8a0d	-0.034555484
29	0x3d1313f5	0.035907704
30	0x3e605be4	0.21910053
31	0xbd3cda67	-0.046106722
32	0xbdb22027	-0.08697539
33	0xbe910829	-0.28326538
34	0x3eb603ec	0.35549867
35	0xbd303119	-0.043015573
36	0x3d859a74	0.065236
37	0x3e4f23dd	0.20228525
38	0x3d49cad6	0.049265705
39	0xbd1d1c04	-0.038356796
40	0xbe213525	-0.1574293
41	0x3d502ab5	0.05082198
42	0xbd77097f	-0.06031179
43	0xbc7b1aa7	-0.015326179
44	0x3d8e2506	0.069406554
45	0xbce98c41	-0.028509261
46	0x3d0210ee	0.031754427
47	0xbda67992	-0.081286564
48	0x3e471aa0	0.1944375
49	0x3d4df883	0.050285827
50	0x3d8540d1	0.065065034
51	0x3ca39a4c	0.019971035
52	0x3a31bcd3	0.0006780151
53	0xbde075a3	-0.109599374
54	0xbca016dd	-0.019542152
55	0xbdfae612	-0.12250914
56	0xbda5521f	-0.08072304
57	0x3d9246d4	0.07142416
58	0xbe4a1fb5	-0.19738658
59	0xbe315b92	-0.17320088
60	0xbd8f16ea	-0.069867924
61	0xbe93454e	-0.28763813
62	0x3da98cbb	0.08278795
63	0xbe3b30ea	-0.18280378
64	0xbd43c7be	-0.04779791
65	0xbe255f9d	-0.16149755
66	0x3d67ec96	0.05662211
67	0xbda6794d	-0.08128605
68	0x3db91049	0.09036309
69	0xbeabfb26	-0.3359005
70	0x3d12911b	0.035782915
71	0x3e22f019	0.15911902
72	0x3d38713c	0.045029864
73	0x3e687cc5	0.22703846
74	0x3e3bdd5f	0.18346165
75	0x3e03743d	0.1283731
76	0xbe2319bb	-0.15927784
77	0xbd619dc6	-0.055082105
78	0xbe0ecea2	-0.13946012
79	0x3c5612fa	0.013066048
80	0x3e0a559e	0.13509223
81	0xbe853fde	-0.2602529
82	0xbdf79957	-0.12089794
83	0x3d1150bd	0.03547739
84	0xbe0b9246	-0.13630018
85	0xbe60f61f	-0.21968888
86	0xbbee8316	-0.0072788103
87	0x3d87f8fc	0.06639287
88	0xbe7f88c9	-0.24954523
89	0xbd2c15ef	-0.042013105
90	0x3cd5ab7d	0.026082749
91	0x3d86938a	0.065711096
92	0xbc66dd19	-0.0140908
93	0x3da08314	0.07837501
94	0x3da908d4	0.08253637
95	0xbd2d16b7	-0.04225799
96	0xbe858652	-0.2607904
97	0x3e8cc473	0.2749363
98	0x3e77d5eb	0.24202697
99	0xbe641556	-0.22273764
100	0xbdd67c28	-0.104729
101	0x3da9c146	0.08288817
102	0xbe234462	-0.15944055
103	0xbd01c316	-0.03168019
104	0x3da606cd	0.08106766
105	0xbe01e6ba	-0.12685671
106	0x3db58147	0.08862548
107	0x3dc71da2	0.09722449
108	0x3dde5479	0.10855956
109	0xbd89454b	-0.0670267
110	0x3dd32e7c	0.103116006
111	0xbc923425	-0.01784713
112	0xbe0ac08c	-0.13550013
113	0x3cb2fc62	0.021848861
114	0xbd82e33c	-0.06390998
115	0xbccafd62	-0.024779025
116	0xbdddec10	-0.10836041
117	0xbdc472ee	-0.095922336
118	0x3e1fca89	0.15604605
119	0xbdd99585	-0.10624222
120	0xbe11811f	-0.14209412
121	0xbb9647e1	-0.0045862054
122	0xbe989adb	-0.29805645
123	0xbe0260e7	-0.12732278
124	0xbd572097	-0.052521314
125	0xbe546ce4	-0.20744663
126	0xbe454c0d	-0.19267292
127	0xbdb3d1d5	-0.08780257
128	0xbd05e627	-0.032690194
129	0x3da4c688	0.08045679
130	0xbc849da0	-0.016188443
131	0xbd5d2d19	-0.053998087
132	0xbd80c065	-0.06286696
133	0xbe095bb8	-0.13413894
134	0xbe5829f1	-0.2110975
135	0xbe9913f8	-0.29898047
136	0x3d906baa	0.07051785
137	0xbd045fc0	-0.032317877
138	0xbdc2685b	-0.094925605
139	0x3bc04efa	0.0058687897
140	0x3cc31248	0.023812428
141	0xbdeaf284	-0.114720374
142	0xbdc7e6d1	-0.097608216
143	0xbaf27004	-0.0018496518
144	0xbd12f501	-0.035878185
145	0xbb8e0c1a	-0.0043349387
146	0xbd3d1637	-0.046163764
147	0xbcaf2137	-0.021378143
148	0xbd3431cf	-0.043992814
149	0x3e6f158d	0.23348065
150	0x3e14474f	0.14480327
151	0xbe00021e	-0.12500808
152	0xbc5a714b	-0.013332675
153	0x3d07ba10	0.033136427
154	0xbe43263c	-0.19057554
155	0x3e85b550	0.26114893
156	0xbdaf15ba	-0.08549066
157	0x3c1b8efa	0.0094945375
158	0x3cd2a1b9	0.025711881
159	0xbb7ccc58	-0.0038573947
160	0xbc074c74	-0.008257974
161	0x3e5fd417	0.2185825
162	0xbd41dce5	-0.047329802
163	0xbe7a386d	-0.24435587
164	0xbd7c26af	-0.06156033
165	0x3d08012e	0.03320425
166	0xbd9be92e	-0.07612835
167	0xbc9a3e1f	-0.01882845
168	0x3e31307c	0.17303652
169	0xbe7ff105	-0.24994285
170	0xbce4acf8	-0.02791451
171	0x3d8b2b64	0.067953855
172	0x3c0bc06e	0.0085297655
173	0xbc20fc62	-0.009825798
174	0xbcd66316	-0.026170295
175	0xbd49f25b	-0.049303394
176	0xbe546ff9	-0.20745839
177	0xbe0ddf07	-0.1385461
178	0xbd828830	-0.06373632
179	0x3d8ea505	0.06965069
180	0x3e050f0b	0.1299402
181	0xbe028364	-0.12745434
182	0xbe6d0c1b	-0.23149149
183	0x3d828bce	0.06374322
184	0xbe975e70	-0.29564238
185	0xbb4cbb1e	-0.003123946
186	0x3e7a3d20	0.2443738
187	0xbd1914e4	-0.03737344
188	0xbdbdc5b9	-0.09266228
189	0x3df0a246	0.11749701
190	0x3d290cd3	0.041271996
191	0x3e5b0766	0.21389541
192	0x3d8a8616	0.06763856
193	0x3dcb939b	0.09940263
194	0xbe59eb8f	-0.21281265
195	0x3d6c1025	0.057632584
196	0xbd6e005b	-0.058105808
197	0x3e828d15	0.25498262
198	0xbd5ba21b	-0.053621393
199	0xbdd6c7d4	-0.10487333
200	0xbd9b9433	-0.07596626
201	0xbdfcf429	-0.12351257
202	0x3d0e2679	0.03470466
203	0x3ddbe6de	0.10737394
204	0xbdd7634c	-0.10516986
205	0x3ba1f853	0.0049429326
206	0x3e0368b3	0.12832908
207	0xbdd6cf63	-0.104887746
208	0xbdf5c5ed	-0.12000642
209	0x3e7d8525	0.24757822
210	0xbce90859	-0.028446363
211	0xbe9f1c4c	-0.31076276
212	0xbe667a32	-0.22507551
213	0x3c84bc85	0.016203174
214	0xbe192f84	-0.14959532
215	0xbe206dfe	-0.15666959
216	0x3deab586	0.11460404
217	0xbd8b3596	-0.0679733
218	0xbd6cedaa	-0.05784384
219	0xbe354292	-0.17701176
220	0xbdecb6d7	-0.115583114
221	0x3b8c8f12	0.0042895162
222	0xbe3678ad	-0.17819472
223	0xbd13b121	-0.036057595
224	0xbe0ea2af	-0.13929246
225	0xbd858208	-0.06518942
226	0xbd5dcdd3	-0.054151367
227	0x3cbfb155	0.023399988
228	0xbe1c02f2	-0.15235499
229	0xbe06ea93	-0.1317542
230	0xbe348cc6	-0.17631826
231	0xbdc72027	-0.097229294
232	0xbd7a77ed	-0.061149526
233	0x3ce1f784	0.027583845
234	0x3c9fbefa	0.019500244
235	0x3d12010a	0.035645522
236	0xbbb9652b	-0.005657812
237	0xbe65c638	-0.22438896
238	0xbde7d0c9	-0.113191195
239	0x3e884881	0.26617816
240	0x3e685712	0.22689465
241	0xbe84fd9c	-0.2597474
242	0xbd004a69	-0.031320963
243	0x3d584f1d	0.052809823
244	0xbe2e2b8c	-0.170088
245	0x3e52230e	0.20521185
246	0x3b3b1255	0.0028544862
247	0xbe87bddb	-0.26512036
248	0xbe416b14	-0.18888503
249	0x3cfb0596	0.030642312
250	0x3d9b4cb9	0.07582993
251	0x3e3c850b	0.18410127
252	0x3e0e32bd	0.13886543
253	0x3db75139	0.08951039
254	0xbe524d75	-0.2053736
255	0xbe1b86b4	-0.15188104

fc3.bias f4 [64]
0	0x3d33b4ec	0.043873712
1	0x3e454bda	0.19267216
2	0xbe3298d1	-0.17441107
3	0x3d8de969	0.06929285
4	0x3eb877d4	0.36028922
5	0xbca53706	-0.020167839
6	0x3e4ba9d2	0.19889
7	0x3e343b01	0.17600633
8	0x3d138f05	0.036025066
9	0x3ddeb842	0.10874988
10	0xbd31576c	-0.043296263
11	0x3e239f61	0.15978767
12	0x3dc0377f	0.09385585
13	0x3e3e4e62	0.18584588
14	0x3e5bdf25	0.21471842
15	0x3e1b5741	0.15170003
16	0xbdd2aa87	-0.10286432
17	0x3daa7f59	0.08325071
18	0x3d448587	0.047978904
19	0x3e0892f1	0.13337304
20	0x3eab593e	0.33466524
21	0x3dc40b34	0.09572449
22	0x3dc55f93	0.0963737
23	0x3e33653a	0.17519084
24	0x3e65460c	0.22390002
25	0x3e25a3d9	0.16175784
26	0xbd35b20c	-0.04435925
27	0x3e25da8c	0.1619665
28	0x3ec65282	0.38734823
29	0xbe7c3e48	-0.24633133
30	0x3e777301	0.24164964
31	0x3e731651	0.23738982
32	0x3e59c18f	0.21265243
33	0x3e3a38b7	0.18185697
34	0x3e8dd2f8	0.2770002
35	0x3ecec037	0.40381023
36	0x3e6ceb4b	0.23136632
37	0x3eb79916	0.35858983
38	0x3eb4510a	0.35218078
39	0x3ea2279a	0.3167084
40	0x3cfbb32c	0.030725084
41	0xbe9066ea	-0.28203517
42	0xbde50483	-0.11182501
43	0x3e11dccb	0.14244382
44	0xbe5ce383	-0.21571164
45	0x3d0bb41b	0.03410731
46	0x3eeb77e9	0.45989922
47	0x3e0a9698	0.1353401
48	0x3c0ae0e4	0.00847647
49	0x3d9fa798	0.07795638
50	0xbe38ed71	-0.18059327
51	0xbe5270a9	-0.20550789
52	0x3eba6264	0.3640319
53	0x3e8c677c	0.27422702
54	0xbec3cf78	-0.38244224
55	0xbc692273	-0.014229405
56	0x3d25a555	0.040440876
57	0x3e541f29	0.20715012
58	0x3e1f15e2	0.15535691
59	0x3d4de48e	0.050266795
60	0x3cb1212e	0.021622267
61	0xbc935d88	-0.017988935
62	0xbdf60f45	-0.12014631
63	0x3dfe1294	0.12405887

fc4.weight f4 [32, 64]
0	0x3df3ac4c	0.118980974
1	0xbd513249	-0.051073346
2	0x3b79ddf4	0.003812668
3	0x3e2a9706	0.16659173
4	0xbea76240	-0.32692146
5	0x3df08b5d	0.117453314
6	0x3d1da9d1	0.038492028
7	0x3d4d1dc3	0.05007721
8	0xbdae0fa8	-0.0849908
9	0xbd8b6e1c	-0.06808111
10	0xbd8b56a1	-0.068036325
11	0x3e20dc6f	0.15709089
12	0x3df58a52	0.11989273
13	0xbe98c366	-0.29836577
14	0x3c8d71b2	0.017266128
15	0x3ddc0756	0.10743587
16	0xbd630be6	-0.05543127
17	0x3da5d67a	0.08097549
18	0xbdb6df16	-0.08929269
19	0xbe465afb	-0.19370644
20	0xbe534e75	-0.20635398
21	0xbeb4e301	-0.3532944
22	0xbe8dc60d	-0.27690163
23	0xbd95fbd8	-0.07323426
24	0x3d8004cf	0.06250917
25	0x3e2b4f32	0.1672943
26	0xbde09031	-0.10965002
27	0x3d97a943	0.07405331
28	0x3d0965e4	0.033544436
29	0xbd684ac8	-0.056711942
30	0xbdb66d1e	-0.08907531
31	0x3d880a19	0.06642551
32	0x3d0cd39c	0.034381494
33	0xbe135a22	-0.14389852
34	0x3ce77887	0.028255714
35	0xbe7d217d	-0.24719806
36	0xbce5ef55	-0.028068224
37	0x3d6473a0	0.05577433
38	0xbea78f12	-0.3272634
39	0x3ccb2d9d	0.024802024
40	0x3e3992bb	0.1812238
41	0xbe76e721	-0.24111606
42	0x3d59b723	0.05315317
43	0xbe4d8047	-0.20068465
44	0x3c78a00f	0.01517488
45	0x3da2d667	0.0795105
46	0xbd904d5f	-0.07046007
47	0x3db31991	0.08745111
48	0x3d98893d	0.07448051
49	0xbdc6399b	-0.09678956
50	0x3d40b923	0.04705156
51	0xbe94f442	-0.29092604
52	0x3e1bb3df	0.15205334
53	0xbe3d681c	-0.18496746
54	0x3c6a64b3	0.014306235
55	0x3cb3cff9	0.021949755
56	0x3e35a0c6	0.17737111
57	0x3ca9ff60	0.020751655
58	0xbe1efdf6	-0.15526566
59	0x3b60b9d9	0.0034290461
60	0xbe8f5e28	-0.28001523
61	0xbe07c61d	-0.13259168
62	0xbd9b44e4	-0.07581499
63	0xbe5a1b22	-0.21299413
64	0xbe0fdbd0	-0.14048696
65	0x3dbe2e6e	0.092861995
66	0xbcadee07	-0.021231664
67	0xbc96788a	-0.018368024
68	0x3da57c36	0.08080332
69	0xbc83c641	-0.016085746
70	0xbe90226d	-0.28151265
71	0xbe5bcce0	-0.21464872
72	0xbd5bf9f1	-0.05370516
73	0xbdeb2eae	-0.11483513
74	0x3c632105	0.013862853
75	0xbd9e5cdf	-0.077325575
76	0xbe39ea76	-0.18155846
77	0x3e24e092	0.16101292
78	0xbdf56071	-0.11981285
79	0xbe727317	-0.23676716
80	0xbe247387	-0.16059695
81	0xbe8bad87	-0.27280828
82	0x3d5edb86	0.054408573
83	0x3d3d73b8	0.046252936
84	0x3e128e75	0.14312156
85	0xbdad5585	-0.08463577
86	0x3e37db03	0.1795464
87	0x3db72b26	0.08943777
88	0xbe56c9b8	-0.20975387
89	0xbdf81a41	-0.121143825
90	0x3dc305cf	0.09522592
91	0xbe464e3e	-0.19365785
92	0xbdb2c0b6	-0.08728163
93	0x3d8b5230	0.068027854
94	0x3e18ce1a	0.14922372
95	0xbe1e633c	-0.15467542
96	0xbe63aaeb	-0.22233169
97	0x3dfff8ea	0.124986485
98	0xbe55b3ff	-0.20869444
99	0x3b8ccdad	0.0042969794
100	0x3e15a57d	0.1461391
101	0xbdd21d18	-0.102594554
102	0x3d959041	0.07302905
103	0xbdfe3227	-0.124119096
104	0xbdaf8593	-0.08570399
105	0xbb9cac94	-0.004781315
106	0xbe0d7f32	-0.13818052
107	0xbde0252b	-0.10944589
108	0x3d92d3c9	0.07169301
109	0xbdf83204	-0.12118915
110	0x3d5831d8	0.05278191
111	0xbe28cf07	-0.16485225
112	0xbe4b0fd0	-0.1983025
113	0xbca30296	-0.019898694
114	0x3db9ccc7	0.09072261
115	0xbcee47e9	-0.029087024
116	0xbe9828ed	-0.29718724
117	0x3bc7b052	0.006094017
118	0xbe5c70b9	-0.21527375
119	0xbd2b7f34	-0.041869357
120	0xbd95f23d	-0.07321594
121	0xbe564deb	-0.20928161
122	0x3e0b86de	0.13625666
123	0xbd63fa1d	-0.05565845
124	0x3c6b6f51	0.014369802
125	0x3d3e529a	0.046465494
126	0xbd67cc7e	-0.056591503
127	0x3e2e3166	0.17011032
128	0xbe93b30f	-0.28847548
129	0x3e4e3a15	0.20139344
130	0xbdacbfbf	-0.0843501
131	0xbdfe0978	-0.1240415
132	0x3d6c9d2a	0.05776707
133	0xbd857d62	-0.065180555
134	0xbe5e52ff	-0.21711348
135	0xbdac6700	-0.08418083
136	0xba6a4b48	-0.00089376094
137	0x3b230058	0.002487203
138	0xbb55143e	-0.0032513286
139	0xbe18171c	-0.14852566
140	0xbe2a40bf	-0.16626261
141	0x3e2634c6	0.16231069
142	0xbe73da61	-0.23813774
143	0xbdc1b07f	-0.09457492
144	0x3c54a0fe	0.012977837
145	0x3da13a4f	0.078724496
146	0x3dfb1b41	0.12261058
147	0x3e1c2690	0.15249085
148	0x3d4d4f59	0.0501245
149	0x3dbba7ba	0.09162851
150	0xbc18df1b	-0.009330536
151	0x3dfa4159	0.12219495
152	0xbe4e6f6b	-0.2015969
153	0x3cb5c41d	0.02218824
154	0x3a16739c	0.0005739273
155	0xbc9301ac	-0.017945133
156	0xbc9448f7	-0.018101199
157	0xbc815736	-0.015788656
158	0x3d7e4315	0.062075693
159	0xbdc534ea	-0.09629233
160	0xbe3e068b	-0.18557183
161	0xbc97a3a7	-0.018510653
162	0xbddb147a	-0.10697265
163	0x3e010d7e	0.12602803
164	0xbcae7fcb	-0.02130117
165	0xbe96818d	-0.29395714
166	0x3e0720ff	0.13196181
167	0xbe54eda8	-0.20793784
168	0xbe361d41	-0.17784597
169	0xbdf416d2	-0.11918415
170	0xbe64bfdb	-0.22338812
171	0x3d0acbe5	0.033885855
172	0xbcde40f9	-0.02713059
173	0xbe156841	-0.14590551
174	0xbd7827d4	-0.060584858
175	0xbe8076b8	-0.25090575
176	0xbdd5d802	-0.10441591
177	0x3df19b98	0.11797255
178	0x3dacc342	0.0843568
179	0xbc2d8608	-0.010591038
180	0xbe867640	-0.26262093
181	0xbcc8d3ed	-0.024515117
182	0xbe496c1b	-0.19670145
183	0xbe5d4d78	-0.21611583
184	0xbda699fe	-0.081348404
185	0xbe5d83d9	-0.21632327
186	0x3dc57558	0.09641522
187	0xbb2a4fa8	-0.002598742
188	0x3cda0cdb	0.026617458
189	0x3baa9bcc	0.0052065607
190	0xbe531515	-0.20613511
191	0x3c0c4a30	0.00856261
192	0xbe2aac97	-0.166674
193	0x3c5f1646	0.01361615
194	0x3da8fe9f	0.0825169
195	0xbd8c4a63	-0.06850126
196	0x3d9d8778	0.07691854
197	0xbe15f264	-0.14643246
198	0xbe87a06e	-0.26489586
199	0xbea47f94	-0.32128584
200	0x3d6e99c9	0.05825213
201	0x3bea4a5b	0.007149977
202	0x3ceda645	0.029009948
203	0xbdcfb01e	-0.101410136
204	0xbddb1de7	-0.10699063
205	0xbd57d150	-0.05268985
206	0xbe7d1868	-0.24716341
207	0xbe8e8631	-0.27836755
208	0xbe361bc0	-0.17784023
209	0xbe7f25b7	-0.24916731
210	0x3d35a370	0.04434532
211	0xbd3b04aa	-0.045658745
212	0x3dcec4fa	0.10096164
213	0x3e08d769	0.13363422
214	0x3e012850	0.12613034
215	0x3df4f413	0.11960616
216	0xbe0cad0b	-0.13737886
217	0xbed2dcec	-0.41184175
218	0xbdbe81d5	-0.09302107
219	0xbe74236e	-0.2384164
220	0x3d89c13d	0.067263104
221	0x3d458f40	0.048232317
222	0x3dc366c9	0.09541089
223	0xbd4577cd	-0.048209954
224	0xbe88d0cb	-0.26721796
225	0x3d652c46	0.055950426
226	0xbe043fad	-0.12914915
227	0x3aff57f7	0.0019481172
228	0xbc853354	-0.016259827
229	0xbeccf6f6	-0.40032166
230	0xbd5c6729	-0.05380932
231	0xbe4998ec	-0.19687241
232	0xbe11571d	-0.14193387
233	0xbd4a2480	-0.049351215
234	0xbe46401f	-0.19360398
235	0x3d5db88a	0.05413107
236	0x3ddc776d	0.10764966
237	0xbe931edd	-0.28734484
238	0x3dc1e1a6	0.09466867
239	0xbe05ffa1	-0.13085796
240	0xbddbf9ef	-0.107410304
241	0x3e187041	0.14886571
242	0x3df1914d	0.11795292
243	0x3e0da585	0.13832672
244	0xbdb1ea01	-0.08687211
245	0xbd4d8802	-0.050178535
246	0xbe429f1f	-0.19006012
247	0xbd8fc5d8	-0.070201576
248	0xbe8f3254	-0.27968085
249	0xbe2a2b54	-0.16618091
250	0xbd8e247e	-0.06940554
251	0x3d13c0e6	0.036072634
252	0x3de995fc	0.114055604
253	0x3e019683	0.12655072
254	0xbbb44f1f	-0.005502596
255	0x3e226a47	0.15860854

fc4.bias f4 [32]
0	0x3e5dbf4c	0.21655005
1	0x3ea80177	0.32813618
2	0x3ef2964c	0.47380292
3	0x3e702aeb	0.23453872
4	0x3eb620f9	0.3557203
5	0x3ea96d72	0.33091313
6	0x3ec56dd2	0.3856035
7	0x3ea4cbdc	0.32186782
8	0x3e3dfae5	0.1855274
9	0x3eacd2a5	0.3375446
10	0x3effe989	0.4998286
11	0x3ebf4d35	0.37363592
12	0x3e8701ed	0.26368657
13	0x3e88e0c9	0.26733997
14	0x3e25fe35	0.16210254
15	0x3e6cec40	0.23136997
16	0xbd442410	-0.047885954
17	0xbd75f99c	-0.0600525
18	0xbd60c2e8	-0.054873377
19	0x3e894f73	0.26818427
20	0x3e9c3e06	0.3051607
21	0x3e7a8b4e	0.24467203
22	0x3ef308e0	0.4746771
23	0x3e99dbdd	0.30050555
24	0x3e76717e	0.24066731
25	0x3dfac17a	0.12243934
26	0x3ec2865e	0.3799314
27	0x3e77bddd	0.24193521
28	0x3e84ed37	0.2596223
29	0xbdf40d5f	-0.11916613
30	0x3e9a3d8b	0.3012508
31	0xbd8b4e3c	-0.068020314

fc5.weight f4 [1, 32]
0	0x3e2b42fa	0.16724768
1	0xbe2a2498	-0.16615522
2	0xbe351ca5	-0.17686708
3	0xbe21bffb	-0.15795891
4	0xbe0c9910	-0.13730264
5	0xbe3b8610	-0.1831286
6	0xbe0a0870	-0.13479781
7	0xbe396f50	-0.18108869
8	0x3ded7101	0.115938194
9	0xbe154ee8	-0.14580882
10	0xbdf45029	-0.11929352
11	0x3e20f1be	0.15717217
12	0xbdff27a7	-0.12458735
13	0x3ddaabde	0.10677312
14	0x3e23ecca	0.16008297
15	0x3e0b6441	0.13612463
16	0x3dcd0492	0.10010637
17	0xbd071343	-0.032977354
18	0xbb3d366e	-0.0028871554
19	0x3e17983e	0.1480417
20	0xbdef642e	-0.1168903
21	0x3e567078	0.20941341
22	0xbe56c4cc	-0.2097351
23	0x3e0a4478	0.13502681
24	0x3dc54c7c	0.09633729
25	0x3e0b29ea	0.13590208
26	0xbdea243d	-0.11432693
27	0x3dd35f72	0.10320939
28	0xbe295d5b	-0.16539519
29	0x3d6e28e4	0.058144465
30	0x3e05af6a	0.13055196
31	0xbd996027	-0.07489043
